applications/dnn/torch/cifar10_resnet/models/resnet14_cifar10.pth (torch, 742466 bytes, 77 tensors)

conv1.weight f4 [16, 3, 3, 3]
0.19197364 -0.081817366 0.119277254 0.008841246 -0.13583256 0.101097144 0.020470317 0.10215575
-0.19626929 -0.24703963 -0.39372948 0.20416369 -0.3373278 -0.54461455 0.6221009 0.057694867
0.11985768 0.15431084 -0.19646747 -0.32054865 0.059266068 -0.17574629 -0.4168776 0.71441174
0.023997962 0.06442594 -0.010494081 -0.19506043 -0.15384369 -0.24742723 0.09955281 0.026593912
-0.28673577 -0.13916793 0.08999006 -0.052501474 0.28637737 0.45353088 0.17340073 0.53458756
0.5839226 0.03892329 0.08794181 0.2703828 -0.10223668 -0.1140157 -0.30393413 0.11775393
-0.3277605 -0.67936 -0.045975573 -0.248262 0.056823794 0.12214446 -0.09182819 -0.48230535
-0.20359205 -0.36828533 -0.26476607 -0.44665414 0.07619343 -0.46246526 -0.055135027 0.045652248
0.20809801 0.13568407 0.123912476 0.6017931 -0.19448389 -0.007677844 0.05917428 0.09212361
0.012016232 0.27642143 -0.006509805 0.07977106 0.72389007 0.16265982 -0.110317975 0.051446088
0.14255057 -0.17724131 -0.44755873 -0.12824003 0.34198713 0.6226885 0.15801843 0.13203497
0.13385268 -0.22147954 0.025958065 0.0060132844 -0.21677554 0.5850666 1.1159898 0.29780436
0.119427785 -0.09346399 0.21737444 0.0019445536 -0.060980197 -0.17389402 -0.28223294 -0.027659677
-0.15979578 -0.051796112 -0.1193738 -0.11457279 -0.21081969 -0.21825911 -0.078212954 -0.31513578
0.7188883 0.19378704 0.106733605 0.24667867 0.18738449 0.16286586 0.15552473 0.08161385
-0.77248585 0.22848624 0.0111312065 -0.16712615 -0.33819374 -0.2660158 0.2103186 -0.044467635
-0.061450765 -0.062227443 0.28675222 -0.081104055 0.3214865 -0.0047158087 0.027123837 0.04298898
0.30276632 0.25265074 0.113005124 -0.016608404 0.43060488 -0.2680052 -0.49444562 -0.3327286
0.20760304 0.09400951 0.28975645 0.14791095 -0.249877 0.18641183 -0.155759 -0.3470217
-0.07204631 0.16746743 0.1481822 0.36541948 -0.08326823 -0.4607677 0.43726858 -0.24030149
-0.51542395 -0.017682169 0.114346534 -0.114605255 -0.20790337 0.138233 0.1555562 -0.120218165
0.18692023 0.3915554 -0.16155899 -0.27626592 -0.15470085 -0.29302117 -0.2805782 0.4770853
0.23958744 -0.006562573 0.13553806 -0.10272034 -0.061789278 0.2960825 -0.08365715 -0.29628593
1.2726046 0.30413 -0.23770137 -0.18455169 -0.16526367 0.08829218 0.16403793 0.2424914
-0.17892902 -0.21509534 -0.08522482 0.30344576 -0.39730796 -0.36463937 0.042538326 0.013747391
-0.2627246 -0.21267135 -0.12366602 -0.20477575 0.15771915 -0.5792642 -0.2172976 -0.23380534
0.053769782 0.05885878 -0.09309001 0.5320287 0.40428165 0.29318365 0.25367472 0.5307259
0.004723767 0.08975244 -0.06210686 0.014649232 -0.27793524 -1.4907776 -0.005513827 0.087939925
-0.036737826 0.036434222 -0.16065058 0.063724145 0.17326829 -0.24569803 -1.569877 -0.05018615
0.17585912 -0.20741057 -0.092488 0.1304338 0.050474495 0.11405572 -0.006038471 -1.2972494
0.1694613 0.29051566 0.16104683 0.023374187 0.0058603054 0.10127877 0.17927317 -0.048913524
0.10845996 0.12187745 0.3939974 0.15294951 -0.15174024 -0.2924503 -0.0521321 -0.4245825
00000000: bd94 443e dd8f a7bd a247 f43d e0da 103c
00000010: b117 0bbe 050c cf3d 5eb1 a73c 0937 d13d
00000020: d1fa 48be f5f7 7cbe e996 c9be 4910 513e
00000030: 3bb6 acbe dc6b 0bbf 0142 1f3f 7451 6c3d
00000040: f177 f53d a903 1e3e c52e 49be f41e a4be
00000050: fac0 723d d6f6 33be fb70 d5be b0e3 363f
00000060: 6097 c43c bff1 833d 5eef 2bbc ecbd 47be
00000070: 3389 1dbe 905d 7dbe 58e2 cb3d 7adb d93c
00000080: 08cf 92be 0a82 0ebe b54c b83d c90b 57bd
00000090: 0ea0 923e 3335 e83e f68f 313e bbda 083f
000000a0: f47b 153f 076e 1f3d d61a b43d 9d6f 8a3e
000000b0: 7761 d1bd 1081 e9bd 419d 9bbe f928 f13d
000000c0: 39d0 a7be 89ea 2dbf e250 3cbd 6538 7ebe
000000d0: 11c0 683d e026 fa3d 6b10 bcbd baf0 f6be
000000e0: 6f7a 50be e58f bcbe 6b8f 87be daaf e4be
000000f0: 4d0b 9c3d 3fc8 ecbe 44d5 61bd dafd 3a3d
00000100: a517 553e c4f0 0a3e d3c5 fd3d 1d0f 1a3f
00000110: c926 47be 6c96 fbbb bb60 723d 4eab bc3d
00000120: bbdf 443c 1c87 8d3e 3450 d5bb 025f a33d
00000130: dc50 393f 4c90 263e 64ee e1bd 22b9 523d
00000140: c7f8 113e bf7e 35be 6b26 e5be 5b51 03be
00000150: f018 af3e 8368 1f3f 95cf 213e 2d34 073e
00000160: ad10 093e 88cb 62be 02a6 d43c 160b c53b
00000170: 68fa 5dbe edc6 153f c1d8 8e3f d079 983e
00000180: 8e96 f43d 0c6a bfbd 6897 5e3e 64e0 fe3a
00000190: 5fc6 79bd 4611 32be d680 90be 8c96 e2bc
000001a0: 81a1 23be 2928 54bd 407a f4bd 24a5 eabd
000001b0: 1ee1 57be 517f 5fbe 1d2e a0bd 7a59 a1be
000001c0: 1009 383f 1c70 463e 2697 da3d 5599 7c3e
000001d0: b8e1 3f3e 4fc6 263e e041 1f3e 2a25 a73d
000001e0: a2c1 45bf 4cf8 693e aa5f 363c 1e23 2bbe
000001f0: bb27 adbe 3933 88be c25d 573e b223 36bd
00000200: ccb3 7bbd 34e2 7ebd 30d1 923e e219 a6bd
00000210: e199 a43e 1287 9abb cf32 de3c 3615 303d
00000220: 3004 9b3e 705b 813e 3b6f e73d 590e 88bc
00000230: 3e78 dc3e fa37 89be fa27 fdbe 675b aabe
00000240: e495 543e 0f88 c03d f55a 943e f875 173e
00000250: c2df 7fbe bee2 3e3e 4a7f 1fbe d4ac b1be
00000260: 048d 93bd 957c 2b3e 13bd 173e 4318 bb3e
00000270: 8988 aabd bee9 ebbe abe1 df3e 9811 76be
00000280: d3f2 03bf 32da 90bc 842e ea3d 29b6 eabd
00000290: 9fe4 54be f48c 0d3e 204a 1f3e f134 f6bd
000002a0: 0468 3f3e f379 c83e b86f 25be ba72 8dbe
000002b0: e669 1ebe df06 96be f2a7 8fbe 8644 f43e
000002c0: 6956 753e da0a d7bb 7dca 0a3e 0b5f d2bd
000002d0: c116 7dbd 2098 973e 7154 abbd cab2 97be
000002e0: b5e4 a23f edb6 9b3e fd67 73be 1efb 3cbe
000002f0: e13a 29be 88d2 b43d 8ff9 273e aa4f 783e
00000300: 2b39 37be f441 5cbe 5a8a aebd 3e5d 9b3e
00000310: f36b cbbe 03b2 babe ab3c 2e3d bd3c 613c
00000320: d783 86be 85c6 59be 9c44 fdbd bcb0 51be
00000330: 2181 213e a94a 14bf 4383 5ebe ab6a 6fbe
00000340: b43d 5c3d e715 713d faa5 bebd 0833 083f
00000350: 01fe ce3e 2b1c 963e a7e1 813e a7dd 073f
00000360: d4c9 9a3b 21d0 b73d c363 7ebd 5503 703c
00000370: 874d 8ebe cdd1 bebf 55ad b4bb d919 b43d
00000380: 677a 16bd 0d3c 153d 9681 24be ce81 823d
00000390: 3e6d 313e 4498 7bbe bbf1 c8bf fe8f 4dbd
000003a0: 6a14 343e 7063 54be 596a bdbd 7090 053e
000003b0: 58be 4e3d 0c96 e93d 5ede c5bb 450c a6bf
000003c0: 4387 2d3e 78be 943e 76e9 243e 397b bf3c
000003d0: ce07 c03b 3e6b cf3d 6393 373e 8c59 48bd
000003e0: 4120 de3d e29a f93d 07ba c93e cc9e 1c3e
000003f0: cb61 1bbe 0cbc 95be 7888 55bd e162 d9be

bn1.weight f4 [16]
0.674053 0.5508127 0.56265664 0.60577804 0.69702137 0.6606736 0.5281855 0.42038685
1.1649371 0.46985206 0.6008492 1.1058155 0.6197054 0.44670105 1.0449247 0.5119601
00000000: bd8e 2c3f 1002 0d3f 440a 103f 4514 1b3f
00000010: fe6f 323f e821 293f 2a37 073f f23c d73e
00000020: a91c 953f 7390 f03e 41d1 193f 5d8b 8d3f
00000030: 03a5 1e3f 00b6 e43e 18c0 853f d10f 033f

bn1.bias f4 [16]
0.018413953 0.34372348 0.41887945 -0.35195798 0.81126434 0.2388567 -0.24274205 0.15784305
-0.93865407 0.12522857 0.3169691 -1.0286379 0.6198124 0.48006752 0.5289096 0.20377685
00000000: dcd8 963c 86fc af3e 5e77 d63e d633 b4be
00000010: 05af 4f3f da96 743e 5f91 78be 9ca1 213e
00000020: a24b 70bf eb3b 003e c649 a23e 68aa 83bf
00000030: 07ac 1e3f 69cb f53e 9f66 073f e1aa 503e

bn1.running_mean f4 [16]
0.20287195 -0.23096332 0.26380914 -1.0768707 -0.13196293 0.05253391 -0.46664026 0.33766964
2.3537936 0.15513365 -0.17303815 1.892113 -0.0026834914 0.12049002 -0.0123444665 -0.046721306
00000000: aabd 4f3e a681 6cbe fe11 873e e6d6 89bf
00000010: 4a21 07be cc2d 573d 79eb eebe 09e3 ac3e
00000020: 8ea4 1640 5bdb 1e3e ea30 31be c230 f23f
00000030: 84dd 2fbb 79c3 f63d 7240 4abc d75e 3fbd

bn1.running_var f4 [16]
2.3620808 0.33442998 1.6586766 6.297336 0.5794705 4.378317 3.6678739 0.7559478
35.89984 1.3656181 0.94814414 32.211834 0.91492325 1.4211414 1.73074 2.000183
00000000: 552c 1740 683a ab3e 844f d43f c783 c940
00000010: 2e58 143f 2c1b 8c40 72be 6a40 cc85 413f
00000020: 7099 0f42 93cc ae3f 93b9 723f ebd8 0042
00000030: 6938 6a3f f6e7 b53f e388 dd3f 0003 0040

res1.0.conv1.weight f4 [16, 16, 3, 3]
0.21974151 -0.29866624 -0.05049946 -0.09315824 -0.22677858 0.24925767 -0.23051499 -0.17950247
0.16731685 0.06726363 -0.12465614 0.18998359 0.20835274 -0.050262265 -0.18269424 0.008727433
0.16032293 0.15416871 -0.099049084 0.12477022 0.2918342 -0.08112607 -0.58560073 -0.033725906
0.13881005 -0.097212926 -0.02787287 0.26647455 0.16142072 -0.067870654 -0.13390043 -0.14613663
0.08622483 -0.04171977 0.08637043 0.14406602 -0.014068769 0.38772216 -0.18026713 -0.11028247
-0.29486436 0.6003238 0.054209877 -0.12635325 -0.09765209 -0.1637328 0.0036735174 0.03432934
-0.32260823 0.2014998 0.1130623 -0.2001261 -0.246251 0.006857268 -0.055550016 -0.03720622
0.21325622 -0.19644867 0.06711412 -0.22345103 0.030865269 9.303402e-05 0.02953438 0.06818362
0.16313326 -0.118758 -0.008986771 -0.03858428 0.23751327 -0.14721745 0.045787822 0.2814385
-0.20861243 -0.75295365 -0.28918687 0.84993654 -0.5315927 -0.41007376 0.36733106 0.014017156
0.19191751 -0.37154233 -0.47805083 -0.14802255 0.15393393 -0.092993036 -0.22101143 0.10518649
0.0815427 0.13407218 0.041976705 0.2116219 -0.20386286 -0.04830356 0.18434265 0.14913207
-0.21388261 0.30040282 -0.08186334 0.38254422 0.14542067 -0.03372716 0.86791384 0.9463758
-0.85524905 0.720375 0.23160338 -0.45494008 0.5266919 -0.09477922 0.14980882 -0.87922245
-0.31775993 -0.047199864 0.25465098 0.07471736 -0.077015534 -0.013592252 0.54409 -0.30464506
-0.19535029 0.3792884 -0.031715598 -0.12599072 -0.06743578 0.18678455 -0.24780832 -0.12578768
-0.031460427 0.34507254 -1.299181 -0.18357973 -0.097904176 0.044404496 0.3292403 0.14737041
-0.018350141 -0.0016626106 -0.1272925 -0.53397185 -0.5412271 0.0025713546 0.15550458 -0.15841474
0.06793397 -0.0743442 -0.05604396 0.042157523 -0.099326044 -0.17938264 0.31315365 0.15672939
0.060941875 -0.39745685 -0.38632214 -0.36167848 -0.25620356 0.2931433 0.13296151 -0.5102478
0.036685303 0.16380827 0.19486801 -0.01788475 -0.23593532 -0.062082365 -0.15693718 -0.146688
-0.4392589 -0.13682464 -0.28231663 -0.031511102 0.06930338 0.03292807 0.014669944 -0.16972184
0.026633246 -0.109235026 -0.10711803 -0.1101635 -0.03602584 -0.2724714 -0.17103994 0.006880762
-0.7172545 -0.59111637 0.18655556 0.40616485 -0.09713785 -0.23095694 0.019342821 0.33392254
0.11517477 0.31682184 0.11813545 0.016051793 0.21790573 0.25582525 -0.060794096 0.20110139
0.12071568 -0.32370678 -0.16260967 -0.057426933 -0.2859719 -0.20198207 -0.29857162 -0.2344544
-0.36188203 -0.13389479 -0.5260406 -0.9568963 -0.58531725 -0.35145375 -0.12808612 -0.05673689
0.07715892 -0.0578748 0.13739623 -0.09863361 -0.11716192 -0.07525068 -0.03905362 -0.16483659
-0.1438999 0.12498625 -0.07191991 0.26444072 -0.66909117 -1.0747882 -0.74926585 -0.01789611
-0.44767922 -0.3470916 -0.217356 -0.1557392 -0.11402243 -0.289357 -0.2255303 0.03923599
-0.40788642 -0.018465446 0.36561283 0.045799907 0.29198986 -0.06844251 0.4748813 0.47625887
0.13423908 0.5385771 0.4338602 -0.0029161244 -0.06514415 -0.017031593 0.12885088 -0.34855363
00000000: eb03 613e c8ea 98be 86d8 4ebd bfc9 bebd
00000010: a538 68be 673d 7f3e 1f0c 6cbe 7fcf 37be
00000020: 1c55 2b3e 84c1 893d b84b ffbd 0f8b 423e
00000030: 6c5a 553e cedf 4dbd 3314 3bbe 82fd 0e3c
00000040: b22b 243e 67de 1d3e 3fda cabd 8787 ff3d
00000050: 4b6b 953e 6d25 a6bd eee9 15bf 2d24 0abd
00000060: 3924 0e3e 9217 c7bd a555 e4bc 5a6f 883e
00000070: 794b 253e c5ff 8abd 321d 09be d7a4 15be
00000080: a596 b03d 59e2 2abd fbe2 b03d 0b86 133e
00000090: b280 66bc 8583 c63e f297 38be c7db e1bd
000000a0: 76f8 96be d2ae 193f 2d0b 5e3d bf62 01be
000000b0: d2fd c7bd 92a9 27be 65bf 703b ec9c 0c3d
000000c0: e82c a5be f755 4e3e 358d e73d dbed 4cbe
000000d0: 3929 7cbe efb2 e03b 6a88 63bd 8d65 18bd
000000e0: d75f 5a3e d729 49be 2173 893d 59d0 64be
000000f0: 29d9 fc3c 421b c338 16f2 f13c dba3 8b3d
00000100: 680c 273e 6537 f3bd 403d 13bc 8d0a 1ebd
00000110: ae36 733e 2cc0 16be 038c 3b3d b518 903e
00000120: 7f9e 55be 92c1 40bf 4d10 94be 7195 593f
00000130: 7616 08bf 30f5 d1be d112 bc3e 37a8 653c
00000140: 0686 443e cc3a bebe 14c3 f4be 3993 17be
00000150: dba0 1d3e 2273 bebd d250 62be 046c d73d
00000160: dcff a63d 384a 093e c4ef 2b3d 69b3 583e
00000170: 6dc1 50be f4d9 45bd 52c4 3c3e 14b6 183e
00000180: 0b04 5bbe 66ce 993e f8a7 a7bd d6dc c33e
00000190: 28e9 143e 7e25 0abd 9a2f 5e3f af45 723f
000001a0: 9af1 5abf 7f6a 383f 7029 6d3e e8ed e8be
000001b0: 48d5 063f 9c1b c2bd 7c67 193e b914 61bf
000001c0: 6eb1 a2be a554 41bd 9d61 823e 6a05 993d
000001d0: 52ba 9dbd 09b2 5ebc 7b49 0b3f 70fa 9bbe
000001e0: e809 48be 1732 c23e 37e8 01bd b603 01be
000001f0: c51b 8abd 7344 3f3e 77c1 7dbe 7cce 00be
00000200: a6dc 00bd 59ad b03e 904b a6bf 53fc 3bbe
00000210: fc81 c8bd 7de1 353d 2f92 a83e 45e8 163e
00000220: 0953 96bc f4eb d9ba f758 02be 61b2 08bf
00000230: dc8d 0abf 2c84 283b 983c 1f3e 7937 22be
00000240: f720 8b3d c641 98bd 5a8e 65bd 5ead 2c3d
00000250: 746b cbbd 15b0 37be ad55 a03e ab7d 203e
00000260: 309e 793d 777f cbbe 04cc c5be ec2d b9be
00000270: 1d2d 83be e116 963e 1027 083e 9a9f 02bf
00000280: 5443 163d 5bbd 273e 7b8b 473e 0a83 92bc
00000290: 0799 71be 144a 7ebd 24b4 20be 6135 16be
000002a0: 8be6 e0be c21b 0cbe ce8b 90be c911 01bd
000002b0: eeee 8d3d 95df 063d 345a 703c 90cb 2dbe
000002c0: f72d da3c 9db6 dfbd b360 dbbd 679d e1bd
000002d0: d58f 13bd 5f81 8bbe 1825 2fbe 0478 e13b
000002e0: fe9d 37bf 6753 17bf 6c08 3f3e d7f4 cf3e
000002f0: 36f0 c6bd fa7f 6cbe d674 9e3c e5f7 aa3e
00000300: c0e0 eb3d 7936 a23e 00f1 f13d 0d7f 833c
00000310: ae22 5f3e 87fb 823e 3b03 79bd 86ed 4d3e
00000320: c839 f73d e5bc a5be 2683 26be 8138 6bbd
00000330: e96a 92be 63d4 4ebe 61de 98be d014 70be
00000340: 9a48 b9be b71b 09be 99aa 06bf 28f7 74bf
00000350: 5ad7 15bf bff1 b3be 0229 03be f164 68bd
00000360: 7f05 9e3d 200e 6dbd 99b1 0c3e 6b00 cabd
00000370: 97f2 efbd 071d 9abd b0f6 1fbd ecca 28be
00000380: 7f5a 13be cbf8 ff3d bf4a 93bd c664 873e
00000390: 8f49 2bbf a992 89bf e3cf 3fbf dd9a 92bc
000003a0: 3636 e5be fdb5 b1be 9292 5ebe 197a 1fbe
000003b0: 9784 e9bd 9a26 94be 6af1 66be ebb5 203d
000003c0: 7dd6 d0be d944 97bc 9b31 bb3e af98 3b3d
000003d0: b27f 953e 962b 8cbd a423 f33e 34d8 f33e
000003e0: f875 093e 30e0 093f ed22 de3e 731c 3fbb
000003f0: 4c6a 85bd d785 8bbc 7cf1 033e 9f75 b2be

res1.0.bn1.weight f4 [16]
1.1091019 0.63359976 0.78147256 0.82875067 0.6109574 0.7394497 0.8916787 0.6231471
0.79373336 0.70101255 0.5775718 1.5242115 1.2502797 0.9665866 0.8632362 0.7553425
00000000: 0df7 8d3f 9833 223f 960e 483f 0129 543f
00000010: b467 1c3f 934c 3d3f 0e45 643f 9186 1f3f
00000020: 1c32 4b3f 8f75 333f bfdb 133f 5d19 c33f
00000030: 2a09 a03f 3872 773f 0cfd 5c3f 205e 413f

res1.0.bn1.bias f4 [16]
0.16146412 0.17474781 0.14268795 -0.14695555 -0.014461473 -0.021895315 0.4896947 -0.11562244
0.52596927 0.3676485 0.058126464 -1.2109247 0.17014669 -0.1837538 -0.76699364 0.44581386
00000000: da56 253e 17f1 323e ca1c 123e 847b 16be
00000010: d0ef 6cbc ce5d b3bc 44b9 fa3e 75cb ecbd
00000020: eca5 063f 6d3c bc3e 0416 6e3d 95ff 9abf
00000030: ef3a 2e3e f529 3cbe b259 44bf b741 e43e

res1.0.bn1.running_mean f4 [16]
-1.2464868 -4.3339286 -2.4620318 -3.1711583 -2.124317 -1.6127092 -1.6669687 -0.26564723
-1.0819111 1.7311327 -1.4573601 1.6625652 -2.7007055 -2.8138132 0.38537756 -1.0443326
00000000: e18c 9fbf 8baf 8ac0 ee91 1dc0 42f4 4ac0
00000010: cff4 07c0 416d cebf 3b5f d5bf ea02 88be
00000020: 107c 8abf c295 dd3f c78a babf f0ce d43f
00000030: 5cd8 2cc0 8415 34c0 3550 c53e b1ac 85bf

res1.0.bn1.running_var f4 [16]
4.4816937 4.336415 5.2843347 2.4966908 2.119372 2.2478 3.0906255 1.2526517
2.49479 3.066479 3.317663 2.8064675 9.957649 10.486422 1.7192644 7.2286644
00000000: 096a 8f40 e9c3 8a40 4519 a940 c8c9 1f40
00000010: caa3 0740 f5db 0f40 cfcc 4540 e456 a03f
00000020: a4aa 1f40 3141 4440 9754 5440 2a9d 3340
00000030: 8852 1f41 62c8 2741 db10 dc3f 3851 e740

res1.0.conv2.weight f4 [16, 16, 3, 3]
-0.24485275 0.014942809 -0.010206456 0.07046995 0.7461059 -0.54696274 -0.07131979 -0.21045655
0.11423074 0.24904491 0.056204524 -0.13520123 0.052538853 -0.04055158 -0.35667282 -0.14713596
0.050863612 0.012666554 -0.00041826762 -0.0200636 0.014763201 -0.3390628 0.5114608 0.1730902
-0.30711278 0.03785911 -0.053531185 -0.077534206 -0.0083912425 0.1481748 0.13212813 -0.6222204
0.5276805 0.11588726 -0.045424785 0.10754814 -0.058767997 -0.11245926 0.19000836 -0.20289183
0.096300796 0.12484529 0.03401094 -0.06515554 0.23296656 0.15299164 -0.24641606 0.087423824
0.11559545 0.3551157 0.09733438 0.037409987 0.03565834 0.24360166 -0.0065208874 -0.55111414
0.032880906 -0.10062341 0.34928435 -0.08227632 -0.05374763 -0.1399351 0.22492197 0.06466865
0.24239711 -0.0078040613 0.21263544 0.16466029 0.14584917 -0.052190248 0.110765226 0.13574423
-0.14625487 -0.22820859 0.04986996 -0.17458528 0.51529557 -0.6941524 0.05648797 -0.19863927
-0.025999308 0.009038303 -0.011410032 0.29668108 0.09881738 0.0021548579 -0.21028432 -0.1288825
-0.16383506 0.2918705 -0.2329703 -0.020870574 -0.026390685 -0.15627958 0.22532153 -0.39393026
0.08864131 -0.11166075 0.11432414 0.4373328 0.06509442 -0.2621621 0.014237025 -0.6057437
-0.9855003 0.40331075 0.08701507 -0.27420968 -0.060821295 -0.08305144 0.18156977 -0.0073879194
-0.6459718 1.2942002 -0.018565591 -0.08169018 0.09149927 0.09658144 -0.12503716 -0.16565259
-0.054094307 0.14981794 -0.37256232 -0.1291443 0.25252953 -0.17391045 -0.05372603 -0.025437979
0.22352035 -0.45095915 0.0758952 0.16141647 -0.06972812 0.032515302 0.07606075 -0.099102
0.011839916 -0.16191489 -0.06696215 0.6225494 -0.13811633 -0.14491716 -0.2922002 -0.03787641
-0.2679861 -0.056650527 -0.13093953 0.1663286 0.15862 -0.04376198 -0.12310611 -0.008538223
-0.25792715 0.41155607 0.52774906 0.07090572 0.17118981 0.5322771 0.19774944 -0.28783947
-0.05540587 0.0060575115 0.31610987 -0.013761481 -0.051525846 0.19996944 0.029404111 0.051384643
-0.12658662 -0.2601699 0.013569747 0.26814875 0.35279024 0.46421814 -0.09825209 0.11656258
0.08657193 -0.58815986 -0.6879599 -0.44158456 -0.0312261 -0.28350785 -0.061095316 0.24559332
0.1716761 0.20005879 0.09421181 0.13746415 0.09250198 -0.35782453 0.29979646 0.27265143
-0.30426374 0.42721775 0.50862 -0.18813787 0.44448128 0.65001196 0.5971748 0.3638247
-0.22211233 0.6971866 0.29986355 -0.6050582 0.13837257 -0.13054001 -0.39191994 0.08963248
-0.010680668 -0.23515028 0.17991655 0.02000523 -0.18420526 0.035175767 0.046513494 -0.3223702
-0.17314237 -0.4015326 -0.06984178 -0.0895617 0.21014972 0.05086898 0.16443285 0.6255258
0.38707492 -0.06558915 0.08501525 -0.071013205 0.3379808 0.34092796 0.06701755 -0.06474609
-0.114957474 -0.42096266 -0.11778723 -0.40190673 -0.002384619 0.20163138 0.042489324 0.10555661
-0.10229455 -0.034075506 -0.07501592 -0.07774182 -0.23906375 -0.34512535 0.43345246 0.49940082
-0.012230803 0.18320999 0.36883348 -0.051778775 -0.15360813 -0.12511763 -0.25619832 0.12533334
00000000: aeba 7abe afd2 743c fb38 27bc 8d52 903d
00000010: cc00 3f3f c005 0cbf 1c10 92bd ec81 57be
00000020: cef1 e93d a105 7f3e b736 663d 3172 0abe
00000030: fb32 573d 6a19 26bd d29d b6be cfaa 16be
00000040: 5d56 503d 6187 4f3c ee4a dbb9 6b5c a4bc
00000050: 5ae1 713c a499 adbe 18ef 023f 8f3e 313e
00000060: e33d 9dbe 2712 1b3d 8443 5bbd 41ca 9ebd
00000070: 6c7b 09bc 23bb 173e 994c 073e d649 1fbf
00000080: 1216 073f 4d56 ed3d 570f 3abd 3342 dc3d
00000090: b6b6 70bd 0a51 e6bd 8d91 423e e0c2 4fbe
000000a0: 5a39 c53d e3ae ff3d 0e4f 0b3d 4570 85bd
000000b0: c98e 6e3e d7a9 1c3e 7e54 7cbe 430b b33d
000000c0: 4fbd ec3d bad1 b53e 3f57 c73d 373b 193d
000000d0: 7b0e 123d b772 793e 2bad d5bb d115 0dbf
000000e0: 21ae 063d a513 cebd 66d5 b23e 7d80 a8bd
000000f0: 7a26 5cbd 264b 0fbe f251 663e ff70 843d
00000100: f336 783e 36b9 ffbb 1bbd 593e b59c 283e
00000110: 7c59 153e 71c5 55bd e1d8 e23d 8900 0b3e
00000120: d6c3 15be 83af 69be 7144 4c3d 7cc6 32be
00000130: 69ea 033f f9b3 31bf ee5f 673d 1868 4bbe
00000140: 80fc d4bc 6415 143c 25f1 3abc 95e6 973e
00000150: c460 ca3d 8438 0d3b c654 57be c6f9 03be
00000160: 61c4 27be 0d70 953e c48f 6ebe c4f8 aabc
00000170: 4731 d8bc c107 20be b0ba 663e 3ab1 c9be
00000180: 9389 b53d 64ae e4bd c622 ea3d 16ea df3e
00000190: 3950 853d 1c3a 86be 6942 693c 0512 1bbf
000001a0: bf49 7cbf bf7e ce3e f534 b23d 3665 8cbe
000001b0: c01f 79bd e016 aabd 6ded 393e 5c16 f2bb
000001c0: 685e 25bf 5aa8 a53f de16 98bc 2e4d a7bd
000001d0: f863 bb3d 7dcc c53d be09 00be d5a0 29be
000001e0: fe91 5dbd e069 193e 7dc0 bebe 673e 04be
000001f0: 8d4b 813e 9515 32be d30f 5cbd 4f63 d0bc
00000200: 85e2 643e 1ee4 e6be f16e 9b3d 5c4a 253e
00000210: 9ecd 8ebd c42e 053d bdc5 9b3d fdf5 cabd
00000220: 35fc 413c 04cd 25be 7423 89bd 665f 1f3f
00000230: 5e6e 0dbe 2a65 14be 449b 95be 4b24 1bbd
00000240: 7935 89be 620a 68bd 0315 06be 0b52 2a3e
00000250: 486d 223e c33f 33bd 0e1f fcbd e7e3 0bbc
00000260: 070f 84be 7ab7 d23e 901a 073f 0537 913d
00000270: 624c 2f3e 5043 083f d47e 4a3e b25f 93be
00000280: 44f1 62bd 177e c63b 27d9 a13e d677 61bc
00000290: c40c 53bd cac4 4c3e e4e0 f03c b478 523d
000002a0: ec9f 01be fd34 85be a553 5e3c cb4a 893e
000002b0: eca0 b43e 00ae ed3e 6438 c9bd 5db8 ee3d
000002c0: a04c b13d a591 16bf 241e 30bf 5f17 e2be
000002d0: e1cd ffbc f127 91be 153f 7abd d17c 7b3e
000002e0: dccb 2f3e 36dc 4c3e 1ff2 c03d 67c3 0c3e
000002f0: ae71 bd3d c734 b7be ec7e 993e f898 8b3e
00000300: 75c8 9bbe 49bc da3e ec34 023f 37a7 40be
00000310: 0d93 e33e 2f67 263f 73e0 183f 3b47 ba3e
00000320: 6a71 63be d27a 323f b787 993e 18e5 1abf
00000330: 8ab1 0d3e 48ac 05be bba9 c8be 3c91 b73d
00000340: f8fd 2ebc 3ccb 70be 0b3c 383e 02e2 a33c
00000350: 4ea0 3cbe 7714 103d ef84 3e3d b50d a5be
00000360: 3c4c 31be ae95 cdbe 3509 8fbd 206c b7bd
00000370: 7d31 573e fe5b 503d 1661 283e 7522 203f
00000380: af2e c63e 9b53 86bd 7a1c ae3d 5f6f 91bd
00000390: d20b ad3e 1c8e ae3e 7f40 893d 9999 84bd
000003a0: d36e ebbd 6b88 d7be 6e3a f1bd b8c6 cdbe
000003b0: 4547 1cbb 7578 4e3e 4909 2e3d 102e d83d
000003c0: ce7f d1bd c292 0bbd f2a1 99bd 1a37 9fbd
000003d0: 21cd 74be 45b4 b0be 7bed dd3e 77b1 ff3e
000003e0: b563 48bc 669b 3b3e bed7 bc3e fb15 54bd
000003f0: 734b 1dbe d61e 00be 6d2c 83be 6257 003e

res1.0.bn2.weight f4 [16]
1.3444992 0.935257 1.5209016 1.0327297 1.1271077 1.0056857 0.6449015 1.0856582
0.7913465 0.9658732 1.0096387 0.9821187 1.4025232 0.6274792 1.1857362 0.65728396
00000000: 8d18 ac3f 016d 6f3f e7ac c23f 7d30 843f
00000010: 1145 903f 4fba 803f 4418 253f d9f6 8a3f
00000020: af95 4a3f 7743 773f d73b 813f 226c 7b3f
00000030: e185 b33f 7aa2 203f 34c6 973f c343 283f

res1.0.bn2.bias f4 [16]
0.27720067 -0.27839625 0.3116395 -0.11290467 -0.12246463 -0.181421 0.23223792 -0.35443678
-0.29678982 0.19562748 -0.15180287 0.09802671 -0.6197818 -0.25743747 -0.33988908 -0.008673562
00000000: 3fed 8d3e f489 8ebe 368f 9f3e 903a e7bd
00000010: bcce fabd 6dc6 39be c7cf 6d3e bd78 b5be
00000020: d6f4 97be 9252 483e 3672 1bbe 3ac2 c83d
00000030: 05aa 1ebf d8ce 83be f105 aebe 8e1b 0ebc

res1.0.bn2.running_mean f4 [16]
-0.7615989 1.7005159 -1.6002312 -1.4107889 -0.7280204 -0.38364375 0.2642266 0.019094009
-2.4968 0.06072879 -1.9934666 2.054216 -0.4617226 -0.66814166 -2.3251324 -0.8055603
00000000: 25f8 42bf 81aa d93f 60d4 ccbf bb94 b4bf
00000010: 8c5f 3abf f46c c4be b548 873e 0a6b 9c3c
00000020: 92cb 1fc0 c0be 783d ea29 ffbf 4678 0340
00000030: e866 ecbe 550b 2bbf f8ce 14c0 3339 4ebf

res1.0.bn2.running_var f4 [16]
4.292747 2.3700092 5.994831 4.803828 6.224277 3.7450652 4.367238 3.9218602
6.050095 4.9221163 3.4778602 4.6277704 3.2100418 2.761308 3.9720478 3.6647532
00000000: 2f5e 8940 3bae 1740 a8d5 bf40 f5b8 9940
00000010: 472d c740 26af 6f40 6ac0 8b40 c2ff 7a40
00000020: 619a c140 fa81 9d40 4395 5e40 b216 9440
00000030: 5371 4d40 45b9 3040 0836 7e40 518b 6a40

res1.1.conv1.weight f4 [16, 16, 3, 3]
-0.28979298 -0.14549075 0.077108644 -1.8908571 0.33649364 0.032220423 -0.42098513 0.006154375
0.044302706 -0.021343973 0.121216066 -0.070808515 -0.16073808 -0.0374717 -0.16911255 -0.025691178
0.13500783 0.08321389 -0.17947088 -0.16337986 0.054463387 0.34364644 -0.7192799 0.4570692
-0.23973754 -0.18366705 0.05122956 0.12987898 -0.10730197 0.16425255 0.2236098 -0.21095477
0.09177449 0.06077968 0.003307264 0.057980698 -0.1982891 0.008318789 0.051194757 0.31243172
-0.60225934 0.5342735 0.22775999 -0.18477137 0.09155803 -0.38330236 0.175014 0.19464256
-0.5157063 0.19436204 0.2561885 -0.12234122 0.06811471 -0.025165778 0.087141916 -0.18735322
0.18839593 0.12963304 -0.217191 0.25010872 0.14627199 -0.16811702 0.15663631 -0.3764109
-0.613611 -0.37418312 0.24460901 -0.16549781 -0.32381454 0.2606422 0.07602597 0.092650875
-0.23962815 -0.037328273 -0.011043219 0.19363673 0.5798316 -0.07279288 -0.026792752 0.33176273
0.08937571 0.02924171 0.0190719 0.16063641 0.25547197 0.11121649 0.08225679 0.25644058
-0.08590571 -0.10676728 -0.16780886 0.08094997 0.008935995 0.18046051 0.051186003 0.17215504
-0.22250661 0.007908011 -0.10592051 0.16442038 -0.2792978 -0.1414506 -0.14028783 -0.40697542
-0.07746061 0.17289354 -0.050150234 0.28013816 0.14368439 -0.07163063 0.0070353774 -0.42789915
-0.049471173 0.21833162 0.042600088 0.050730534 0.09488468 0.19949043 0.32756945 -0.52075064
0.06834774 0.10929625 -0.26817596 0.16902605 -0.16797519 -0.14844775 -0.038942587 -0.09651829
-0.080880634 0.5558622 -0.79765385 -0.15090534 0.13376807 -0.031675894 -0.042165186 0.27219617
0.031379353 0.4384436 0.050211437 -0.2854878 0.14982212 0.022585012 0.53375167 -0.10546669
0.20345569 -0.39643556 -0.09228608 0.0054709585 -0.17695521 0.40018392 0.2530578 0.32677615
0.21179971 0.16873905 0.119019695 -0.09254104 -0.27486148 -0.23107481 -0.49101678 0.14422469
0.15364672 0.11526819 -0.40244192 0.43482673 -0.032091424 -0.017930737 0.07073303 0.004468644
0.00065082853 0.12882486 0.21749099 0.41255143 0.5805945 -0.15678985 -0.20491116 0.17692706
-0.08126362 -0.26701015 0.04780666 -0.26580468 0.17911674 0.37802935 -0.18241242 -0.09603575
-0.5354273 -0.58771163 -0.09719958 -0.08637272 -0.033452865 0.038973015 0.4211435 0.122178175
0.26907983 0.5454097 0.48786992 -0.14255007 -0.0007167068 -0.024146076 -0.086552806 0.096550435
-0.046372067 0.16536425 0.013788191 -0.094460405 0.07090006 0.05632321 -0.18133904 0.07074653
-0.08923773 -0.28164116 0.18680133 -0.36882 -0.25519928 0.12235816 0.075168066 0.11436541
-0.39958143 -0.56088966 0.041741736 -0.08898046 0.5720132 0.17321055 0.29780972 0.28624085
0.1148166 -0.22164784 -0.8620796 -0.61441004 -0.016362768 0.17388953 -0.13071285 -0.05068788
0.069634244 -0.15332896 -0.11434629 0.09059295 -0.010484384 0.00901318 -0.090569526 -0.096004546
0.011585576 0.022967387 0.060117822 -0.72281 -0.5328215 -0.1292352 -0.39087126 -0.2687092
-0.20366223 -0.27242222 -0.15409611 0.058215726 0.1193438 -0.08225259 -0.43518797 -0.94269764
00000000: bf5f 94be 87fb 14be 23eb 9d3d 9b07 f2bf
00000010: e548 ac3e 90f9 033d 5d8b d7be a4aa c93b
00000020: c176 353d 8ed9 aebc 2140 f83d 0e04 91bd
00000030: 8698 24be ed7b 19bd d72b 2dbe 4e76 d2bc
00000040: 7e3f 0a3e 0b6c aa3d 37c7 37be 0d4d 27be
00000050: 0015 5f3d 6df2 af3e ba22 38bf f904 ea3e
00000060: c27d 75be 3713 3cbe 16d6 513d fffe 043e
00000070: 23c1 dbbd d231 283e f8f9 643e 8704 58be
00000080: 44f4 bb3d 1df4 783d afbe 583b 2b7d 6d3d
00000090: 4c0c 4bbe 884b 083c 98b1 513d 0df7 9f3e
000000a0: ab2d 1abf 26c6 083f ea39 693e b534 3dbe
000000b0: c782 bb3d 3540 c4be df36 333e 6150 473e
000000c0: 5405 04bf d806 473e 242b 833e 098e fabd
000000d0: ba7f 8b3d 7628 cebc 7677 b23d 86d9 3fbe
000000e0: ddea 403e 86be 043e 5167 5ebe 400e 803e
000000f0: 53c8 153e de26 2cbe 4565 203e eeb8 c0be
00000100: 9c15 1dbf ee94 bfbe c97a 7a3e 4278 29be
00000110: 05cb a5be e572 853e 81b3 9b3d bebf bd3d
00000120: 1561 75be 88e5 18bd 9eee 34bc b548 463e
00000130: d86f 143f 6f14 95bd 797c dbbc cedc a93e
00000140: 9d0a b73d 508c ef3c ac3c 9c3c df7d 243e
00000150: 39cd 823e 79c5 e33d 3f76 a83d 2e4c 833e
00000160: 55ef afbd cea8 dabd 16d6 2bbe 19c9 a53d
00000170: 4868 123c a4ca 383e 6aa8 513d 6949 303e
00000180: c6d8 63be 9a90 013c daec d8bd d15d 283e
00000190: 1f00 8fbe 6dd8 10be 9da7 0fbe 155f d0be
000001a0: aba3 9ebd 010b 313e 556a 4dbd 456e 8f3e
000001b0: 0022 133e 14b3 92bd 0689 e63b 9915 dbbe
000001c0: 49a2 4abd 5392 5f3e 6e7d 2e3d d2ca 4f3d
000001d0: e652 c23d 3847 4c3e 2fb7 a73e ea4f 05bf
000001e0: e6f9 8b3d b6d6 df3d 5c4e 89be 2a15 2d3e
000001f0: b001 2cbe b002 18be 4382 1fbd 62ab c5bd
00000200: bfa4 a5bd fc4c 0e3f 0b33 4cbf ee86 1abe
00000210: 7ffa 083e 95be 01bd 67b5 2cbd 4c5d 8b3e
00000220: a387 003d ae7b e03e 82aa 4d3d 752b 92be
00000230: f86a 193e 3404 b93c f3a3 083f ecfe d7bd
00000240: b056 503e 9af9 cabe 7c00 bdbd ba45 b33b
00000250: bf33 35be e8e4 cc3e cb90 813e 344f a73e
00000260: 06e2 583e eec9 2c3e 99c0 f33d 2886 bdbd
00000270: a5ba 8cbe e09e 6cbe 8d66 fbbe a3af 133e
00000280: 9155 1d3e bb11 ec3d de0c cebe 9ca1 de3e
00000290: 4c72 03bd 7be3 92bc 7bdc 903d b46d 923b
000002a0: 5d9c 2a3a aaea 033e f5b5 5e3e f139 d33e
000002b0: d7a1 143f 858d 20be 3bd4 51be 5e2c 353e
000002c0: 8a6d a6bd 8eb5 88be ebd0 433d 8d17 88be
000002d0: 616a 373e 108d c13e 52ca 3abe 64ae c4bd
000002e0: c311 09bf 4574 16bf 9310 c7bd 2ee4 b0bd
000002f0: df05 09bd 2ba2 1f3d 1fa0 d73e 8d38 fa3d
00000300: d5c4 893e f89f 0b3f 16ca f93e a5f8 11be
00000310: 61e1 3bba fecd c5bc 9942 b1bd 3cbc c53d
00000320: a3f0 3dbd 3f55 293e dde7 613c 7574 c1bd
00000330: 0d34 913d 2bb3 663d f1b0 39be 8fe3 903d
00000340: 45c2 b6bd 4533 90be d948 3f3e fad5 bcbe
00000350: 7ba9 82be ea96 fa3d b7f1 993d 6938 ea3d
00000360: f095 ccbe 7796 0fbf 62f9 2a3d 633b b6bd
00000370: 756f 123f 1b5e 313e 847a 983e 298e 923e
00000380: f724 eb3d a7f7 62be 40b1 5cbf fa49 1dbf
00000390: 360b 86bc 1910 323e 97d9 05be 189e 4fbd
000003a0: 669c 8e3d 4402 1dbe 632e eabd cc88 b93d
000003b0: b2c6 2bbc 04ac 133c 847c b9bd 089e c4bd
000003c0: 6ed1 3d3c 1a26 bc3c 1b3e 763d 130a 39bf
000003d0: fd66 08bf 3b56 04be 4720 c8be 4194 89be
000003e0: d58c 50be ed7a 8bbe 5fcb 1dbe 9d73 6e3d
000003f0: 866a f43d 0c74 a8bd f5d0 debe a254 71bf

res1.1.bn1.weight f4 [16]
1.3106036 1.0267887 1.3483627 0.9372345 0.73663694 1.2841016 0.8400738 0.8437638
1.0563673 0.8217867 1.0384483 0.76699024 1.4649109 1.1094137 0.90181756 0.9784818
00000000: dcc1 a73f d06d 833f 2697 ac3f 9aee 6f3f
00000010: 3d94 3c3f 715d a43f 140f 573f e800 583f
00000020: 0b37 873f 9d60 523f e0eb 843f 7959 443f
00000030: 3382 bb3f 4501 8e3f 84dd 663f c97d 7a3f

res1.1.bn1.bias f4 [16]
0.45268553 -0.23466526 -0.66477835 -0.07556661 -0.22078669 -0.3574492 -0.22900967 -0.11359588
-0.15290144 -0.1888236 -0.10242226 -0.33109206 0.11918184 -0.2897422 -0.21684119 0.0035004532
00000000: 66c6 e73e 174c 70be ea2e 2abf abc2 9abd
00000010: e815 62be 9503 b7be 8381 6abe f5a4 e8bd
00000020: 3292 1cbe f95a 41be c3c2 d1bd e684 a9be
00000030: 9c15 f43d 1759 94be 9e0b 5ebe dc67 653b

res1.1.bn1.running_mean f4 [16]
-2.0478137 -2.4056578 -3.5071373 -6.4869924 -2.2211297 -2.0949464 -0.29536557 -3.2448225
-4.229056 -2.9406917 -2.6919916 -3.033766 -2.0710826 -6.034803 -4.1146755 -4.705704
00000000: 610f 03c0 4cf6 19c0 f074 60c0 7195 cfc0
00000010: fd26 0ec0 9a13 06c0 283a 97be 2cab 4fc0
00000020: 6d54 87c0 4b34 3cc0 9749 2cc0 3929 42c0
00000030: 9e8c 04c0 1b1d c1c0 6cab 83c0 2195 96c0

res1.1.bn1.running_var f4 [16]
20.399233 17.23558 14.807417 13.862204 17.380093 15.449093 9.057796 15.4991
16.877483 12.469003 16.493858 7.642193 17.334831 15.335044 15.487771 21.0627
00000000: a131 a341 78e2 8941 2eeb 6c41 96cb 5d41
00000010: 6e0a 8b41 7c2f 7741 bbec 1041 50fc 7741
00000020: 1605 8741 0981 4741 6cf3 8341 d88c f440
00000030: bcad 8a41 575c 7541 e9cd 7741 6980 a841

res1.1.conv2.weight f4 [16, 16, 3, 3]
-0.038677797 -0.14307186 0.33253774 0.09802426 -0.1736223 -1.0041844 0.07271082 0.011706961
-0.30679652 -0.008852497 0.18399619 -0.3142588 -0.03576047 0.0015300207 0.023144688 -0.009900001
-0.68815655 0.22661321 -0.4727225 0.34616116 0.21229374 -0.9300456 0.22016363 0.077733904
-0.8632289 0.33405071 0.23407716 0.23422317 0.45060974 0.079042315 0.20990361 0.2930108
-0.117093876 0.26912546 -0.20437968 -0.04369254 0.18282337 -0.018137366 0.01633068 0.30140978
-0.25402173 0.078096576 0.19368294 0.082379885 0.15846322 -0.06022528 -0.32829866 0.15406448
0.08314475 -0.37880066 -0.12633081 0.32523853 -0.35602087 -0.103260584 -0.27084038 -0.48409194
-0.05956951 -0.11955239 0.043857504 0.067983724 -0.34611326 -0.055292252 -0.37240314 -0.039931092
-0.073187046 -0.2963174 0.23198503 -0.26795608 0.21922325 -0.027845236 -0.057302583 0.13833144
0.25636488 -0.07307322 0.274767 -0.30708128 0.10970816 0.060199875 -0.11370988 0.2064287
-0.25231668 -0.39269373 -0.21388298 0.17261913 0.011055892 -0.0347392 0.056352798 -0.32402852
0.010116455 0.059289105 -0.2756024 0.07775543 0.046340488 -0.087181084 0.34597817 0.16377988
-0.08351045 -0.027612206 -0.29053825 0.1089283 0.073258296 -0.15865664 -0.07180131 0.067905836
0.118921705 -0.19067296 0.32154244 0.023072196 0.06477197 -0.25822255 -0.16713358 -0.17602648
-0.7021525 0.28007138 -0.3205876 0.30509314 0.1479042 0.14198609 -0.23519644 -0.011136951
0.41140485 -0.09345905 -0.2875716 -0.05369577 0.04663623 -0.059565824 0.26843768 -0.06825645
-0.4617237 0.06784817 -0.52627224 -0.19673029 0.0008360366 -0.023703627 0.10026309 -0.10718317
0.30313382 0.26630142 0.12327439 0.33532858 -0.40642828 -0.18148541 -0.26614964 0.17100906
-0.10728313 -0.19825387 0.19194153 -0.014746904 -0.105395645 0.21915366 0.020076428 -0.30453384
0.37840655 -0.07045534 -0.07687236 -0.18473968 0.178122 -0.08890933 0.0018369195 0.049665816
0.17943835 0.08035882 -0.11870656 -0.043017123 -0.19615825 0.049973898 0.32435763 0.15003952
-0.2528157 0.0042011174 -0.25656286 -0.16840394 -0.16986543 0.0637615 -0.4708705 -0.28803086
-0.027563442 -0.19401331 -0.18368343 0.022599176 0.58390415 0.7704181 0.71304375 0.6997692
0.86808944 0.59896547 0.5608454 0.7889154 0.42685848 -0.28930894 -0.17967756 -0.42742223
0.19045359 0.59825677 0.033751603 0.6021132 0.79040766 0.5772408 0.09461438 0.08764384
0.011952685 0.23186055 0.041363362 -0.14721648 0.04128044 0.13231945 -0.09950952 0.0104916515
-0.095201485 -0.11361906 0.2653259 -0.2974657 -0.11970219 0.42586592 0.17660283 -0.26025623
-0.04158147 0.2596232 0.23781806 -0.2697019 -0.07848033 -0.18446445 -0.20143501 0.06955354
0.16708075 0.2270243 0.08482906 -0.19866921 0.35160968 0.1069891 -0.06448653 0.40214702
0.29473928 0.016905447 0.02986414 0.21549374 0.31159958 0.3902403 0.32325104 0.12119373
-0.06594498 -0.2739523 -0.07772133 0.36919665 -0.008033045 0.028782176 0.31407726 0.273052
0.082663484 0.2570533 0.22554745 0.3703307 0.044827864 0.06759054 -0.08286185 0.0675294
00000000: 9c6c 1ebd 6e81 12be 6342 aa3e f1c0 c83d
00000010: 0bca 31be 1d89 80bf 69e9 943d 8ece 3f3c
00000020: 6f14 9dbe 100a 11bc 7f69 3c3e 88e6 a0be
00000030: 9279 12bd fa8a c83a ee99 bd3c 9d33 22bc
00000040: 072b 30bf 4b0d 683e af08 f2be 093c b13e
00000050: 8863 593e 7817 6ebf 9372 613e f432 9f3d
00000060: 92fc 5cbf b208 ab3e ecb1 6f3e 33d8 6f3e
00000070: 52b6 e63e f0e0 a13d f9f0 563e 8305 963e
00000080: eace efbd d0ca 893e e848 51be f3f6 32bd
00000090: 0d36 3b3e d094 94bc ebc7 853c 6252 9a3e
000000a0: 230f 82be 19f1 9f3d d254 463e c9b6 a83d
000000b0: 2f44 223e c8ae 76bd c316 a8be 14c3 1d3e
000000c0: cb47 aa3d 29f2 c1be dd5c 01be aa85 a63e
000000d0: 5e48 b6be 497a d3bd 97ab 8abe e6da f7be
000000e0: 29ff 73bd e2d7 f4bd eda3 333d 0d3b 8b3d
000000f0: c235 b1be 217a 62bd a0ab bebe c98e 23bd
00000100: 17e3 95bd eab6 97be 7c8d 6d3e 8a31 89be
00000110: 0f7c 603e b11b e4bc 1db6 6abd c2a6 0d3e
00000120: 4242 833e 6aa7 95bd 43ae 8c3e c239 9dbe
00000130: acae e03d 2594 763d bae0 e8bd 0c62 533e
00000140: a72f 81be 270f c9be 2404 5bbe 12c3 303e
00000150: c623 353c b14a 0ebd 31d2 663d 11e7 a5be
00000160: 7dbf 253c 22d9 723d c21b 8dbe 3d3e 9f3d
00000170: 86cf 3d3d ff8b b2bd 0d24 b13e eab5 273e
00000180: 8707 abbd fe32 e2bc 6ec1 94be cd15 df3d
00000190: 7208 963d e376 22be 910c 93bd 3712 8b3d
000001a0: 398d f33d c63f 43be 36a1 a43e e701 bd3c
000001b0: 2ba7 843d bf35 84be 1125 2bbe 4940 34be
000001c0: 44c0 33bf 8465 8f3e 0f24 a4be 2b35 9c3e
000001d0: 3374 173e cd64 113e 56d7 70be c277 36bc
000001e0: a8a3 d23e 7567 bfbd 963c 93be 19f0 5bbd
000001f0: a205 3f3d 4bfb 73bd aa70 893e 0aca 8bbd
00000200: 0c67 ecbe fbf3 8a3d c7b9 06bf aa73 49be
00000210: 7729 5b3a 1c2e c2bc bc56 cd3d da82 dbbd
00000220: 5b34 9b3e a958 883e 4977 fc3d 30b0 ab3e
00000230: 5e17 d0be 50d7 39be c444 88be 001d 2f3e
00000240: 42b7 dbbd 1003 4bbe 528c 443e 009d 71bc
00000250: acd9 d7bd d169 603e 5277 a43c dceb 9bbe
00000260: 81be c13e e44a 90bd 426f 9dbd 662c 3dbe
00000270: 9d65 363e 1816 b6bd cac4 f03a 626e 4b3d
00000280: b0be 373e 2a93 a43d 6d1c f3bd b932 30bd
00000290: b5dd 48be 6eb1 4c3d 3412 a63e f6a3 193e
000002a0: 0f71 81be 87a9 893b 355c 83be 1572 2cbe
000002b0: 34f1 2dbe 6495 823d f015 f1be c878 93be
000002c0: bacc e1bc 6dab 46be 8217 3cbe e821 b93c
000002d0: be7a 153f 1f3a 453f 098a 363f 1324 333f
000002e0: 1c3b 5e3f cd55 193f 9093 0f3f 5cf6 493f
000002f0: 328d da3e 4d20 94be 65fd 37be 16d7 dabe
00000300: 4406 433e 5b27 193f 1f3f 0a3d 1724 1a3f
00000310: 2858 4a3f 0ec6 133f 2fc5 c13d 9d7e b33d
00000320: 32d5 433c da6c 6d3e a16c 293d ebbf 16be
00000330: ae15 293d c07e 073e a6cb cbbd 2de5 2b3c
00000340: fff8 c2bd 1cb1 e8bd ccd8 873e 6d4d 98be
00000350: 6c26 f5bd 190b da3e 5fd7 343e 4e40 85be
00000360: 5551 2abd 55ed 843e 9486 733e 5e16 8abe
00000370: 4cba a0bd 40e4 3cbe fb44 4ebe 1672 8e3d
00000380: 3717 2b3e 0f79 683e dcba ad3d f16f 4bbe
00000390: 2f06 b43e 1a1d db3d 8411 84bd 37e6 cd3e
000003a0: 11e8 963e 4b7d 8a3c a4a5 f43c 64aa 5c3e
000003b0: fb89 9f3e 94cd c73e 2981 a53e 6b34 f83d
000003c0: 290e 87bd 7a43 8cbe 5c2c 9fbd 5807 bd3e
000003d0: 089d 03bc 99c8 eb3c bcce a03e 79cd 8b3e
000003e0: 794b a93d 7d9c 833e e9f5 663e fc9b bd3e
000003f0: 6c9d 373d e96c 8a3d 79b3 a9bd db4c 8a3d

res1.1.bn2.weight f4 [16]
1.6924676 0.7763258 0.82443976 0.9182143 0.97513264 1.5244933 0.7202571 1.5682249
1.0591403 1.4199977 1.1175035 1.20652 1.7363932 0.7335917 1.1223338 1.3667701
00000000: c7a2 d83f 4abd 463f 7c0e 533f 1810 6b3f
00000010: 4ba2 793f 9922 c33f c562 383f 98bb c83f
00000020: e991 873f 7cc2 b53f 5b0a 8f3f 3f6f 9a3f
00000030: 2242 de3f aacc 3b3f a2a8 8f3f 53f2 ae3f

res1.1.bn2.bias f4 [16]
-0.46736717 0.29206333 -0.12308352 0.12429945 0.33151206 0.14679037 0.09254208 -0.4490412
0.121229686 -0.34362665 0.58356446 -0.12728155 -0.28954583 0.3221859 0.029976737 -0.19153829
00000000: c04a efbe 5389 953e 3613 fcbd b690 fe3d
00000010: f3bb a93e 3750 163e b486 bd3d bae8 e5be
00000020: 4547 f83d d5ef afbe 7b64 153f 1856 02be
00000030: 5a3f 94be 8df5 a43e c691 f53c 9d22 44be

res1.1.bn2.running_mean f4 [16]
-2.0384898 1.9004836 -1.0653384 -1.3717548 -1.318549 -2.822325 -1.6046711 0.2134761
0.34027112 -1.4590094 0.5816697 -1.0471382 0.626158 2.529629 -0.83280486 -1.5050383
00000000: 9e76 02c0 0c43 f33f 025d 88bf a995 afbf
00000010: 37c6 a8bf f9a0 34c0 dd65 cdbf 7b99 5a3e
00000020: 0438 ae3e d2c0 babf 4ee8 143f a008 86bf
00000030: e44b 203f 71e5 2140 b332 55bf 18a5 c0bf

res1.1.bn2.running_var f4 [16]
4.052437 4.6694818 3.6782587 3.8456779 4.5048466 4.7945557 7.9787235 4.7661314
7.346935 4.136537 5.736825 5.7326403 6.4924245 4.3592796 5.0967894 4.4108233
00000000: 90ad 8140 656c 9540 9768 6b40 961f 7640
00000010: b427 9040 006d 9940 b451 ff40 2684 9840
00000020: 171a eb40 835e 8440 1294 b740 ca71 b740
00000030: f1c1 cf40 387f 8b40 e618 a340 7725 8d40

res2.0.conv1.weight f4 [32, 16, 3, 3]
0.17587885 0.19498172 0.09056954 0.07909256 -0.07404463 0.049749173 0.06325155 -0.010150696
0.23160195 -0.13420331 -0.27840456 -0.14985837 0.022814175 -0.06273776 0.10042049 0.20433456
0.1142956 0.19560128 -0.49699414 -0.65664643 -0.06570526 0.14922982 0.018519131 0.19121908
0.38611853 0.3221915 0.26525196 0.31049764 0.18383746 -0.40724745 0.49170837 0.30810156
-0.28835672 0.287942 0.28499323 -0.016394556 0.4467022 0.26857534 0.1942787 0.27534807
0.4452703 0.3819088 -0.00508243 -0.14050058 -0.056436684 -0.2812527 -0.35585767 -0.2747204
-0.1720477 0.2575382 -0.00888295 -0.0051609464 -0.03372335 0.070103824 -0.015759872 0.08785353
0.20692505 0.21938129 0.26637837 0.38821742 0.1612324 0.015196132 0.10822768 -0.26649377
0.23500472 0.23110236 -0.05628954 -0.03920001 0.19665611 -0.21431102 -0.2929822 0.07606858
0.36326626 0.45596915 0.36938384 0.5019673 0.36976773 0.24756512 0.011100054 0.10211934
0.049051456 0.08685401 0.27655447 0.042840913 -0.7118617 -0.81921685 -0.81116146 -0.61196303
-0.74689305 -0.6483219 -0.2947044 -0.4278014 -0.10681457 -0.20194691 -0.1310849 -0.11069498
-0.07937415 0.08998656 0.29903427 -0.33023223 -0.2430224 -0.08183879 -0.26855034 -0.16164796
0.003906927 -0.3070224 -0.17958009 -0.16849607 0.47939372 0.58267826 0.22573876 0.3545908
0.2888711 0.22450252 -0.33081338 -0.26293972 0.14335752 -0.22988278 0.05131912 -0.009915929
-0.025308305 -0.13468859 -0.06821254 -0.14979252 -0.075997196 0.22835784 -0.08741976 0.0934763
0.14117 -0.098137945 -0.09580501 -0.06229445 -0.41582257 -0.14110242 -0.121820666 0.19247343
0.055927925 -0.057443567 -0.016997397 0.08877934 -0.101979606 0.056623213 -0.07159443 0.09703101
-0.025101257 -0.5258419 -0.5951995 -0.16794176 -0.73777854 -0.65473205 -0.105584525 -0.5711417
-0.3938785 0.066830344 0.16454706 0.30085605 0.05950321 0.36190513 0.31373894 0.12594756
0.40020168 0.22741625 0.05484323 -0.21806923 -0.2941251 0.066732675 0.063872874 0.08150509
0.15933129 0.23720007 0.13750431 0.24342325 0.1871224 0.010675857 -0.04196112 0.36022922
0.21939185 0.078799054 0.2741853 0.18069017 -0.18532465 0.10818476 0.17074475 -0.17708184
0.32602832 0.29799575 -0.14242949 0.09508906 -0.0078859115 0.044090398 -0.26903424 -0.126377
0.1635322 0.031419072 -0.02632216 0.29457316 0.340413 0.21177328 0.23779477 -0.04963048
-0.3013318 0.29060325 -0.04138532 -0.20094962 0.2202266 0.079943195 -0.13402103 0.09654921
-0.2626926 -0.66604453 0.11121916 -0.11768169 -1.0457826 0.38710517 -0.40575793 -0.92081857
0.14180468 0.081582144 0.082232535 0.07962696 0.17638123 0.16908099 0.062254723 0.24508038
0.13467342 0.047988236 0.41590062 0.37000164 0.12954794 0.48553315 0.34679678 -0.011241968
0.12638411 0.3231742 -0.22665805 -0.1566259 -0.16157523 -0.26758894 0.16427125 0.02181695
0.053517003 0.09244574 0.05515733 0.35180098 0.16408788 -0.14907514 0.37491643 -0.040104132
-0.4018955 -0.01670365 -0.29802305 -0.5877515 -0.07634604 0.03597618 -0.013207559 -0.23944402
00000000: 9619 343e 4aa9 473e 867c b93d 48fb a13d
00000010: b6a4 97bd cac5 4b3d 078a 813d 1b4f 26bc
00000020: 1029 6d3e 986c 09be 0b8b 8ebe 7974 19be
00000030: cbe4 ba3c a87c 80bd 42a9 cd3d 143d 513e
00000040: d013 ea3d b44b 483e 0476 febe fb19 28bf
00000050: 7b90 86bd b4cf 183e 6fb5 973c efce 433e
00000060: 54b1 c53e 49f6 a43e 1bcf 873e 8cf9 9e3e
00000070: e33f 3c3e bd82 d0be 33c1 fb3e 7dbf 9d3e
00000080: 7ea3 93be 226d 933e a2ea 913e e04d 86bc
00000090: 27b6 e43e b582 893e fff0 463e 6cfa 8c3e
000000a0: 78fa e33e 8d89 c33e 838a a6bb 62df 0fbe
000000b0: 272a 67bd 5b00 90be fa32 b6be 27a8 8cbe
000000c0: 462d 30be 0cdc 833e cb89 11bc 281d a9bb
000000d0: 7f21 0abd 9892 8f3d d91a 81bc 8dec b33d
000000e0: 29e4 533e 7da5 603e bf62 883e 6fc4 c63e
000000f0: 1b1a 253e 32f9 783c 79a6 dd3d df71 88be
00000100: 14a5 703e 19a6 6c3e dc8f 66bd 3190 20bd
00000110: 3860 493e 5974 5bbe c301 96be d8c9 9b3d
00000120: 09fe b93e ca74 e93e e11f bd3e ee80 003f
00000130: 3252 bd3e b681 7d3e 00dd 353c f223 d13d
00000140: 2eea 483d 84e0 b13d 8c98 8d3e f479 2f3d
00000150: 923c 36bf 32b8 51bf 47a8 4fbf 9ca9 1cbf
00000160: 6234 3fbf 6df8 25bf 7fe3 96be c908 dbbe
00000170: 99c1 dabd 2ccb 4ebe 1f3b 06be 0db4 e2bd
00000180: ea8e a2bd e04a b83d 051b 993e 3314 a9be
00000190: ddda 78be 189b a7bd 6e7f 89be 0b87 25be
000001a0: ae05 803b 0a32 9dbe d8e3 37be 3c8a 2cbe
000001b0: 1873 f53e 672a 153f 1028 673e ed8c b53e
000001c0: eae6 933e fde3 653e 5f60 a9be 09a0 86be
000001d0: 50cc 123e 6466 6bbe ff33 523d 6c76 22bc
000001e0: 5d53 cfbc ceeb 09be 04b3 8bbd 3663 19be
000001f0: 6ba4 9bbd a3d6 693e 2209 b3bd 8170 bf3d
00000200: de8e 103e 8cfc c8bd 6b35 c4bd 7728 7fbd
00000210: b2e6 d4be 277d 10be 1d7d f9bd c117 453e
00000220: ae14 653d f249 6bbd 203e 8bbc f1d1 b53d
00000230: afda d0bd beed 673d 1aa0 92bd 32b8 c63d
00000240: 27a1 cdbc 939d 06bf ff5e 18bf edf8 2bbe
00000250: 0edf 3cbf 859c 27bf b33c d8bd 5836 12bf
00000260: 71aa c9be 59de 883d 067f 283e ce09 9a3e
00000270: a3b9 733d a14b b93e 64a2 a03e 66f8 003e
00000280: 3ce7 cc3e cedf 683e 4ba3 603d 8a4d 5fbe
00000290: 9197 96be 24ab 883d c8cf 823d 24ec a63d
000002a0: be27 233e 93e4 723e eecd 0c3e f243 793e
000002b0: 049d 3f3e cae9 2e3c 6cdf 2bbd f76f b83e
000002c0: 42a8 603e 6661 a13d 0462 8c3e d806 393e
000002d0: bfc5 3dbe f98f dd3d b6d7 2e3e f154 35be
000002e0: 2fed a63e e692 983e 09d9 11be 0ebe c23d
000002f0: e933 01bc 2298 343d dbbe 89be f968 01be
00000300: fc74 273e 49b1 003d 92a1 d7bc 4bd2 963e
00000310: 9d4a ae3e 18db 583e 7980 733e 5549 4bbd
00000320: 2948 9abe f3c9 943e a783 29bd bdc5 4dbe
00000330: 1583 613e 42b9 a33d cf3c 09be 98bb c53d
00000340: a57f 86be e581 2abf dfc6 e33d 1903 f1bd
00000350: 34dc 85bf a632 c63e 81bf cfbe c4ba 6bbf
00000360: 3f35 113e 8a14 a73d 8869 a83d 7613 a33d
00000370: 489d 343e 9123 2d3e cffe 7e3d 5af6 7a3e
00000380: d4e7 093e 508f 443d edf0 d43e db70 bd3e
00000390: 37a8 043e cd97 f83e 598f b13e 3b30 38bc
000003a0: d66a 013e 1777 a53e 0c19 68be 8a62 20be
000003b0: fa73 25be 6b01 89be b936 283e 76b9 b23c
000003c0: a534 5b3d 3154 bd3d a7ec 613d 421f b43e
000003d0: a706 283e 27a7 18be 0cf5 bf3e 3b44 24bd
000003e0: 3fc5 cdbe 18d6 88bc 7a96 98be e276 16bf
000003f0: 505b 9cbd c25b 133d 8464 58bc d030 75be

res2.0.bn1.weight f4 [32]
1.1809124 0.8465296 0.7718961 1.1812744 0.93617076 1.0731641 1.1480844 1.0734923
1.0597847 1.0105077 0.93953586 0.9342799 1.1601976 0.95861304 1.0602641 0.8862736
0.91931695 1.0575962 1.0423855 1.1222447 1.2318813 1.1511104 0.9390196 1.0453527
0.9107348 1.2520381 1.0401264 1.0595073 1.0333183 1.1245977 1.0614245 1.1166307
00000000: 2328 973f 2ab6 583f fc9a 453f 0034 973f
00000010: e3a8 6f3f 715d 893f 6ef4 923f 3268 893f
00000020: 06a7 873f 5158 813f 6c85 703f f82c 6f3f
00000030: 5b81 943f aa67 753f bcb6 873f d4e2 623f
00000040: 5b58 6b3f 505f 873f e36c 853f b7a5 8f3f
00000050: 49ae 9d3f 9657 933f 9763 703f 1ece 853f
00000060: ea25 693f c942 a03f dd22 853f ef9d 873f
00000070: c643 843f d1f2 8f3f c2dc 873f c1ed 8e3f

res2.0.bn1.bias f4 [32]
0.08582043 0.4364398 0.32243955 -0.11556755 0.046560843 -0.17771947 -0.05799217 -0.184645
0.07419365 -0.027265668 0.18639383 0.19367497 0.054315113 -0.18616652 0.35627043 -0.09132094
-0.16741896 0.2733645 -0.09121438 -0.17954591 0.23320068 -0.21377543 -0.09505985 -0.1171722
0.015191383 -0.029162465 -0.18791015 0.3910722 0.23748079 -0.178001 0.03656976 -0.26474077
00000000: 9fc2 af3d 0a75 df3e cc16 a53e aeae ecbd
00000010: 95b6 3e3d 18fc 35be 3389 6dbd 9413 3dbe
00000020: d7f2 973d 405c dfbc 06de 3e3e bb52 463e
00000030: 8679 5e3d 70a2 3ebe 1469 b63e 7906 bbbd
00000040: e06f 2bbe 6ff6 8b3e 9bce babd e2da 37be
00000050: 29cc 6e3e f2e7 5abe bdae c2bd faf7 efbd
00000060: 47e5 783c 1fe6 eebc 856b 40be 9e3a c83e
00000070: 2a2e 733e e545 36be 2cca 153d 1a8c 87be

res2.0.bn1.running_mean f4 [32]
0.87005883 -1.2040809 -3.035446 -1.7583256 -1.1675481 1.1919986 0.2995585 -0.3397379
-0.45831802 -0.9231617 -5.8592186 3.0020618 -2.914656 0.8682691 -6.9519563 3.9627128
0.3043284 -3.5282485 0.5351696 -1.1319594 -11.691525 2.5352478 -6.61435 -5.912763
-0.5837615 -1.148165 -1.8846292 1.3401201 3.2412279 0.06404909 -0.19692944 -0.7849033
00000000: 2dbc 5e3f 531f 9abf bf44 42c0 d010 e1bf
00000010: 3772 95bf 6993 983f bb5f 993e 20f2 adbe
00000020: a9a8 eabe 5354 6cbf b87e bbc0 c821 4040
00000030: b989 3ac0 e246 5e3f 6d76 dec0 169d 7d40
00000040: efd0 9b3e d3ce 61c0 e000 093f 0ce4 90bf
00000050: 7d10 3bc1 8041 2240 c1a8 d3c0 5b35 bdc0
00000060: 6571 15bf 12f7 92bf 883b f1bf 0e89 ab3f
00000070: 4770 4f40 2b2c 833d dfa7 49be 6cef 48bf

res2.0.bn1.running_var f4 [32]
36.222225 19.116276 26.09437 62.21547 22.81243 48.494694 43.076393 47.633656
37.563423 16.46919 22.929193 49.323753 56.735474 21.084463 33.149975 25.966396
29.129545 27.607439 42.392586 44.114513 48.604546 38.42244 31.508476 33.908466
19.165485 67.151436 59.2351 27.23014 22.221085 49.33849 36.468124 46.58998
00000000: 8fe3 1042 22ee 9841 45c1 d041 a4dc 7842
00000010: db7f b641 91fa 4142 3a4e 2c42 dd88 3e42
00000020: f240 1642 e7c0 8341 fd6e b741 864b 4542
00000030: 20f1 6242 fbac a841 9399 0442 2ebb cf41
00000040: 4f09 e941 09dc dc41 0292 2942 4375 3042
00000050: 0e6b 4242 94b0 1942 5c11 fc41 45a2 0742
00000060: ea52 9941 894d 8642 bef0 6c42 54d7 d941
00000070: c8c4 b141 9d5a 4542 5cdf 1142 245c 3a42
