tutorial/NICE2024/logs/fsdd_no/net.pt (torch, 433856 bytes, 10 tensors)

0.w_ih.weight f4 [8, 1, 3, 3]
00000000: 1bb7 d93d b05f 4ebe c072 82bc 049b a8be
00000010: 8ae7 79be 8a8a 033b c303 55be 1670 b3bd
00000020: d693 713d bb0b c4bd b0f7 293e fe59 4cbe
00000030: a567 4e3e 1038 bcbd baad 84be f056 5c3e
00000040: 88e5 8e3e e064 89bd 00f6 7cbe 2ead 093e
00000050: 00f1 08be 66c4 30be b7bf 67be 48d0 cc3d
00000060: a8f7 553e 83ec 1c3e 33ae 543e dbad 5e3e
00000070: 9094 3c3e 006e 8f3c e2b6 08bd 3c39 60be
00000080: 2476 1d3d eb53 f23c 802a 203d 304a 66be
00000090: d8e7 633e e65d 6ebe 2294 8d3e b435 7ebe
000000a0: ba53 0f3e 272f d33d 2cd7 97be cb03 20be
000000b0: 6b6c 543e 8e2c 673e bb38 703e dbbc fabd
000000c0: d0bd 5a3e 4ba0 e8bc 76b3 cf3d 10c2 f4bd
000000d0: db41 9d3d 8bf6 dfbd 2401 8b3e 2354 213e
000000e0: ab76 65bd 43cf 7abe 88b8 053d 5b9d 16be
000000f0: 463e 773e 2fa0 90be 33ab 463e 176d 8abe
00000100: 400e 043d 2be5 99bc 8955 a3be a131 0ebe
00000110: c0c4 53bd cbd2 a2bd f8e0 5c3e 337d 2cbe
0.10630628 -0.2015369 -0.015923858 -0.32930768 -0.24404731 0.002007159 -0.20802216 -0.08761613
0.058978878 -0.0957255 0.16598392 -0.19956204 0.20156725 -0.091903806 -0.25913793 0.21517539
0.27909493 -0.067086935 -0.24703217 0.13444969 -0.13373184 -0.1726242 -0.22631727 0.10000664
0.20895255 0.15324597 0.20769577 0.21746008 0.18416047 0.017508507 -0.033377536 -0.21896833
0.038442746 0.02958103 0.03910303 -0.22489238 0.2225641 -0.23278007 0.2765208 -0.24825174
0.13996783 0.10311728 -0.2965635 -0.15626447 0.20744483 0.2257559 0.23459141 -0.122430526
0.2136147 -0.028396746 0.10141651 -0.11951077 0.076785766 -0.10935696 0.27149308 0.15754752
-0.056021374 -0.24493127 0.032646686 -0.14708464 0.24144849 -0.2824721 0.19401245 -0.27036354
0.032240152 -0.018786034 -0.31901196 -0.1388612 -0.051701307 -0.07950362 0.21570194 -0.16844635

0.w_hh.weight f4 [8, 8, 3, 3]
00000000: 5ca1 a63d 0ed2 803d 7933 c4bd cd89 133d
00000010: 3ee3 ab3d 4d35 e43d e1d2 d1bd e8d6 e53d
00000020: a854 0fbc 0c13 a0bc 4db4 a2bc b2d1 e33d
00000030: 6f36 883d bb01 0f3d c315 ba3d 6d0b 403c
00000040: 0a25 d3bc e3e7 ae39 1614 88bd 764d 7bbd
00000050: be62 833c 5f1c 343c aa72 63bd 5ab1 d7bd
00000060: ff48 8f3d 4793 323d 95c9 ebbd 978d bbbd
00000070: 6750 b4bc 1171 0cbd 5a52 eebc ec79 22bd
00000080: e31d ebbd 13db 6fbd 9f25 6bbd cfa5 a43b
00000090: 2036 363d b90c a73d 02d0 843d cbfa efbd
000000a0: 3aa9 803d 7c9a 72bc 9dc9 80bd 60b5 513d
000000b0: 2231 673c bb21 823d 1096 bd3d 5b18 ccbc
000000c0: 3c7a cd3c 5216 d9bc 8bf4 933d 577a 86bd
000000d0: e88b ca3b f7c7 cbbd 1374 373d a0bc d73d
000000e0: ff1a 4e3d 89b9 aebd 3394 cabd a728 a33c
000000f0: 5051 48bd 46b9 adbd a3fa c93d 4f5a 873d
00000100: e74f 8a3b 63cf 5dbc fa0f 6a3d 7545 653d
00000110: 4dda f23c f346 903d aab0 e4bd 726e 80bd
00000120: e1cd 933d a912 bebd e89f d2bd 4ae1 eebd
00000130: 60c1 7fba c8f0 c83d 6296 9bbc a033 0e3d
00000140: 94c2 debd 4d5b 413c 44ff e9bd 9120 d1bd
00000150: 5110 54bd 4b4f 783d f2eb fe3b 31ca 8cbd
00000160: 8b76 bbbd f763 cf3c 6a86 c1bd 1b8e b43d
00000170: 9d54 efbd 5599 0f3d 0834 ecbc 5345 dbbd
00000180: 5737 783d 445a cabd 46c3 78bd d7ef d73c
00000190: dd5b 86bd 2049 d43d 3c16 8a3d 4f67 b0bd
000001a0: e194 a8bc 9cb2 c63d 08dc c43d 2adb b03c
000001b0: 2c83 c73d 532b 0bbd dd31 803d c5d4 86bd
000001c0: 7374 ecbd d446 92bd 8ef7 31bd a10d 0d3d
000001d0: 288a 45bb d707 133d 0299 c63d 1b43 d2bd
000001e0: 6df0 dfbd 4ad5 2a3d f5e3 283d 89f9 193d
000001f0: ec89 fd3c ac17 ec3d cf07 0b3d aabf 7fbd
00000200: 999e 8abd 4c9a 6dbd 3bff 8f3d 7d31 4c3d
00000210: 2546 77bc 9457 2ebd 430a 71bd 3b1a 54bd
00000220: 50bc d2bd cad0 bdbd 5217 283d dd06 8abd
00000230: bc9f 523d 9cdc a7bd 6a59 eabb 79a6 cabd
00000240: bf6c f03d 9c0b aa3d c51f bfbd 0b72 a0bd
00000250: e82f e63d 0372 0dbd 540c 8bbd d48d 2b3d
00000260: 53f3 4c3c 7d0d f13d 3443 0a3d 026e df3d
00000270: b135 723d f9e6 e53d 0e91 8cbd 84fd d93c
00000280: cc30 083d 1527 cd3d 136d 133d f5bb db3d
00000290: c278 3dbd a213 acbd cadc e03d 06cd 8a3d
000002a0: 68cc 2abd fc85 5f3d 7e0f 0fbd f5f8 5d3d
000002b0: 96d7 bbbd 5482 e23d 9db6 fcbc 6272 e3bc
000002c0: 7849 cb3c 3031 de3d c4e5 92bc 0dd9 ddbc
000002d0: 034c a23d dfbd babc 79c9 e4bd f61b 99bc
000002e0: 74f6 e43d 1548 aebd 88ac 0abd 1a1c dc3c
000002f0: 98ee 22bd 1fe8 b8bd 3aea dd3c 6b0b c03d
00000300: ba9f 253d 2129 0abc 874f 92bd eb02 eabd
00000310: 1c6c 3a3c 6d13 ebbd 5369 893d c1f9 50bd
00000320: 4c55 6dbd 51eb d7bd a597 ecbd 6291 183d
00000330: 86f3 bbbc ac1c 8ebd 72eb ff3c c09e c83d
00000340: c77e 813d 5d37 9d3d 3d47 33bb 6dea 9f3d
00000350: 9e33 f03d 6ba6 3abd 375f dd3d 28ff ed3d
00000360: 0e8d cb3a 9881 60bd 6db7 5abc 23a8 47bd
00000370: 30c8 c1bd 268f 22bd c9e2 72bc e1b0 ca3c
00000380: 6103 cd3c 51e6 d3bd 9f69 8a3c 6c2d 5abc
00000390: 4ee2 b8bd 7482 e83d 671c 423d 68da dd3d
000003a0: b30c a0bd 1845 9f3d 1bf8 ed3c c9bb 373d
000003b0: 55fc 80bd 2814 283b 7f7c c03d 43cb b03d
000003c0: ef0a 293d 8a26 edbb e183 e1bd 19c3 d9bd
000003d0: d5f9 4abd c794 5abd 1ff8 f43c 76f8 0bbc
000003e0: b9f9 9a3d f1fc c5ba b508 883d fbbd 953d
000003f0: 5d1a 253c 913e 133d ee10 143d 6303 5d3b
0.081362456 0.06290065 -0.0958013 0.03602009 0.083929524 0.11142979 -0.102453 0.11222631
-0.008748211 -0.019540332 -0.019861365 0.111239806 0.066510074 0.03491376 0.09086182 0.011721474
-0.025774498 0.00033360635 -0.06644456 -0.06135317 0.016038295 0.010993092 -0.055529274 -0.10531874
0.06996345 0.043597486 -0.11513058 -0.091578655 -0.022010995 -0.034287516 -0.029092003 -0.039667055
-0.1148031 -0.058558535 -0.057408925 0.0050246487 0.04448521 0.081567235 0.06484987 -0.11717757
0.062822774 -0.01480734 -0.06288455 0.051198363 0.014110835 0.0635409 0.09257138 -0.024913957
0.0250827 -0.026499901 0.07224377 -0.06566303 0.006181229 -0.0995025 0.04478843 0.10534024
0.050318714 -0.08531482 -0.09891548 0.019916845 -0.04890567 -0.08482604 0.09862258 0.06609022
0.004220951 -0.013538214 0.057144143 0.055974443 0.02964511 0.070447825 -0.111665085 -0.06271066
0.07217003 -0.09280903 -0.10284406 -0.11664064 -0.0009756293 0.098115504 -0.018992607 0.034717202
-0.108769566 0.011801553 -0.11425641 -0.1021129 -0.051773373 0.060622495 0.0077795917 -0.068745025
-0.0915347 0.025316222 -0.094494656 0.08816167 -0.116860606 0.03505834 -0.028833404 -0.10706582
0.06059965 -0.09880498 -0.060733102 0.026359482 -0.0656049 0.1036551 0.06742522 -0.086134546
-0.020578803 0.09702036 0.0961228 0.02158888 0.09741816 -0.033976864 0.06259511 -0.06583551
-0.115456484 -0.07142416 -0.043448977 0.034436826 -0.0030142162 0.03589615 0.09697153 -0.102667056
-0.109345295 0.041707315 0.04123302 0.03759149 0.030949555 0.115279526 0.033942994 -0.062438644
-0.06768531 -0.058008477 0.07031103 0.049851883 -0.015092407 -0.04256399 -0.058847677 -0.051782828
-0.10289824 -0.09268339 0.041037865 -0.0673959 0.051421866 -0.08196375 -0.0071517723 -0.098950334
0.11739492 0.083029956 -0.093322314 -0.07834252 0.11239606 -0.03453256 -0.06789461 0.041883305
0.012509185 0.11770151 0.033755496 0.10909654 0.059133235 0.11225695 -0.068636045 0.026610143
0.03324966 0.1001722 0.035992693 0.10729209 -0.04625774 -0.08402182 0.10979612 0.06777386
-0.041698843 0.054571137 -0.034926884 0.054192502 -0.09171979 0.11060014 -0.030848796 -0.027764503
0.024815306 0.108492255 -0.017931826 -0.027081037 0.07924654 -0.022795616 -0.1117124 -0.01869009
0.1117982 -0.08509842 -0.033855945 0.026868869 -0.039778322 -0.090286486 0.027089227 0.09377178
0.04043553 -0.008432657 -0.07144075 -0.11426338 0.011378314 -0.114783145 0.06709542 -0.051019434
-0.057942674 -0.1054293 -0.115523614 0.037248023 -0.02294327 -0.069390625 0.031240199 0.09795904
0.06323009 0.07676575 -0.0027355694 0.07808385 0.11728595 -0.045568865 0.108091764 0.11620933
0.0015529708 -0.05481109 -0.013349396 -0.048744332 -0.09462011 -0.0396873 -0.014824578 0.024742546
0.025026025 -0.10346664 0.016896067 -0.0133164935 -0.09027539 0.11353007 0.047390368 0.10832673
-0.07814922 0.077768505 0.02904897 0.04485682 -0.062981285 0.002564678 0.09398746 0.08632519
0.041270193 -0.00723726 -0.11011482 -0.10632915 -0.049554665 -0.05336454 0.02990347 -0.008543124
0.07567162 -0.001510529 0.06642286 0.073116265 0.010077086 0.03594834 0.036148958 0.0033723942

0.w_hh.bias f4 [8]
00000000: b402 6cbd 6f2c a03d afea e2bd 2a7f b5bd
00000010: 63f5 e3bd e066 81bd 92c1 e83c 57e2 233d
-0.057619765 0.07820975 -0.110799186 -0.08862145 -0.11130788 -0.0631845 0.028412614 0.040010776

1.w_ih.weight f4 [16, 8, 3, 3]
00000000: 44be e43d 81bd 7abb 486a 5b3d e7ce ce3d
00000010: 026c 953d 5462 40bd 197e 50bd 1c02 673d
00000020: 9adb 853c d503 dfbc 1b16 93bd 9868 e6bd
00000030: c6bd 1a3b 9c5c b83d c6b3 a33d 1180 153d
00000040: 5891 943d 364c ba3d e1ec ec3d 0ebe c5bd
00000050: c1d8 8abc 3a30 713d 8b8a 2cbd c4a6 84bd
00000060: 27d4 383d f35d ed3d 7928 5a3d c755 d93d
00000070: 0e7f b43d e654 b93d 3e75 4f3d b9b4 d73d
00000080: 3960 c9bd 6f45 b43d d0ea c03c 1afa 8bbd
00000090: f80e edbd ab6a acbb cf59 1bbb d691 c43d
000000a0: 391e 88bc 5e00 c23d d40e ca3d f417 d0bc
000000b0: 7876 5e3d 0d43 e23d 1f14 6bbd 1894 e53d
000000c0: ddb5 d9bd d5a5 1a3d 6fba d0bd ef57 0cbd
000000d0: 4316 853d 91b0 72bd 6298 81bd 20fa e3bd
000000e0: ae6f f33b b4e4 8bbd fcc5 d83d 37f7 d7bd
000000f0: 8ea5 06bd 0d47 bfbd 4c6c 70bd 8183 9fbd
00000100: bf8c d1bc ff06 aebd d04d 0b3d c211 bfbb
00000110: 80f4 d6bd fec3 d3bc ef78 c83d 8b6d 43bd
00000120: 61aa 6b3d fed6 21bd 4226 e2bd f8e0 e93c
00000130: 3e7c c23d d86f 303d f1d5 a5bd 9427 c83d
00000140: 3601 fc3c c6f5 243d 8af4 8dbd cb00 ebbd
00000150: 6af3 40bb c206 91bb 3bd3 09bd 4d43 1dbd
00000160: efbd 3cbd a6ed 3c3d 07b9 133d 85d9 b23d
00000170: a7f3 cfbd 3850 003d 2d79 793d e5dd a93d
00000180: af35 89bd 46e0 0c3c fca8 f33c 93ad 633c
00000190: a5f1 0dbd eb88 4bbd 2472 fc3c 11ef e5bd
000001a0: b53e 8f3d 8974 c8bd cba1 a2bd 0e17 7a3d
000001b0: d07f d23d de41 d9bd 92a6 d23d cd3f d83d
000001c0: 2f44 c63d d585 dabd 7d69 893d 62af c2bd
000001d0: 895a afbd dfdf 73bc f683 8a3c d8aa a2bc
000001e0: 8710 e9bd 724e 733d eb17 db3d f28c a4bc
000001f0: 59f5 263d f0f7 b5bd a62a d8ba f82e 45bd
00000200: 25d3 d4bd dceb 39bd edf6 94bd 387b c1bd
00000210: 5c42 a53d 35d3 8cbd bc2b afbd 3424 c63d
00000220: 4a57 ccbc 352f 46bd e61e 96bd 0c70 58bd
00000230: d765 52bd 6429 7fbd 5cf5 163d 5365 813d
00000240: a237 fe3b 299b b23d a7a7 6a3d 43f9 db3d
00000250: 4f72 e53d 9132 d53d ba7b 953d d5b0 b6bd
00000260: 6512 3abd 6bb1 88bb 3866 e4bc bd5f cd3d
00000270: 079b 713d b1b5 e0bd 6de5 98bd 39df c83d
00000280: 8527 56bd a73a 953c ee3a ccbd df8d 873d
00000290: 8253 b6bd ba71 19bc e917 bd3d 9168 b33d
000002a0: 54f1 a2bd 7704 f1bd 737b 0c3a 7662 c83d
000002b0: ed99 f23c e41f b73d 93b4 eb3c 8dbe c3bd
000002c0: ff8a 863c 30b8 843d cf3f f6bc b03f dcbd
000002d0: 5e4f c0bb 303e bebc 0206 57bd fb1c b43d
000002e0: 4c7a d0bd bc0c 1c3d 63d5 bdbd 594c d53d
000002f0: a180 16bd 0599 a9bd 9655 9fbd 6c47 1bbc
00000300: a9bb 113c dd23 393d f30f 3abd f555 dfbd
00000310: f4af 443c ad6a f6bc ff04 a4bd b34e 36bd
00000320: 88d3 903d d1ee c93d 5bf3 9abd 6b21 80bd
00000330: 70e4 2dbc 31aa 493d c9e0 34bd 043d e43d
00000340: 9e1b 8d3d 31da 823d 8624 6e3d 12e0 c63d
00000350: cd1b 283d fbc6 d9bc e14d c63c c319 263d
00000360: df32 303c a30a d13d b62f a2bd 0521 383d
00000370: b8c2 ec3b 10c4 d93b ae34 1abd 4e6e e43d
00000380: e36b 2b3d a63e c73d aae5 c73d 5793 ea3c
00000390: bec7 adbb cd2c 4bbd 90ae d63d a045 e53d
000003a0: f1ef 0a3b 4527 8c3d 804f c7bc 48e4 dabd
000003b0: 86a5 433d 2767 3d3d a14f e9bc 6a81 a23d
000003c0: b06b ed3d 49f2 f2bb a3e8 8bbc 16bc 5cbd
000003d0: 3be8 943d 8889 513c 56d6 ee3d fc3a 7a3d
000003e0: ee40 473d 5768 11bc 67ee cbbc 4f29 e63d
000003f0: b12d c33d b5bd 1e3d 23e4 46bd 6b6d c0bd
0.11169103 -0.0038259926 0.053568155 0.10098057 0.072959915 -0.046968773 -0.050901506 0.056398496
0.016340066 -0.027223507 -0.07181951 -0.112504184 0.002361165 0.09002039 0.079932734 0.036499087
0.072542846 0.09096567 0.115686186 -0.09655391 -0.01694906 0.058883883 -0.042124312 -0.064771205
0.0451242 0.11590185 0.053261254 0.10612064 0.08813296 0.09049396 0.05064892 0.10532517
-0.09832806 0.08802306 0.023549467 -0.068348125 -0.11575121 -0.0052617393 -0.0023704653 0.095981285
-0.016615974 0.09472726 0.098661095 -0.025402047 0.0543122 0.11047945 -0.057392236 0.11209887
-0.10630391 0.037755806 -0.101918094 -0.034263548 0.06498387 -0.059250418 -0.06327893 -0.11131692
0.0074290847 -0.06830731 0.105846375 -0.10545199 -0.03287273 -0.09339724 -0.05869703 -0.07788754
-0.025579808 -0.08497428 0.034009755 -0.0058309743 -0.104958534 -0.025850292 0.09788691 -0.04771189
0.057535533 -0.039511673 -0.11042453 0.028549656 0.094963536 0.043075413 -0.08097447 0.09773174
0.030762296 0.04027345 -0.06931408 -0.114747606 -0.002944196 -0.0044258544 -0.03364871 -0.03839426
-0.046079572 0.046125077 0.036065128 0.08732895 -0.10153895 0.031326503 0.060906578 0.08294276
-0.066996925 0.008598393 0.029743664 0.013896364 -0.03465428 -0.049691122 0.030816145 -0.11227239
0.06994382 -0.09787852 -0.07941016 0.061057143 0.102782845 -0.10608266 0.10285677 0.10559044
0.09680974 -0.10670058 0.067095734 -0.09506108 -0.0856219 -0.014884918 0.016908627 -0.019856855
-0.113801055 0.059400983 0.10697921 -0.02008674 0.040761326 -0.08885181 -0.0016492202 -0.048140496
-0.10391835 -0.04539095 -0.0727366 -0.0944733 0.08069298 -0.06876222 -0.085532635 0.09674874
-0.024943966 -0.048384864 -0.07330112 -0.05284123 -0.051366653 -0.062295333 0.036855087 0.06318154
0.007758097 0.08721001 0.057288792 0.10740902 0.11203443 0.104100354 0.072989896 -0.08920447
-0.0454277 -0.0041715405 -0.027880773 0.10028026 0.058985736 -0.10972155 -0.074656345 0.09808201
-0.052283783 0.018216444 -0.099721774 0.06618857 -0.089026466 -0.009365493 0.09233076 0.08760179
-0.07956186 -0.1176843 0.00053589715 0.09784405 0.029614413 0.089416295 0.028772628 -0.09557829
0.0164237 0.064804435 -0.030059723 -0.10754335 -0.0058688363 -0.023223013 -0.052495964 0.0879459
-0.10179576 0.038098082 -0.09269216 0.10414953 -0.036743764 -0.08281139 -0.07779996 -0.0094774775
0.008894839 0.045200218 -0.045425367 -0.10905067 0.012004841 -0.030080164 -0.080087654 -0.044508647
0.070715964 0.09860004 -0.075659476 -0.06256374 -0.010613546 0.049234573 -0.044159684 0.1114445
0.06890033 0.06389273 0.0581403 0.09710707 0.041042138 -0.02658414 0.024207057 0.040551912
0.010754316 0.10207107 -0.079192564 0.044953365 0.0072253607 0.006645687 -0.037647896 0.111538514
0.041850936 0.09728746 0.09760602 0.02863471 -0.005303352 -0.049603272 0.10482514 0.111949205
0.0021200145 0.068434276 -0.0243299 -0.106880724 0.047765277 0.046240952 -0.028480353 0.0793484
0.115928054 -0.0074141365 -0.017078703 -0.05389031 0.07270857 0.012789138 0.11661975 0.061091408
0.048645906 -0.008874974 -0.024893953 0.11238348 0.09530199 0.038755137 -0.048557412 -0.0939587

1.w_hh.weight f4 [16, 16, 3, 3]
00000000: 0437 a63d db9f 413d 8c28 a73d 80f9 043d
00000010: 0b04 8b3c 3e2a 573d 009b 5dbc eb90 97bd
00000020: ab04 f13b ee8c 303d d634 6a3b 2b15 a23c
00000030: 5678 c6ba d371 6cbd 4606 6c3d 7e00 613d
00000040: 7baa 6cbd c00a ff3b 0ede 233d a624 8e3c
00000050: ebb3 693d aee2 8dbd 8741 843d d896 6dbd
00000060: 5440 97bd 5052 8abd 56eb 42ba b05f 903d
00000070: ebb6 de3c 279a a43d 90d3 e73c 582d aabd
00000080: fbca 9a3d ebe0 713c 6821 893d abde 1d3b
00000090: c6d9 ac3c 5662 8a3c be80 67bd 3e5d 86bd
000000a0: 0042 d73a 56a5 34bc 963b 72bc e673 14bd
000000b0: 83b1 5dbd d6ef eabc b45b 89bd 9c8e 87bd
000000c0: 6bfe 203d f07f f53c ab28 8c3b 80fa 1f3b
000000d0: 5651 ec3a ab36 403a bb3b 99bd e0ea 9e3c
000000e0: a340 173d 663c efbc 3338 093d 1082 273d
000000f0: 0b27 6c3d dee6 77bd 8637 9dbc 0355 303d
00000100: f83e 3b3d f05e b2bc 26dd 34bd f457 a1bd
00000110: 26b6 b3bc f389 803d 0b3f 2ebd d82c 6a3d
00000120: f01f 8b3c 9611 81bc d633 033c 20fb a43c
00000130: 146a 89bd 6016 f83c bbf6 a2bc 965f e5bb
00000140: 668a 7d3d 9e96 38bd 00b9 213b c39e 7b3d
00000150: 98a9 4b3d 805e ffbc 20d7 36bd 8eb3 01bd
00000160: 0eba 2b3d 6ac2 a8bd b633 0e3d 936c 6d3d
00000170: db63 433d 1671 7b3c 7b8a 9f3d 5849 1a3d
00000180: b0db 25bd 7327 01bd 3272 933d deb2 6e3d
00000190: 2ba1 c6bc 60e9 7dbc 18a5 2b3d 167b 0a3d
000001a0: 2e76 7e3d d6d6 ccbb 8b01 c43c 70db 13bd
000001b0: 97cf 92bd 8645 a3bd d64a 593c 10df 34bd
000001c0: 7850 7bbd ab85 c2bc 5333 2ebd 56f2 d33a
000001d0: b84d 8f3d 0ec5 58bd 0b10 03bd ebc8 97bb
000001e0: 6039 0ebc 38f5 2f3d 3e58 403d 563f 26bc
000001f0: 8642 bd3c 8b09 27bc f46c 99bd 5bed 6ebd
00000200: 3eb7 363d 66db 963d a679 e83c 5685 fdb9
00000210: d333 0b3d 0080 b1b9 86a9 78bd fe17 06bd
00000220: 9ec1 7abd b629 1cbd 1624 423d 1848 19bd
00000230: 8bd4 843c c8b4 a83d 802c 4fbd ef75 a73d
00000240: ab23 993b 2033 aebc e8f8 983d 76c8 67bc
00000250: 404e 31bd e8d2 41bd 5cec a63d c077 5d3d
00000260: b67d 50bc 8022 75bc 4e56 20bd f007 fa3c
00000270: bbb8 c6bc 26cf 173d 0b1c 8b3c cbe0 79bd
00000280: b640 773d fcce 8b3d 7b48 84bd 4b19 5b3d
00000290: be04 60bd 3c10 8b3d f040 1f3d cb1c 22bc
000002a0: 5b3a eabc a6a4 793d 6beb b1bb 40f0 9f3c
000002b0: ab80 d2bc 0b3e fe3c 13b5 223d 807d eabc
000002c0: 3bac 1abd 830d 3bbd f70c 8f3d 10b9 df3c
000002d0: 2bdb 0abd 5e44 943d 96e2 62bd 0611 f9bc
000002e0: 407d f8bc 3eba 643d c0af 9bbd f0bf 67bd
000002f0: aef1 7abd b8db 1a3d 9e08 7a3d 7a65 943d
00000300: 36aa 76bd ded8 25bd e0d4 6fbd 96a8 3dbc
00000310: 6022 91bd 7674 643d 6b75 e6bc 9ed8 153d
00000320: 3053 053d 08bc 803d 80e3 0c3c 7010 4d3d
00000330: 80ed 2cbb 001a 573b 0436 9f3d 9267 9bbd
00000340: 7306 623d 734f 4c3d 66ad 75bd 5695 f7b8
00000350: 4060 373c 6ba4 83bd 5009 643d 8874 423d
00000360: 6bf2 b8bc 039b 273d 1314 a6bd e05d a9bd
00000370: beab 9d3d 2a2f a2bd dbc2 113d 5249 a43d
00000380: bb47 37bd a091 db3c 6316 373d d8f7 23bd
00000390: b6e2 9d3d 5697 373c b66b 563d 5e4e 2bbd
000003a0: 96a9 c83c b6b9 ee3c 2bc8 4bbb e88c 74bd
000003b0: d6dc 86bb 168e 90bd 2bea b63b 26d4 10bd
000003c0: c084 47bd 1cea 843d 56fa ad3c f3ff 92bd
000003d0: 40de edbc 56b7 ca3c b36c 47bd 2ba1 6bbc
000003e0: 4835 443d ab5b f2ba 106f 4ebd 8026 12bb
000003f0: 2ca3 96bd f090 233d c8f5 38bd e05a 91bc
0.08115962 0.04727159 0.081620306 0.032464504 0.016969701 0.05253052 -0.013525724 -0.07400688
0.007355293 0.04310315 0.003573706 0.019785484 -0.0015142064 -0.05772574 0.05762317 0.05493211
-0.05777977 0.007783264 0.04000669 0.01735146 0.05705635 -0.06928001 0.06457811 -0.058005184
-0.073853165 -0.06753981 -0.00074355805 0.07049501 0.027186831 0.08037215 0.028299123 -0.0830943
0.07558247 0.014763097 0.06695825 0.002408902 0.021099936 0.016892593 -0.056519262 -0.06560753
0.0016422868 -0.011025747 -0.014784714 -0.036243342 -0.054124366 -0.028678816 -0.06706944 -0.066189975
0.039305132 0.029968232 0.004277309 0.0024410784 0.0018029611 0.0007332365 -0.07482096 0.019399107
0.036926877 -0.029203605 0.03350086 0.04089552 0.05765442 -0.060522906 -0.019191515 0.043049823
0.04571435 -0.021773785 -0.044156216 -0.07878104 -0.021937441 0.06276312 -0.04254059 0.057171673
0.016983002 -0.015755456 0.008007964 0.020139277 -0.06709686 0.030284107 -0.01989304 -0.00699992
0.061899565 -0.045065515 0.002467692 0.061430704 0.049722284 -0.03117299 -0.044638753 -0.031665377
0.041925482 -0.082402065 0.034717284 0.057964873 0.04770265 0.015346786 0.07790085 0.037667602
-0.040492713 -0.031531762 0.071995154 0.05827605 -0.024246773 -0.0154975355 0.041905493 0.03380879
0.062124424 -0.0062511964 0.023926517 -0.036097944 -0.07168501 -0.07972245 0.013262471 -0.04415804
-0.061356038 -0.023745378 -0.042529415 0.0016170244 0.069972456 -0.0529223 -0.03199772 -0.0046321056
-0.008680671 0.04295847 0.046959154 -0.010146936 0.02310301 -0.010195146 -0.07491484 -0.05833183
0.044608347 0.07366066 0.028378319 -0.00048355263 0.03398497 -0.00033855438 -0.060708545 -0.032737724
-0.061219804 -0.038125716 0.047397695 -0.03742227 0.01621463 0.08237606 -0.050579548 0.08176791
0.0046734414 -0.021264613 0.0746935 -0.014146915 -0.043287516 -0.047320276 0.08150551 0.05406928
-0.012725284 -0.014961839 -0.039144807 0.030521363 -0.024258008 0.037062787 0.016981145 -0.061005395
0.060364448 0.068265885 -0.06459137 0.053490918 -0.054692023 0.06790206 0.03888029 -0.00989456
-0.02859228 0.060948037 -0.0054296753 0.01952374 -0.02569612 0.031035444 0.039723467 -0.028624296
-0.037761908 -0.045667183 0.06984895 0.027309924 -0.03390042 0.072396025 -0.05539187 -0.030403625
-0.030333161 0.055841677 -0.07601881 -0.05657953 -0.06126564 0.037807196 0.061043374 0.072459176
-0.06022092 -0.040490024 -0.058552623 -0.011575839 -0.07086635 0.05577513 -0.028132161 0.036583535
0.032550037 0.06285864 0.008599162 0.050064504 -0.0026386678 0.0032821894 0.077739745 -0.07588114
0.05518193 0.049880456 -0.05997982 -0.00011805694 0.011192381 -0.064278446 0.055672944 0.047474414
-0.022576531 0.040919315 -0.081092976 -0.08269858 0.07698773 -0.07919152 0.03558622 0.08021797
-0.044746142 0.026802838 0.044699084 -0.040031284 0.07709257 0.011205515 0.052348815 -0.041822784
0.024494927 0.029141288 -0.0031094651 -0.05970469 -0.004115681 -0.07058351 0.005582114 -0.03535857
-0.048710585 0.06489965 0.021237534 -0.07177725 -0.029036641 0.024745625 -0.048687648 -0.014381687
0.047902375 -0.0018490454 -0.050398886 -0.002230078 -0.07355341 0.039933145 -0.04515627 -0.017743528

1.w_hh.bias f4 [16]
00000000: f7ad 173d 9fab 70bc ac85 c1bb 6b77 7dbd
00000010: 7e98 3bbd 1d1a 5ebd 1600 99bc 02f0 8a3a
00000020: ac70 8b3c 2961 6fbc a624 97bd 3684 8dbd
00000030: 1085 d3bd eec9 9fbd 7686 6abc fa85 d03c
0.03703114 -0.014689355 -0.0059058275 -0.061881464 -0.045799725 -0.054224122 -0.018676799 0.0010600092
0.0170215 -0.014610567 -0.07380037 -0.06909983 -0.10328114 -0.07802187 -0.014314285 0.02545451

3.weight f4 [100, 1024]
00000000: e472 6f3c 4858 e23b 5c0b 763c 7c58 37bc
00000010: 70b6 703c 145e 0f3c 301d 473c 42c4 d03c
00000020: 4891 b23c 44a4 c4bc 988c f43c a0a3 d93b
00000030: 4054 e2ba da23 a4bc a07f 3fbc d033 cfbc
00000040: f4a8 8d3c e255 d13c c084 fbbc b835 013c
00000050: b858 ed3b 80d5 f63b 2ec8 ae3c d40d 66bc
00000060: e04f 8eba 403f 1e3b 78d3 aabc 9686 d23c
00000070: 22d7 c13c 6837 5ebc 2424 153c 88d5 663c
00000080: a44d 443c 8815 bebc 0414 bf3c 5229 bdbc
00000090: 7c47 debc d415 cc3c 4094 a83b 5031 3ebb
000000a0: 6071 f2ba 80ea 62ba cc82 bebc 90dd 03bc
000000b0: b410 9c3c 88b3 d3bc 46ef f13c 20ac 07bc
000000c0: c2bc 86bc 5a3f b33c 4089 4fbb c07f f2bb
000000d0: e29a f23c a8a7 a43c 0060 c739 ee59 a5bc
000000e0: 386f d0bb c41a 053c 8098 7cbc 8c2e 4e3c
000000f0: 30c3 593b 6051 b4ba e4a4 1cbc 48d8 2a3c
00000100: 7413 64bc 605f 7abc 002b 60b9 0cea 5f3c
00000110: c856 e83c 7a14 c93c ec11 a03c 76e2 fb3c
00000120: 72d8 9c3c b876 a13b b42b fb3c c0f3 353a
00000130: e2b7 db3c e044 f83b 40e8 6cbc 2afe 993c
00000140: 8070 eeb9 8ee9 bc3c f85b ba3c e042 00bc
00000150: d8d8 193c ac1a cdbc c8ea b93c 0ac2 ad3c
00000160: 78b5 cb3b 4a8c a93c 5a81 eebc b614 c53c
00000170: ba51 96bc 2e55 bf3c 807e 21bb 3cba 8a3c
00000180: 809b 9a39 0000 96b4 0255 cb3c 56f3 8bbc
00000190: 8e74 c8bc 4049 093a 60d3 aabb 505a 36bb
000001a0: 24aa 33bc 6834 423c 605b 323c 1c1d 65bc
000001b0: 78bc 4cbc be04 8cbc bca1 843c 583d 8fbb
000001c0: 0e94 d23c 6871 ddbb fc2b 403c 962d f8bc
000001d0: 4675 efbc 50d0 863b 22f4 cbbc 9a5f c7bc
000001e0: 1628 9dbc a09a e33b b0b8 893c 70ac c03c
000001f0: a80e 063c e64b d03c b853 e7bb 74c0 e33c
00000200: 8831 e8bb 5473 623c 0e77 a4bc b834 b43b
00000210: e08e 963a fc50 4ebc d22f f33c 383d 4bbc
00000220: b439 f43c e8d4 943b d0b7 90bb 0c91 dd3c
00000230: 4677 babc d098 aa3c b625 eabc 7093 043c
00000240: 8c22 ff3c e817 163c 0a4b a5bc c830 f5bc
00000250: da27 c7bc e0db 52bc c086 57ba fc15 63bc
00000260: 84be 4b3c 98c6 8ebc d459 a63c 7e1b c2bc
00000270: c039 23bb 90d8 cbbc 34de d53c 70b8 70bb
00000280: ecd9 173c 9cdf f53c 90f1 09bb 708c a8bc
00000290: 0ae4 b5bc 22d3 a6bc 188c fa3b d02f fbbb
000002a0: d81c b5bb 8c39 423c 9ed9 9b3c 56b8 e9bc
000002b0: f6bf b0bc 80a2 463c 9007 893c cce9 b4bc
000002c0: a0ec 7cbb 80da ca3c 402d e23c 3a61 8c3c
000002d0: 9402 21bc a89f ba3b 76d6 a9bc 7678 ba3c
000002e0: c8db fe3b 8efd a6bc 0077 173b 4001 84bc
000002f0: fed2 c13c b8d3 cdbc 70ad e5bb 96de 8c3c
00000300: b4f2 6cbc 30e7 8abc ccaa 74bc 0076 a83b
00000310: 34ef f5bc 2adf 86bc 36bb 98bc a0f5 cabb
00000320: 284e a63c 26f4 8bbc 58cc 46bc 10b7 293c
00000330: 1873 103c f0d6 1bbc a07a c2bb 608b 663c
00000340: 2a83 91bc 2438 603c b0d5 cdbb 1e2a b4bc
00000350: f870 c8bb 7cdd 8b3c 2c7c 4ebc e800 07bc
00000360: 8064 a0ba 5a89 a13c beb2 fdbc a89c df3b
00000370: 3034 92bc d8c1 f6bc e44d 4f3c e053 e7bb
00000380: 861a 80bc d6ea 92bc cea1 983c 3041 053b
00000390: e8b0 a73b 70f0 bcbb 7027 7d3b 38c0 46bc
000003a0: d057 72bc 2a22 aebc c0a8 babc 3889 f0bc
000003b0: 702a 843c c017 5abb 60f6 803a da87 fb3c
000003c0: 0c1b 5f3c f4b2 293c f8b3 c63b 7cc7 f0bc
000003d0: 7014 31bb 349f e33c 0852 b6bb 2862 71bc
000003e0: ce4d d43c 6e7f d23c 1e31 dfbc 80b5 183c
000003f0: f89e 83bb 96a9 e73c c4af ea3c dae4 a8bc
0.014614794 0.0069074966 0.015017357 -0.01119053 0.014691934 0.008750457 0.012152955 0.025484208
0.021797791 -0.02400411 0.029852197 0.00664182 -0.001726754 -0.020036627 -0.011688143 -0.02529326
0.017292477 0.025553647 -0.030702949 0.007886343 0.007243242 0.0075327754 0.021335687 -0.014041383
-0.0010857545 0.0024146587 -0.02085279 0.025698941 0.023662154 -0.013563015 0.009102855 0.014088996
0.011981402 -0.023203626 0.023324974 -0.023090992 -0.027133696 0.024912752 0.005144626 -0.0029021092
-0.0018496923 -0.0008656159 -0.023255728 -0.00804843 0.019050933 -0.025842443 0.02953304 -0.008280784
-0.016447429 0.021880794 -0.00316675 -0.007400483 0.02961487 0.020099476 0.00038027763 -0.020184483
-0.0063609146 0.008124057 -0.015417218 0.01258434 0.0033227913 -0.0013757162 -0.009560797 0.010427542
-0.013920654 -0.015281528 -0.00021378323 0.013666641 0.028361693 0.024545897 0.019539796 0.030747633
0.019146178 0.0049274825 0.030660488 0.00069409236 0.02682108 0.00757657 -0.01445967 0.018797953
-0.00045478716 0.023060586 0.022748932 -0.007828444 0.0093900785 -0.025037132 0.02269496 0.02121069
0.006216701 0.020696778 -0.029114414 0.024057727 -0.018349517 0.023356047 -0.002464205 0.016934507
0.00029489025 -2.7939677e-07 0.024820808 -0.017083805 -0.02446964 0.00052370504 -0.005213186 -0.0027824827
-0.010965858 0.011853315 0.010886043 -0.013983991 -0.012496106 -0.017092105 0.016190402 -0.0043713264
0.025705364 -0.006757904 0.011729237 -0.030295175 -0.029230725 0.0041141883 -0.024896685 -0.024337579
-0.019184154 0.006945923 0.016811699 0.023519725 0.008182205 0.025426816 -0.0070595406 0.02780173
-0.0070859827 0.013821442 -0.020076301 0.0054994486 0.0011486672 -0.01259255 0.029685888 -0.012404732
0.029812671 0.004541982 -0.0044164434 0.027046703 -0.022761952 0.02082482 -0.028582435 0.008091792
0.031144403 0.009160973 -0.020177383 -0.029930487 -0.024310995 -0.012869805 -0.00082216784 -0.013860222
0.012435559 -0.017428681 0.020306505 -0.02369475 -0.0024906248 -0.024883538 0.026106931 -0.0036731027
0.009268265 0.030013852 -0.0021048523 -0.020574778 -0.022203464 -0.020364348 0.007646095 -0.007665612
-0.00552712 0.011854541 0.019024666 -0.028530281 -0.02157591 0.012123704 0.016727239 -0.02208414
-0.0038593188 0.024762392 0.027609468 0.017136205 -0.009827275 0.005695302 -0.020732146 0.022762518
0.007777665 -0.020384576 0.00231117 -0.016113877 0.02366018 -0.02512537 -0.0070092008 0.017195981
-0.014462162 -0.016955942 -0.014933299 0.00514102 -0.030021288 -0.016463835 -0.018643957 -0.0061938316
0.02030094 -0.017084192 -0.01213368 0.010358587 0.008816503 -0.009511694 -0.005935028 0.0140713155
-0.01776274 0.01368526 -0.006281577 -0.02199274 -0.0061169825 0.017073385 -0.012602847 -0.008239962
-0.0012236983 0.019718815 -0.03096902 0.006824095 -0.01784715 -0.030121729 0.012652848 -0.007059559
-0.015637647 -0.017934244 0.018631842 0.0020333044 0.0051175244 -0.005765967 0.0038628243 -0.012130789
-0.014791444 -0.021256525 -0.022785544 -0.029362306 0.016133517 -0.0033278316 0.000983905 0.030704428
0.013617288 0.010357607 0.0060639344 -0.029391997 -0.0027020238 0.027785875 -0.005563978 -0.014732875
0.025916006 0.025695529 -0.0272451 0.009320617 -0.0040167533 0.028279107 0.028648265 -0.020616937

3.bias f4 [100]
00000000: 99e8 683b 4d4e 103b 8cae 9fbb f9ac 493b
00000010: a76f bab8 f840 863b 3af4 7f3b 7f5b 8a3b
00000020: 7a3a 733b 8831 6ebb ade1 8dbb dccc bbba
00000030: de18 00bb e6fc 46bb 1227 7cbb 6d97 7ebb
00000040: afdf 633b 4dbf 353b d49e 75ba 2a0f 8c3b
00000050: bc56 01bb 3fec 8bbb 69aa 863b f68c 783b
00000060: 124f e03a 9635 f73a 76d2 963b 7427 0339
00000070: aee4 93bb 69f8 853b 54df 1e3b bcae 883b
00000080: 6d15 88bb 0624 8cbb b6f5 9c3b 499c 84bb
00000090: 05bd 8aba b217 8e3b 6b04 553b 4043 65bb
000000a0: 72f9 783b de86 8dbb c26b 20bb 988b c33a
000000b0: 5b8e 613b 83ee d5b9 aca4 093b edf0 87bb
000000c0: cd17 82bb d684 4b3b a812 303b 2564 c1ba
000000d0: c1da 27bb d31e 6abb bae3 26bb b00c 873b
000000e0: 2660 8cbb 8d28 9939 dbf4 8d3b 2c08 73bb
000000f0: a678 873b 9abe 77bb 55fb 8bbb debc 703b
00000100: 67dc 4b3b be64 92bb 10b2 593b 690c 373b
00000110: 0ef3 903b 4e0d 8b3b b13c 483a c7d4 66bb
00000120: 73f4 afbc 822a 92bb 78f7 483b 9d8f 83bb
00000130: 036f 9abb bb74 80bb 4a92 95bb 45b5 333b
00000140: 0b5b 58bb 47a1 18bb 0109 82bb 5219 80bb
00000150: cce2 8c3b 5eb8 863a f8b1 26bb f68e 86bb
00000160: 52b8 8c3b 391b 7f3b 3e02 6dbb ab55 853b
00000170: cf0b 693b e3ce 833b 5af3 6139 0a30 61bb
00000180: 7f41 35bb 647b 873b 9a53 0e3a 5fe0 86bb
0.003553903 0.0022019327 -0.0048731025 0.0030773266 -8.889968e-05 0.0040971003 0.0039055482 0.004222333
0.0037113712 -0.003634544 -0.004329881 -0.0014328021 -0.0019546072 -0.0030363142 -0.0038475436 -0.003884758
0.0034770777 0.0027732432 -0.00093696755 0.0042742686 -0.0019735536 -0.004270106 0.00410967 0.0037925816
0.0017113409 0.0018860574 0.0046027256 0.00012507831 -0.0045133447 0.0040884507 0.0024242 0.0041712206
-0.004152945 -0.0042767553 0.004790033 -0.004046951 -0.0010584897 0.004336321 0.0032503854 -0.003498271
0.0037990478 -0.004319056 -0.002447829 0.0014918922 0.0034417126 -0.0004080423 0.0021002693 -0.0041485936
-0.0039701224 0.0031054518 0.0026866589 -0.0014754577 -0.0025612565 -0.003572394 -0.0025465325 0.0041213855
-0.0042839227 0.00029212647 0.0043321676 -0.0037083728 0.0041342555 -0.0037802816 -0.0042719045 0.0036733667
0.0031106712 -0.004467576 0.0033217706 0.002793098 0.0044235056 0.0042435294 0.0007638438 -0.003522204
-0.021478867 -0.0044606337 0.003066508 -0.004014923 -0.0047129407 -0.0039201654 -0.004564558 0.0027421277
-0.003301325 -0.0023289488 -0.0039683585 -0.0039092684 0.004299497 0.0010278334 -0.0025435667 -0.0041063977
0.0042944336 0.0038926138 -0.0036164667 0.0040690503 0.0035560017 0.0040224656 0.00021548328 -0.003436091
-0.0027657447 0.0041345824 0.0005429328 -0.0041161026

5.weight f4 [10, 100]
00000000: b2da fd3c a80f a53a bf73 60bc 493f e13c
00000010: fde7 1cbc 3b65 c53c 7b63 323b e548 573d
00000020: 8a89 2c3c 5238 80bc dca0 673a 2a7b c0bb
00000030: 364d 1abc fb39 b2bb a9bc c2bc fe47 2cbc
00000040: fee5 db3b 36b1 383c 1230 63bc b31e 2f3d
00000050: 97f9 f13b 163f dc39 52bf 203d e06d dd3c
00000060: 9a33 4f3c 2251 d43c ba5b 9d3c f07e d03c
00000070: cc58 c339 b6ec 743d 1415 78bb 86bc 433c
00000080: b6f3 0dbd 7fca a23a 0fe3 353d 97c5 27bb
00000090: 71e7 0fbd b8bc 29ba 9991 163d ed8b 1fbd
000000a0: f825 aa3c 5517 ffbc 9d6b 13bd 7749 b93c
000000b0: 0f6e 223c 1d0d edbc b88b e73c 4591 06bd
000000c0: e571 8abc 7aab b13c 6e1a 7f3c b4a5 20bd
000000d0: a325 0cbd 1d9c ecbc b46a f0bc cbf8 f53c
000000e0: 9c95 12bd 71a2 bbbc 9ef7 b5ba 73cc b8bb
000000f0: eccd 933c 6766 dfbc b748 75bc 0cf3 1cbc
00000100: 7772 503c aed3 94bc 3066 0c3d e7dc 6a3c
00000110: 3765 c3bb cb57 813c 8ae8 153c 2c34 b4bc
00000120: 5d67 e1bd bb35 bfbc f806 d2bb 5a7c aabc
00000130: 2264 53bd b924 1f3c 5c65 42bd e804 9abb
00000140: 3f72 d2bb 0328 23bc f4ac 6bbb 370e 2cbd
00000150: 93e5 c23c 0fae f9bb cd44 ffbc 773b 21bc
00000160: 5055 4b3d 32df 813b f338 66bd 3eda af3c
00000170: 20ea 8bba 1aa0 093d d0fd 9cbc 4e22 04bd
00000180: 36a2 efbc dbc0 2e3c c38b c93a 32f5 1dbd
00000190: 8fbd 2e3c 07c1 acbc 9c04 1e3c 6ec0 cd3b
000001a0: 78c9 0abc fb21 f63b 0d34 8fbc 7c8b 0d3d
000001b0: 7939 f4bb 8106 363a 94b4 993c bbfd 833c
000001c0: 93fb 6bb9 9a58 233c 67ff 81bb e151 f53b
000001d0: 3442 1cbc 8e44 b6ba b792 0f3b d8aa c93c
000001e0: 900d 053d 78ad 8c3c 3e9d aa3c f056 263c
000001f0: 65c9 ae3b 4ebf cc3b 208b b2b9 b4d0 243c
00000200: 84e5 ba3c 98a9 2a3d ffbc 6abc 8f52 1fbc
00000210: 701c 91bc 7401 9c3c b7a7 c33c 9cac 893c
00000220: f2f4 f2bc 4d64 99bc 3f42 823c 6ca3 b2bc
00000230: 0ec4 0fba faa5 57bc 94e1 cfbc eb4c 6a3c
00000240: 1f1f a0bb 21f9 33bc 3edc 4d3a cd5b 69bc
00000250: 2ce3 52ba 50a0 5fb8 8949 43bb d8d0 e0bb
00000260: 727e 83bc f873 e1bb da2f 3dbc c917 453c
00000270: c27c 6fbc b646 a7bc 727a 02bd 3dda 763c
00000280: 3e4e 8f39 af26 07bc b65c 593b e955 d5bc
00000290: 555e 29bb bff8 ac3a f88c 933c af24 0dbc
000002a0: cc48 ccbc f541 29bb dd8a f73b ebb2 a4bb
000002b0: 7f63 d43c 4f0a 58bb f1fd dabc 95ed 06bb
000002c0: af7a 03bd 0d42 ed3c b1f7 d3bc 569a 03bd
000002d0: d1be 3c3c 794f 673c ad19 7b3c 75aa 6fbc
000002e0: 010d cf3b 178d efbc ab2e aabc df35 bb3b
000002f0: 3df4 ff3c 4b6f 71bc 6680 23bd b420 553b
00000300: eda5 8dbc 8e03 5b3c 73b6 d3bc c5d2 82bc
00000310: f917 77bc d132 c5bb 26e8 81bc fa17 a8bc
00000320: e5b4 763b a447 b3bc 724a 803c 4c58 c439
00000330: 5bc8 11bb 2589 7c39 c32f c3bc 539c d23c
00000340: f52a 92bc 217a 333c b7cc de3c 4a55 253c
00000350: 952f 183c 5536 7e3c 6886 443b 87e1 963c
00000360: 61e6 a9bc c303 43bc 4a65 623c 2ca3 8b3c
00000370: e02d e93c 6686 e93c 44d0 5f3c f7f0 85ba
00000380: bd37 6fbb cd0a c43a 0130 38bc a7b8 8c3c
00000390: 3e3b ee3c 4da9 0e3d 220f d7bc 2b33 b4bc
000003a0: 40b6 d4bb 0548 e53c 9fdf 5a3c d9bf c03c
000003b0: 4548 c0bc bc9b e5bc 7421 c33b fc58 5ebc
000003c0: 7716 ccbb 66e9 82bb 3112 55bc 5959 0b3d
000003d0: 7b05 7abc ca41 4dbc 8b61 0bbc 9f08 06bc
000003e0: d687 273c b496 93bb f02a 50bc f3ee ef3b
000003f0: f31a 43bc 5875 0a3b 4816 81b9 86f1 173b
0.030988071 0.0012593167 -0.013699471 0.027495997 -0.009576795 0.024096122 0.002721994 0.052559752
0.010530839 -0.015651856 0.00088359206 -0.0058740573 -0.009417823 -0.0054390407 -0.0237716 -0.010515211
0.006710767 0.011272719 -0.013866441 0.042753886 0.0073844898 0.00042008673 0.039244957 0.027029932
0.01264658 0.025917593 0.019208778 0.025451154 0.00037259457 0.059796058 -0.003785436 0.011946803
-0.03465625 0.0012419968 0.044405993 -0.002559995 -0.03513283 -0.00064749597 0.036759946 -0.038951803
0.020770058 -0.031139055 -0.0359913 0.022618039 0.009913935 -0.028936917 0.028264865 -0.032853384
-0.016900012 0.021688212 0.015570266 -0.039220527 -0.03421558 -0.028883034 -0.029347755 0.03002586
-0.03578721 -0.022904607 -0.0013883 -0.0056396066 0.018042527 -0.027270509 -0.01497095 -0.009579431
0.012722603 -0.018167343 0.03427714 0.014334894 -0.0059629935 0.015788933 0.00914968 -0.021997534
-0.11006043 -0.02334105 -0.006409522 -0.020811249 -0.051609166 0.009713345 -0.047459945 -0.004700292
-0.0064223106 -0.00995827 -0.0035961242 -0.042005744 0.02379111 -0.0076196264 -0.031160736 -0.009840838
0.049641907 0.0039633745 -0.056206655 0.02146637 -0.0010674633 0.03359995 -0.019163996 -0.032259278
-0.029252153 0.0106660975 0.0015376735 -0.038563915 0.0106653115 -0.021088136 0.009644654 0.006279043
-0.008470885 0.007511375 -0.017480874 0.03455685 -0.0074531403 0.0006943718 0.018762864 0.016112199
-0.00022505065 0.009969855 -0.003967214 0.0074865674 -0.009537268 -0.0013905929 0.0021907517 0.024617597
0.032483637 0.01717256 0.020826932 0.010152563 0.0053340667 0.0062483912 -0.00034054462 0.010059524
0.02281452 0.041665643 -0.014327287 -0.009724273 -0.017713755 0.019043662 0.023883684 0.01680594
-0.029657815 -0.018724585 0.01590073 -0.021806441 -0.00054842315 -0.0131621305 -0.025376119 0.014300565
-0.0048865224 -0.01098469 0.0007852948 -0.014243078 -0.00080447155 -5.3316646e-05 -0.002979847 -0.0068608336
-0.016051505 -0.0068802796 -0.011547053 0.012029597 -0.014617147 -0.02041946 -0.031855054 0.0150666805
0.0002733338 -0.008248969 0.0033166832 -0.026041942 -0.002584358 0.0013196691 0.018011555 -0.008614703
-0.024937056 -0.0025826667 0.0075543956 -0.0050262115 0.02592635 -0.0032965129 -0.026732417 -0.0020588387
-0.032099422 0.02896216 -0.025874944 -0.032129608 0.011520104 0.014118069 0.015325946 -0.0146280425
0.006318689 -0.029242082 -0.020774206 0.005713209 0.031244392 -0.014736007 -0.039917372 0.0032520713
-0.017291034 0.013367547 -0.025843835 -0.015969643 -0.015081399 -0.0060180207 -0.015857767 -0.020519245
0.0037644443 -0.021884747 0.015660498 0.0003744982 -0.0022244665 0.00024083683 -0.023826485 0.025709307
-0.01784275 0.010954411 0.027197225 0.010091135 0.009288688 0.015515883 0.002998734 0.018418087
-0.020739736 -0.011902752 0.0138180945 0.01704558 0.028464258 0.028506469 0.013660494 -0.0010218908
-0.0036501728 0.0014956832 -0.011241914 0.017177893 0.029080983 0.034829427 -0.026252333 -0.021997055
-0.0064914525 0.027988443 0.0133589795 0.02352898 -0.02347196 -0.028028361 0.0059549157 -0.01357102
-0.006228264 -0.0039951084 -0.013004825 0.034020755 -0.015260096 -0.012527892 -0.008507143 -0.008180766
0.010225257 -0.004504049 -0.01270555 0.007322186 -0.011908281 0.0021127071 -0.00024621398 0.002318473

5.bias f4 [10]
00000000: d139 d53c d427 033c f7e7 4c3c 31c9 b2bc
00000010: 60df e03c dfe7 6fbc 8aa1 d1bc 40b8 143d
00000020: 8847 38ba 89da 0b3c
0.026028546 0.008005101 0.012506477 -0.021824451 0.027450264 -0.014642685 -0.025589723 0.036308527
-0.0007029702 0.00853599
