tutorial/NICE2024/logs/fsdd_cs/net.pt (torch, 433856 bytes, 10 tensors)

0.w_ih.weight f4 [8, 1, 3, 3]
000000 3b 15 3a 3e d6 ce 0e 3c db d3 e2 bd 13 83 82 3c
       0.18172161 0.008716306 -0.110755645 0.015931642
000010 d2 d3 d7 bc f1 e2 9c 3e e6 a7 28 3e ab 45 64 bd
       -0.026346121 0.30641893 0.16470298 -0.055730503
000020 3b f4 ac bd 4b 9d cd bd d0 39 fd bd fc 9e 9d 3e
       -0.08445021 -0.10039767 -0.123645425 0.30785358
000030 73 1b 85 be 74 e3 a4 be 7f 68 34 3d 26 5e 2b 3e
       -0.25997505 -0.32204783 0.044044968 0.16735134
000040 86 63 9a 3e 56 1e a1 bd c2 9a 99 be 6a d5 8f be
       0.30154055 -0.07867114 -0.30000883 -0.2809251
000050 23 ca 13 be 10 87 8f 3d ed 99 04 be 88 3c 85 be
       -0.14432578 0.07008183 -0.12949343 -0.26022744
000060 3b 87 ba bd 26 c5 48 3e f6 0b 4f 3d 10 49 7a be
       -0.091078244 0.19606456 0.050548516 -0.24441934
000070 a8 77 48 be 2b 7f a5 3d 5e 0e 8b 3d 2c 5d 68 3d
       -0.19576895 0.08080896 0.0678985 0.05672948
000080 24 24 84 3d 4c 3a a2 be 16 fe c8 bd 90 f3 67 be
       0.06452206 -0.31685102 -0.09814088 -0.22651505
000090 9b 38 47 3e c0 76 92 bc fe 08 8d be 94 25 25 3e
       0.19455187 -0.01787889 -0.27545923 0.16127616
0000a0 69 27 0f 3d 74 04 59 3e 1e ce 45 3e 80 dd dd 3d
       0.034949694 0.21193105 0.19316909 0.108332634
0000b0 2b c2 44 bd e6 cb 5b 3e 73 df 86 be 83 0a 5c 3e
       -0.048036736 0.214645 -0.26342353 0.21488385
0000c0 a5 56 09 be 94 1d a2 3e ef 78 66 3e 63 28 71 3e
       -0.13411959 0.3166319 0.2250707 0.23550563
0000d0 c2 48 88 3e 8f 5d 8f 3e 60 95 78 3d 16 64 ab bd
       0.2661801 0.28001067 0.06068933 -0.08368699
0000e0 b6 3f ff 3d 7a b3 13 3d d9 cc 91 3d 0c f8 ce 3d
       0.12463324 0.036059834 0.0711915 0.10105905
0000f0 a6 f5 9a 3e 56 e5 c4 bb 0f c1 99 be 94 52 8a 3e
       0.3026554 -0.0060087843 -0.30030105 0.27016127
000100 7b 2f 9e bd bb fb 85 3d 4a 5e c1 bd 65 d8 46 be
       -0.077239 0.065421544 -0.09441812 -0.19418485
000110 b6 1b 1a be d6 6a c9 bc 06 61 c0 3d 26 92 5e 3e
       -0.15049633 -0.024587076 0.09393506 0.21735439

0.w_hh.weight f4 [8, 8, 3, 3]
000000 98 fa 8d 3d 42 90 2a 3c 31 fa 5b 3d 15 d7 df 3d
       0.069325626 0.01041037 0.053705398 0.109296955
000010 88 2b e3 3d 4c 75 bf bd cf 0d be 3d 3a 22 94 3c
       0.11092287 -0.093485445 0.092799775 0.018082727
000020 a1 78 47 3d d2 e2 4b 3d 64 55 01 bc 24 96 d0 3c
       0.048699025 0.04977686 -0.007893894 0.025462218
000030 46 f3 14 be 6c 34 0e be cf 62 65 3d 16 62 e1 3d
       -0.14545926 -0.13887185 0.056002434 0.110050365
000040 72 23 36 bc 75 09 43 3d f8 7f 90 bc e9 01 0f 3d
       -0.011116849 0.04761644 -0.017639145 0.03491393
000050 5c d7 ab 3d 6b aa a2 bd a0 60 b0 3c 58 e9 80 bc
       0.08390686 -0.07942661 0.02153045 -0.015736267
000060 ab bb 06 bc ce ce c9 bd 9b 4c b6 bd ff 2c 8f bc
       -0.0082234545 -0.09853898 -0.0890133 -0.01747751
000070 7b 3d 7e bd cb a0 bc 39 28 d5 45 bb e3 ce 81 3d
       -0.06207035 0.00035977954 -0.0030186865 0.06338289
000080 2c d1 63 3d 23 6e 14 bd a8 c8 b2 bd ef bd a1 bb
       0.055619404 -0.036237847 -0.087296784 -0.004935972
000090 46 4f 30 bc 0f 8b 08 3c f1 40 c9 3d 72 18 26 3e
       -0.010761088 0.008333935 0.0982684 0.16220263
0000a0 fc a8 9c 3b 33 aa fe 3b a8 76 47 bc b6 cb 6f bd
       0.0047808867 0.007771754 -0.012174286 -0.058543883
0000b0 5f a1 8c 3c 6f 1f c1 3c 4e 7a be bd 49 8e e7 bd
       0.017166791 0.023574559 -0.093006715 -0.113064356
0000c0 41 7c 07 bd 71 c8 a4 3d 61 34 13 3e 97 97 b0 bd
       -0.033077482 0.08046044 0.1437545 -0.086226635
0000d0 e3 6d 86 bc 1e 9f d9 3c 4b 34 89 bc 40 95 45 3d
       -0.01640982 0.02656513 -0.016748568 0.04823804
0000e0 0d e5 df 3d 1d d2 13 3d 93 de 00 bd 69 e7 9d bd
       0.1093236 0.03608905 -0.031462263 -0.077101536
0000f0 0e cd d5 bd be 4b 31 bd ef 00 a2 bc e3 48 d6 bd
       -0.10439502 -0.043285124 -0.019775836 -0.10463121
000100 e9 fb a9 3c ee 3c 6d 3b ce f9 d3 3d 5c d9 90 bd
       0.020750003 0.0036199647 0.10350381 -0.07072708
000110 4d da 63 bd 69 25 a0 bd 7e 19 4d bd 59 cc a4 bb
       -0.05562811 -0.078196354 -0.05007314 -0.005029243
000120 d5 ed 82 bc b2 ac 6c bd 75 52 a6 bd 69 2c 0d 3d
       -0.015982548 -0.057781883 -0.08121196 0.03446618
000130 fb 54 eb bd df 4b 8f bd 06 3d 7d 3d a0 56 cc bd
       -0.11490818 -0.06996893 0.061825775 -0.0997746
000140 bb 01 de 3d b6 0f e9 3d fc ac c0 3d 43 a0 ad 3a
       0.10840174 0.1137995 0.09407994 0.0013246614
000150 2c c7 ad bc a4 e2 a8 bc 49 ac 23 3d fe ca b8 bd
       -0.021213137 -0.020615883 0.039959226 -0.09023093
000160 b9 17 30 bd 8c 69 0a 3d e2 72 96 3d 95 5b af 3d
       -0.042991374 0.033792064 0.07346131 0.0856239
000170 82 da 97 bd af 6d 98 3d f1 f1 cd bd 9c ac 13 3d
       -0.07414724 0.074427955 -0.10055912 0.036053285
000180 a7 86 e2 bb 31 d5 ad bd f7 39 4f bd 18 73 a2 3d
       -0.0069130245 -0.08487929 -0.05059239 0.07932109
000190 c9 23 74 bd 28 de 88 3d 6f e6 5e bc 5e 34 8f bd
       -0.05960444 0.06682998 -0.013604744 -0.0699241
0001a0 69 f2 b2 bd 97 6e e9 3d 1e a4 7e 3d b1 53 21 bd
       -0.08737642 0.113980465 0.062168233 -0.039386455
0001b0 fb 61 97 3d c3 86 a3 bd 7a 88 ef 3c a6 28 5e be
       0.07391735 -0.07984688 0.029239882 -0.21695194
0001c0 90 bb 7d be 5e 46 72 be 96 ec ad 3d 33 ba 40 bd
       -0.2477858 -0.23659655 0.08492391 -0.047052573
0001d0 1e f9 32 bd ca d9 d7 3d 2b d5 d3 3c 30 26 9b bb
       -0.043694608 0.10539587 0.025858482 -0.004734777
0001e0 1c fd b0 bc 67 24 fa bd c4 85 65 bd d2 2c c6 3d
       -0.021605067 -0.122139744 -0.056035772 0.096765175
0001f0 e1 49 ea bd df dc bd bc 6a 14 a2 bd 6e 1d 63 bd
       -0.114398725 -0.023176609 -0.0791405 -0.05544799
000200 2b cc 95 3b 54 d9 12 3d 3d 9a 0d 3d e2 a4 ef bc
       0.004571458 0.03585179 0.03457092 -0.029253427
000210 68 3d 38 bd 47 34 af 3d 6b c8 98 3d 4e 72 f6 3c
       -0.044980437 0.08554893 0.07460102 0.030083802
000220 43 1f 58 bd 0f b3 db 3d 9a af ed 3d 0e e3 fd 3c
       -0.05276419 0.10727512 0.11605759 0.030992057
000230 26 99 96 3d 73 5c ee 3d 82 fc 9e 3c a3 2c c6 3d
       0.073534295 0.11638727 0.019407514 0.096764825
000240 84 12 d3 bd 19 20 dd bd 07 f6 50 bd 4b 5f 3a be
       -0.10306266 -0.10797138 -0.05101588 -0.18200414
000250 0c 3f 39 be f8 7e fc bd 4b cb 84 3d 4b 08 12 3d
       -0.18090457 -0.12328905 0.064840876 0.03565244
000260 04 6f 5f 3d 77 34 f7 bc 74 40 dd bd 0f 57 56 3d
       0.054549232 -0.030176384 -0.10803309 0.05232912
000270 37 c4 5f bc fa 62 cd 3d f4 51 92 bd 75 b4 b7 bd
       -0.013657621 0.10028644 -0.071445376 -0.08969966
000280 c8 d8 4d bd 9e 90 c9 bc 2d ca 4a 3d ed af 28 3d
       -0.050255567 -0.024605092 0.049509216 0.0411834
000290 b5 2c d9 bd 01 1e df 3c 9d 5b a4 3c 52 36 f2 bc
       -0.1060423 0.027235987 0.020063216 -0.029566918
0002a0 b6 bd 6c 3c 2e 03 56 3d eb a6 86 bd ff 79 9c bd
       0.0144495275 0.052249126 -0.06574806 -0.076404564
0002b0 61 e8 8d 3d 24 4b ac 3c 34 6b 60 bd e2 3a 43 3c
       0.069290884 0.021031924 -0.054789737 0.011915894
0002c0 bf d1 eb bd 2d c6 54 3d 90 14 9c 3d c5 9d 5d bb
       -0.11514615 0.051946808 0.076211095 -0.0033815962
0002d0 12 df c3 bd 45 6f c0 bd 30 67 1e bd 18 7c 53 bd
       -0.09564032 -0.09396223 -0.038672626 -0.051632017
0002e0 fb d8 b6 bd e6 be 15 be 1e a8 8d bc 81 d2 da 3c
       -0.089281045 -0.14623603 -0.017292079 0.026711704
0002f0 1d 22 ee bd 4d 16 c1 bd d5 96 f3 bc 59 67 38 3d
       -0.116276 -0.09428082 -0.029735008 0.045020435
000300 f4 95 f3 bd 69 e9 35 be 51 ec 4f bd 11 db 47 bc
       -0.11893836 -0.1776482 -0.05076248 -0.012198226
000310 75 9b d2 3d f2 ca b7 3c 15 c2 ac 3c 7e a5 2d bd
       0.10283557 0.022435639 0.02108864 -0.042394154
000320 02 52 9b bd 36 e8 a5 3c 67 c8 33 bd 8c bb 34 be
       -0.07584001 0.020252328 -0.04389229 -0.17649668
000330 45 aa a8 bc 95 01 9b 3d 11 01 b8 bc fa 7b 4f bd
       -0.020589003 0.07568661 -0.022461446 -0.050655343
000340 57 23 db bd e4 9c e0 3c df 11 71 3d 50 6f e2 3c
       -0.107001 0.027418561 0.058854934 0.027640969
000350 4f 4d 78 3d 78 2d db bd 98 60 35 bd 24 13 98 3d
       0.060620602 -0.10702032 -0.044281572 0.07425526
000360 1b 25 e5 ba 78 8e 97 3d a8 cc d5 bc 92 6e a6 3d
       -0.0017482372 0.07400221 -0.026098564 0.08126558
000370 29 13 a2 3d 34 6e 90 3c 3a 28 ba 3c 24 72 e2 bd
       0.07913811 0.017630674 0.02272426 -0.11056927
000380 df 18 e4 bd b9 bc c3 3d 6d 51 91 bd d9 54 ea 3d
       -0.11137556 0.0955748 -0.07095609 0.11441965
000390 80 ac 87 3d 40 c0 32 3d d1 c0 cf bd a6 2b 5f 3d
       0.06624699 0.043640375 -0.10144199 0.054484986
0003a0 3c cc 8a 3b 75 c0 e8 3d 4b 87 0b 3d f7 6a 8c 3d
       0.0042357724 0.11364833 0.034064572 0.068563394
0003b0 56 0c b8 3d 1c a8 2b bd 35 81 aa b9 14 5e 9b bd
       0.08986728 -0.04190837 -0.00032521193 -0.07586303
0003c0 15 ad 21 bd fe 68 b6 bd c1 09 21 bd c7 bf 8d bc
       -0.039471705 -0.089067444 -0.039315943 -0.01730336
0003d0 c9 ed 7d bd de 46 69 bd 47 21 d1 bd d4 49 6e 3d
       -0.061994348 -0.05695235 -0.10211425 0.058175877
0003e0 33 a0 54 3d 87 fd ec bd 19 02 e2 3d 0c 4c 8c bd
       0.05191059 -0.11571794 0.11035556 -0.06850442
0003f0 03 ef e3 bc 72 dd 1b bd 9c 6e d4 bc 16 78 1d 3e
       -0.02782393 -0.038052984 -0.025931649 0.1537784

0.w_hh.bias f4 [8]
000000 34 3a c1 bd 5e 1a 12 3e d4 5f 08 3c 6a 80 9e bd
       -0.094349295 0.14267871 0.008323628 -0.07739337
000010 ee 97 ab bd 1a 7f b4 bd 5e dc 91 bd f5 ae 8e 3d
       -0.08378588 -0.08813305 -0.0712211 0.06966964

1.w_ih.weight f4 [16, 8, 3, 3]
000000 df 8d 8b 3d 71 82 2c bd 13 26 39 bb 43 c3 2a 3e
       0.06814169 -0.042116586 -0.0028251454 0.16676049
000010 61 15 a8 3b 27 40 08 3e 6d c3 b4 ba fd 49 aa 3c
       0.0051295017 0.13305722 -0.0013791152 0.020787233
000020 6d 87 85 3a db 7b a4 3b 73 ad 52 3d b8 c2 fa bc
       0.0010187455 0.0050196475 0.051434945 -0.030610427
000030 fd bd ba 3c fe 63 ec bd 85 2c d6 3d df bf bc 3d
       0.022795672 -0.115425095 0.1045771 0.09216284
000040 37 8e ef bd 4f 25 d8 3d 98 78 22 bd 30 bb ab bb
       -0.11697047 0.10553991 -0.03966579 -0.0052408203
000050 63 24 d1 bc 69 8e 3a bd 6b 09 5e bd 39 bb 22 bd
       -0.025530046 -0.04554597 -0.0542082 -0.03972933
000060 da 38 a2 3d fb 9d 73 bd d1 44 cd 3d d0 ab d8 bd
       0.07921 -0.059476834 0.10022891 -0.10579646
000070 5a b2 a9 3d 8c 8f e0 bb e0 99 bf 3c 36 3e f4 3d
       0.08285971 -0.0068530496 0.023388803 0.11925928
000080 0c f9 e6 3d 69 ef ea bd d9 5b a3 bd 3b c4 3f bd
       0.11277971 -0.11471445 -0.07976503 -0.046818
000090 3b e1 f5 3b c5 ce 4a bd 39 20 e8 3d dd 45 bf 3c
       0.007503656 -0.049513597 0.11334271 0.023348743
0000a0 b5 28 1e bd 2e dd 0d bd d5 47 ac 3d 89 11 07 3d
       -0.03861304 -0.03463476 0.084121384 0.032975707
0000b0 a3 90 1b bd 2d 62 07 3d 16 91 56 bd 91 df 86 3d
       -0.037979733 0.033052612 -0.05238446 0.06585611
0000c0 af d1 40 3c 70 1c 68 bd b8 80 34 3d ff 2a 90 bc
       0.011768742 -0.056667745 0.04406807 -0.017598627
0000d0 82 94 9d 3d 9f 31 f0 3c 74 51 14 bc ad 14 4d bc
       0.07694341 0.029320536 -0.009052623 -0.0125171365
0000e0 7b cb b9 bd 2a f5 e7 bc 04 b3 a0 3d c1 ec 48 3d
       -0.09072014 -0.028315146 0.078466445 0.04905391
0000f0 ee 3f 6b 3d 0c 2f 16 3b 42 c1 c9 bc 93 57 e4 3a
       0.057434015 0.0022916226 -0.024628285 0.0017421119
000100 64 35 28 3b 5e a7 68 bb f4 e7 6c bd 38 32 91 3d
       0.002566659 -0.003550015 -0.057838395 0.070896566
000110 be f8 55 bd f6 9d 4f bd a2 85 6f bd ed 10 7a bd
       -0.052239172 -0.050687753 -0.05847705 -0.061051298
000120 ef 9e b6 3d aa 11 ed 3d 09 f9 28 3d 1f c0 d0 3d
       0.08917033 0.11575635 0.041253123 0.10192894
000130 a5 a6 bf 3c 61 e4 64 bd b5 5c 05 bc 92 1f 0c 3d
       0.023394892 -0.05588186 -0.008139779 0.034209795
000140 3e 18 10 bd 4c 62 c7 3c 69 9f 66 3d 7e 6b e7 3d
       -0.03517937 0.024338864 0.05630437 0.112997994
000150 a6 e0 93 3d 12 71 27 bd e9 61 8f 3c da 65 65 3d
       0.07220583 -0.040879317 0.017502742 0.056005336
000160 0a ee e0 3d de 56 bd 3d c9 38 9d bc eb 84 82 3c
       0.10982902 0.09245084 -0.019192116 0.01593252
000170 50 3e 79 bc 95 69 75 bd df df 70 3d 42 cc 86 3d
       -0.01521261 -0.059915144 0.05880725 0.06581928
000180 c4 c2 bc 3c 13 c4 b5 3c a6 3a 9b bd f2 2c ca bd
       0.02304209 0.022188222 -0.07579546 -0.09871854
000190 32 4b 87 3d c8 80 5e 3d 48 36 f9 3b fe 81 c7 3d
       0.06606139 0.054322034 0.007605348 0.09741591
0001a0 d0 cb d9 bb 8e 29 aa bd 1a ac ba bc d6 d6 b1 3b
       -0.006646611 -0.08308707 -0.022787143 0.005427222
0001b0 db d5 65 3d 4d e2 94 bd 06 c6 97 3d 22 44 11 3c
       0.05611215 -0.07269726 0.07410817 0.008866342
0001c0 19 41 83 bd 98 b2 d6 bd 1a 52 7c bd 73 8c c2 3d
       -0.06408901 -0.10483283 -0.061601736 0.09499445
0001d0 c7 f5 b5 bc c9 03 27 3d a1 f4 73 bd dc 8b d3 bd
       -0.022211922 0.040775094 -0.05955947 -0.103294104
0001e0 33 7b 9f 3d 9f 9b 6c 3d c8 0e 88 3b 6c ee ee bd
       0.0778717 0.0577656 0.0041521527 -0.11666569
0001f0 82 5d 4e 3d d8 95 89 3c 90 4d f5 3b 9e 45 9b bd
       0.050382145 0.016795084 0.007486053 -0.07581638
000200 c9 0f 16 bd b7 f7 1f 3c 94 b8 be 3d af f4 c8 3c
       -0.036636148 0.00976365 0.09312549 0.024530737
000210 26 40 70 bd 9e a4 ea bd 7f 48 96 bd 25 10 8a bc
       -0.058654927 -0.114571795 -0.07338046 -0.016853401
000220 f0 ab 46 bd 40 e0 8f 3a b6 4b 56 3d 01 fc 92 bd
       -0.048503816 0.0010976866 0.052318297 -0.07176972
000230 85 76 78 bd 84 aa ae bd 40 f5 59 3d 6d 6a bb 3d
       -0.060659904 -0.08528617 0.053212404 0.091511585
000240 fc 5c d1 bc 94 8f a2 3d 2a fb 96 3d 46 c6 3c be
       -0.025557034 0.079375416 0.073721245 -0.1843501
000250 32 c0 ca bd b4 b4 0e be 7a 8a ab bd 46 5e 69 bc
       -0.098999396 -0.1393612 -0.08376022 -0.014243668
000260 2a 84 40 bd 61 58 1c bd 45 f0 e6 3d c5 20 01 bd
       -0.04700104 -0.038170222 0.112762965 -0.031525392
000270 40 75 b4 3d 3e 05 e8 bc 93 88 12 bd a8 ab 37 bd
       0.08811426 -0.028322812 -0.03577478 -0.04484144
000280 af 9a fc 3c 84 b0 cb 3d 73 37 05 3d 5f 54 53 3d
       0.030835478 0.09945777 0.032523584 0.051594134
000290 65 32 98 3d cc 44 c8 3d 04 eb a1 3d 21 fd b1 b7
       0.07431487 0.09778747 0.07906154 -2.1217917e-05
0002a0 c0 f5 e3 bd 79 51 f1 bd 9d a8 98 bb a5 76 86 bd
       -0.111308575 -0.11783118 -0.004658772 -0.065655984
0002b0 c1 45 af bc 4e d2 a0 bd 08 e0 d6 bd c9 fb 23 bd
       -0.021395566 -0.078526124 -0.10491949 -0.040035043
0002c0 40 35 5d bc fd c2 3e 3d 12 eb d2 3d 91 80 dd bd
       -0.013501465 0.046572674 0.10298742 -0.10815538
0002d0 14 df e5 3c b1 1d 9c bd 32 60 73 3d ef 8e 2b bc
       0.028060474 -0.07622851 0.05941791 -0.01047109
0002e0 32 da aa bd 11 80 70 3b 98 e0 d0 3c 27 17 25 bd
       -0.08342399 0.0036697427 0.02549772 -0.040305283
0002f0 c1 bb 0d bd 17 3b 2e bd ab 3f 65 bd 6f 81 cb 3d
       -0.034602884 -0.04253682 -0.05596892 0.09936797
000300 75 5e 2b 3d f4 21 cd bd fd d8 1b bd 0e 96 9c bd
       0.041838128 -0.10016242 -0.038048733 -0.07645808
000310 42 f1 dc 3d c7 20 49 bd bd bc 8e 3d 73 8e 41 3c
       0.10788204 -0.049103525 0.06969593 0.011813748
000320 9b 51 32 bd ce 44 00 3d 56 58 33 3d 30 f4 37 3d
       -0.043534856 0.031315617 0.043785416 0.04491061
000330 1b 9b c5 bd e3 f7 e7 bd ca 35 61 3d 7e 51 de bd
       -0.09648725 -0.113265775 0.054982938 -0.10855387
000340 d8 49 90 bd 01 7c 8c 3d 9b 19 99 bc e4 1b 0d be
       -0.070453346 0.06859589 -0.018688967 -0.1378017
000350 01 04 a3 bd c6 32 7f bb 01 49 8d 3d 34 82 d4 3b
       -0.07959748 -0.0038940175 0.0689869 0.006485248
000360 e7 96 e7 bd 39 d6 0a 3d c8 e4 c8 3d 7b 26 53 bd
       -0.11308079 0.033895705 0.098092616 -0.05155037
000370 24 c1 11 be 50 7e 26 be 66 31 91 bd 78 48 9e bd
       -0.14233834 -0.16259122 -0.070895 -0.07728666
000380 fa 87 a9 3b 47 09 cc 3d 36 a3 92 3c f3 54 96 3d
       0.0051736804 0.09962707 0.01790009 0.073404215
000390 4e 8a c7 bd e7 67 eb 3d 17 f3 72 3d 4d 43 71 3d
       -0.097431764 0.11494427 0.05931386 0.058902074
0003a0 1a 49 6f 3d 4a 6d 90 bd 05 5f e6 3d ad 98 34 3d
       0.058419324 -0.07052095 0.11248592 0.044090915
0003b0 64 8f 16 bd 4e 81 ee 3c 19 3c e3 3d e4 67 d4 bd
       -0.03675784 0.029114392 0.11095447 -0.10371378
0003c0 5d 1a 55 3d 3e 4b a8 3d ed 13 08 3d 1b 7a 10 bc
       0.052027095 0.08217476 0.033222128 -0.008818175
0003d0 68 f2 ca 3d 20 b8 e0 3d 89 ad f1 bd 58 dd d0 bd
       0.099095166 0.10972619 -0.11800677 -0.10198468
0003e0 3e fe 1d bd 64 57 75 bd 96 72 ac 3d 1c 0a 9f bd
       -0.038572542 -0.059897795 0.08420293 -0.077656
0003f0 71 20 c0 bd ec a0 5c bc 1d 21 a9 bd 39 75 78 3c
       -0.09381188 -0.013466101 -0.08258269 0.015164667

1.w_hh.weight f4 [16, 16, 3, 3]
000000 20 ea d7 bc 46 8c 8f bc eb 5d b1 bc 7b 92 15 bd
       -0.026356757 -0.017522942 -0.021651229 -0.036516648
000010 b6 8f 36 bb cf 3f aa bd bc b5 a0 3d 76 3d 6f 3d
       -0.0027856654 -0.08312952 0.07847163 0.058408223
000020 46 c9 9a bc d2 14 95 3d 48 1d 6a bd f6 9f 03 bd
       -0.018894803 0.07279362 -0.05715683 -0.032134973
000030 e7 95 c5 bb 87 3e dc bd c4 4e 28 bc 36 12 f6 3c
       -0.0060298326 -0.10754114 -0.010272685 0.03003798
000040 db 4d 88 3d 48 77 a2 bd 98 91 68 bd f2 4d 96 bd
       0.06655475 -0.07932907 -0.056779474 -0.07339086
000050 fb f4 91 bc 85 26 83 3d 92 34 b3 3c 95 02 ab bd
       -0.017817011 0.064038314 0.021875653 -0.08350102
000060 e6 37 36 bd fb 62 9a bd 63 fc 48 3d ab 2a f3 bb
       -0.044486903 -0.0753841 0.04906882 -0.007420858
000070 b6 58 17 3c 9b 72 59 3d 3f 48 b5 bc c7 3d 22 bd
       0.009237459 0.053087812 -0.022129176 -0.039609697
000080 b3 21 ca bc b8 00 9e bd 08 c0 35 bd 8b 73 97 bc
       -0.024674272 -0.07714981 -0.04437259 -0.018487712
000090 9b 98 ec bc 8b 1a a7 bd 56 7f 81 3c b9 54 b5 bc
       -0.028881362 -0.081593595 0.015807789 -0.022135125
0000a0 b2 a8 80 bd 3e c7 50 3a c2 12 99 3d a0 2f 41 bc
       -0.06282176 0.000796426 0.07474281 -0.01179114
0000b0 1f 37 a7 3d da b3 8a 3d fe 36 10 bd 8b 7d a2 bc
       0.081648104 0.06772585 -0.035208695 -0.019835254
0000c0 1a 9f 26 3c 12 90 16 3d b6 f7 c5 3c 80 08 b2 3c
       0.010169769 0.03675849 0.02416597 0.021732569
0000d0 97 12 97 3d d0 ef 73 3d 2b 2f aa 3c 46 b2 4c bd
       0.073765926 0.059554875 0.020774445 -0.049974702
0000e0 16 2a 93 3d 86 35 c3 3d 13 11 94 3d e3 0b 98 3c
       0.07185762 0.09531693 0.07229819 0.018560356
0000f0 c4 de 85 3d ab 27 fd bc 06 c1 c8 3c 36 48 10 bc
       0.0653663 -0.030902704 0.024506103 -0.008806279
000100 e0 cd a3 bd 8a f1 92 bd 3a 3d ac 3d 8d 7b 75 3d
       -0.07998252 -0.07174976 0.084101155 0.05993228
000110 78 ed 62 3d 96 66 d2 3c 0b 00 d2 3c 0f 1d a6 3d
       0.05540225 0.025683682 0.025634786 0.08111011
000120 06 5b e5 bc 6b f2 6e bd 4b 02 a1 bc 0b 1d 89 3d
       -0.027997505 -0.058336657 -0.019654414 0.06694993
000130 9f 51 a0 3c 38 51 4c 3d 0e 33 1e 3d df 35 a1 bd
       0.01957017 0.049882144 0.03862291 -0.07871603
000140 7b 58 2e 3d 80 82 6b bb 50 0e c6 bc 4c 75 97 bd
       0.04256485 -0.0035935938 -0.024176747 -0.073954195
000150 70 a4 13 bd e8 f4 79 bd 1b da 95 bc 0b 39 17 bc
       -0.03604549 -0.061024576 -0.018292477 -0.009229909
000160 b6 0c a5 3c 00 a2 ce bb a0 39 a3 3c fe 01 71 3d
       0.020147663 -0.006305933 0.019924939 0.05883979
000170 36 03 27 3c 49 94 62 bc e0 b2 94 3d 92 ef 18 bd
       0.010193637 -0.013829299 0.0726068 -0.037337847
000180 40 b4 70 3d 33 74 99 bd c0 3a 6f 3c c3 9d 68 bd
       0.05876565 -0.07492866 0.014601409 -0.05679108
000190 50 ba af bc ae 2f 76 bd 01 b7 00 bd a9 b2 06 3c
       -0.021451145 -0.060104065 -0.031424526 0.008221307
0001a0 d5 74 2a bc f8 da 4a 3d f6 7a cc bc 5e 92 1b bd
       -0.0104038315 0.04952523 -0.024960976 -0.037981384
0001b0 56 ab 8b 3d 56 8a 05 bc 5b f1 97 bd ad 3e ae 3c
       0.06819789 -0.008150658 -0.07419082 0.02127012
0001c0 a7 64 9c bd 31 16 99 bd 7a eb 81 3d d0 12 20 bd
       -0.076363854 -0.07474936 0.06343742 -0.03908044
0001d0 47 d7 8f 3d 80 02 1f 3c 48 29 0a bd f6 d4 08 3c
       0.07023483 0.009705186 -0.033730775 0.008351555
0001e0 ac 1f 9f bd 23 11 c3 3c d1 e8 44 3c 78 0e 77 bd
       -0.07769713 0.023811882 0.012018398 -0.060316533
0001f0 b0 bf 56 3d 30 88 20 3d 9b 5f 83 bc 20 4d aa bc
       0.0524289 0.03919238 -0.0160368 -0.02078873
000200 80 9b 64 bd be 05 9f ba c6 0c a9 3c a6 57 a7 bc
       -0.05581236 -0.0012132449 0.020635974 -0.020427536
000210 d6 fd f5 bb b0 1e 87 bc 16 32 b9 bb 80 09 0c bb
       -0.0075070662 -0.016494125 -0.0056517227 -0.0021367967
000220 d6 5e b2 3c cb 03 da bc be 51 3a bd 31 b1 e3 bd
       0.021773737 -0.026613137 -0.04548811 -0.11117781
000230 31 14 0d be a8 01 26 bd 90 e1 90 bc 56 12 8b bb
       -0.13777234 -0.040528923 -0.017685682 -0.004244129
000240 00 e1 94 bb ee 7f 46 3d 8b 7b 7d bc 0c 84 d2 3c
       -0.0045434237 0.048461847 -0.0154713495 0.02569773
000250 49 2c 2a bd 7e 22 14 bd 96 53 4b 3d 88 a9 61 3d
       -0.04154614 -0.036165707 0.04964026 0.05509332
000260 40 da d6 bb a6 11 7f 3d 5e b6 7c bd 36 18 35 bc
       -0.006556779 0.06227269 -0.061697356 -0.011053136
000270 0b 72 8f bd ad c4 d9 3c a0 2b 96 bd 8e 32 02 3d
       -0.07004174 0.02658304 -0.073325396 0.031786494
000280 46 c8 7b 3d 80 70 4d bc f6 45 11 bc 66 e1 3c 3d
       0.061470293 -0.012539029 -0.008866778 0.046113394
000290 ab 26 32 3d a5 17 1f 3d 0a e9 57 3d 28 1e 87 3d
       0.043493908 0.03884091 0.052712478 0.06597549
0002a0 ab 69 03 3d 0b de 96 3d 56 e1 10 3c f0 b5 a5 3d
       0.032083195 0.0736657 0.008842787 0.080913424
0002b0 96 75 89 3d 2b 8c 62 bb 7b 8a bb 3c 6f 4f 92 bd
       0.06711881 -0.003456841 0.022893181 -0.07144057
0002c0 99 21 fc 3c 0e 12 52 bd 40 ed 48 3c d0 f1 5a bd
       0.03077774 -0.05128675 0.012263596 -0.053453267
0002d0 16 b3 b0 3b de 8b 27 bd a2 1e 99 3d 71 00 8b 3d
       0.0053924425 -0.040904872 0.07476546 0.067871936
0002e0 37 0a 25 3d bf ab f5 bc 0a 2e 95 bd 96 c8 63 3c
       0.040292945 -0.029989121 -0.07284172 0.013902804
0002f0 ab 0b 67 3c a6 68 7a bd 46 5e 99 3c 90 20 9b bd
       0.014101903 -0.061134957 0.01872171 -0.0757457
000300 98 7a 80 3d aa 1f 51 ba 04 31 9c 3c 46 b0 a1 3d
       0.06273383 -0.00079774356 0.019066341 0.078949496
000310 56 75 29 b9 16 33 dc 3c 16 1a 8c bb 56 6d 9a bb
       -0.00016160807 0.026879828 -0.0042755706 -0.004712741
000320 0b 12 80 bd 2d 1a 98 3d 5a d6 92 3d ee 32 a3 b9
       -0.062534414 0.07426868 0.071697906 -0.00031127728
000330 0a fa 9b bd 16 b4 8f bc 43 b9 8b bd 1c c8 94 bd
       -0.076160505 -0.017541926 -0.06822445 -0.0726473
000340 50 da 2a 3d c0 e1 9c bd 50 b5 e3 3d 80 7b a2 3c
       0.041712105 -0.07660246 0.11118567 0.01983428
000350 90 47 c5 3d 7b 54 61 3d eb 8c e0 3c e0 86 15 bc
       0.0963279 0.055012207 0.027410945 -0.009126395
000360 37 b6 82 bd 20 b8 2a 3c 5b e4 b8 3c b3 f5 7b bd
       -0.06382411 0.010419875 0.022569826 -0.061513614
000370 fc 04 ec 3c 8a da d9 bc c6 c8 8f bc d3 f9 1d bd
       0.02881097 -0.026593465 -0.01755179 -0.03856833
000380 56 43 87 bd 40 04 d2 bb 70 85 0f bd ae 1f a3 bd
       -0.0660464 -0.006409198 -0.035039365 -0.07965027
000390 04 2a 31 3d 16 66 41 bc 80 e6 81 bd 3c 82 81 bd
       0.04325296 -0.011804124 -0.063427925 -0.06323668
0003a0 17 41 8c bd e0 79 44 3d 06 9b c6 bc f2 e9 84 3d
       -0.068483524 0.04796779 -0.024243843 0.06489934
0003b0 e0 79 5c bc f6 9b 8a bd be cb ba 3b cb 79 b2 3d
       -0.013456792 -0.067680284 0.0057005575 0.087146364
0003c0 b3 6f 90 bd f6 d3 09 3c 3e 63 07 3d e0 f6 0f bc
       -0.07052555 0.008412352 0.03305363 -0.008786887
0003d0 0b ea 97 3d 56 41 b7 3a 80 18 87 3c 6a dc 00 bd
       0.07417687 0.0013981264 0.016491175 -0.031460203
0003e0 5b 67 22 3c 00 3b 70 bb 9b 69 0c bd 90 89 d4 bc
       0.009912337 -0.003665626 -0.0342804 -0.025944501
0003f0 80 76 ee 3b 04 50 98 3d 8b 0f cb bc 7b d0 4e bd
       0.00727731 0.07437137 -0.024787685 -0.05049179

1.w_hh.bias f4 [16]
000000 04 34 79 bd 51 2b 57 bd 92 9a b2 3c 17 e0 0f 3c
       -0.06084062 -0.052531544 0.02180222 0.0087814545
000010 ba d6 b0 bb 88 ac 20 3d f3 db 97 bd 56 d9 84 bd
       -0.005396691 0.03922704 -0.07414999 -0.06486766
000020 79 e3 55 bd ec a2 35 3d 12 f5 27 3d 4d 8d c0 bc
       -0.052218888 0.044344828 0.0410052 -0.023504877
000030 9d 82 28 3d 69 7b c1 3d 84 44 8e bb 59 86 8c bb
       0.041140188 0.09447367 -0.004341664 -0.0042884764

3.weight f4 [100, 1024]
000000 c1 0c 77 be 26 f3 40 be 6a d5 79 be 3d da ab be
       -0.24125959 -0.18842754 -0.24397817 -0.3356494
000010 25 33 d4 be 00 d8 e9 be 16 08 f8 be b1 fe e8 be
       -0.4144527 -0.45672607 -0.4844367 -0.45506814
000020 af 89 df be 98 d0 c5 be b5 3c b9 be 3b 1e ad be
       -0.43659732 -0.38635707 -0.36179128 -0.33812127
000030 12 43 9c be 73 1b 76 be 34 f6 7c be 5e d2 62 be
       -0.3051992 -0.24033909 -0.24703294 -0.22150561
000040 dc f6 23 be 1d 08 0e be 37 f6 15 be de 6d 04 be
       -0.16012138 -0.13870282 -0.14644705 -0.12932536
000050 8b 36 32 be bc fa 24 be 7a 46 5a be 46 bc 49 be
       -0.17403619 -0.16111273 -0.21315947 -0.19700727
000060 22 5b 3f be 64 e6 27 be a0 73 33 be df d8 31 be
       -0.18687108 -0.16396481 -0.17524576 -0.17367886
000070 c0 07 46 be da ba 12 be 60 c0 0d be 37 c1 52 be
       -0.19338894 -0.1432909 -0.13842916 -0.20581518
000080 af 9a 4b be ee 62 76 be 88 9d 87 be 91 11 84 be
       -0.19883226 -0.24061176 -0.26487374 -0.25794652
000090 11 92 77 be a4 12 29 be 27 11 30 bd 70 ff f7 3c
       -0.24176814 -0.16511017 -0.042985108 0.03027317
0000a0 7f 6d c0 3d 79 a0 0c 3e 49 bd 3a 3e b7 e8 63 3e
       0.09395885 0.1373309 0.18236269 0.22256742
0000b0 05 7c 69 3e 9d b9 8f 3e f2 d2 8d 3e e1 e3 aa 3e
       0.22801216 0.280713 0.277 0.33376983
0000c0 05 b2 a1 3e 57 ae ca 3e e4 8a bf 3e 0d 3a ba 3e
       0.3158113 0.39586136 0.37410653 0.36372414
0000d0 2f 21 be 3e 38 d0 af 3e f9 f1 b6 3e 73 4d 88 3e
       0.37134692 0.34338546 0.35731485 0.2662159
0000e0 2c ff b0 3e ea 42 bb 3e 7c e2 f8 3e 61 13 2a 3f
       0.3456968 0.3657449 0.48610294 0.6643582
0000f0 2f ae 43 3f f4 cf 61 3f d3 41 98 3f 7d dd 59 3f
       0.7643766 0.88207936 1.1895088 0.8510359
000100 30 c0 5c 3d 48 b6 cc 3b 35 2b 42 be 00 1a be be
       0.05389422 0.0062473156 -0.18961795 -0.3712921
000110 54 db b2 be 2e ce b2 be 9f 5e e2 be 8c a5 d3 be
       -0.3493296 -0.34922928 -0.44212815 -0.4133724
000120 6f ab f4 be 67 12 f3 be 29 3f c2 be a2 eb 8c be
       -0.47787043 -0.47474977 -0.37938812 -0.27523524
000130 b0 4d 9a be b2 23 87 be d1 13 8f be 21 10 59 be
       -0.30137396 -0.2639442 -0.27944806 -0.21197559
000140 e4 82 54 be e8 eb 38 be fa 7a f0 bd 74 a5 e5 bd
       -0.20753056 -0.18058741 -0.11742206 -0.11213198
000150 c2 60 9d bd d2 13 56 bd f6 ac 4b be 71 22 62 be
       -0.07684471 -0.052264996 -0.19890198 -0.22083451
000160 42 cd 36 be 51 fa 3a be 63 a1 e6 bd ef 15 19 be
       -0.17851737 -0.1825955 -0.11261251 -0.14949773
000170 c5 22 33 be c7 d7 cc bd c1 9e 01 be 91 a5 fd bd
       -0.17493732 -0.10002094 -0.12658216 -0.12385095
000180 cf ab 18 be be 11 58 be fe 13 70 be 7a 46 8b be
       -0.1490929 -0.21100518 -0.23445126 -0.27202207
000190 37 53 95 be f2 6a 88 be ac 6f 01 be 1f df 09 bd
       -0.2916505 -0.26644093 -0.12640256 -0.03366005
0001a0 2a f6 2b 3d eb ea e6 3d b9 d6 02 3e 3f c8 ed 3d
       0.041982807 0.11275276 0.12777223 0.116104595
0001b0 e7 e9 3b 3e 9d bd 7c 3e f7 49 58 3e 7a ee 73 3e
       0.18350945 0.24681707 0.21121965 0.2382144
0001c0 e2 00 91 3e 2c 3d a4 3e 6c db ba 3e 7e 56 ce 3e
       0.28320986 0.3207792 0.3649553 0.40300363
0001d0 43 7c d5 3e 27 95 c6 3e 1e 61 ac 3e ca 2a e6 3e
       0.41696367 0.3878567 0.33667845 0.4495452
0001e0 ba ba ce 3e 83 a9 40 3e 1d a8 8d 3e b8 9d fa 3e
       0.40376836 0.18814664 0.27667323 0.48948455
0001f0 02 83 45 3f 45 60 89 3f 18 15 2d 3f 42 85 4d 3f
       0.7715303 1.0732504 0.6761031 0.8028146
000200 82 fd 46 3d 4b a6 6e 3d 4b 97 53 3e 61 ae 75 3e
       0.048581608 0.058264058 0.20663182 0.23992302
000210 0f 8f 78 3e 05 d7 8c 3e 5d 4e 8f 3e 75 e0 91 3e
       0.24273323 0.27507797 0.27989474 0.2849156
000220 fd 99 92 3e f7 2e 83 3e 29 b3 49 3e fb 97 56 3e
       0.2863311 0.2562177 0.1969725 0.20956413
000230 07 cb 47 3e 84 13 46 3e 6f cd 2a 3e d9 25 c4 3d
       0.19511043 0.19343382 0.16679929 0.09577531
000240 7a 2b d0 3d fb d3 cb 3d 5d ac cd 3d 38 a5 a2 3d
       0.101645425 0.099525414 0.10042641 0.07941669
000250 14 f6 e5 3d a2 ae 0d 3e 9d e5 d2 3d 71 65 20 3e
       0.11228576 0.13836148 0.102977015 0.15663697
000260 63 58 01 3e 44 0e 07 3e 7c 88 e1 3d 83 cf a2 3d
       0.12631373 0.13189036 0.110123605 0.07949736
000270 68 17 6d 3d 88 c9 39 3d ad 48 69 3d 97 b3 ac 3d
       0.05788365 0.04535821 0.056954075 0.084326915
000280 5d 26 c3 3d ee c8 1b 3e b5 81 27 3e e7 44 12 3e
       0.095288016 0.15213367 0.16358073 0.14284097
000290 59 cf f7 3d e0 82 8c 3d 13 50 ae 3c 2d a3 d2 bc
       0.12100095 0.068609 0.021278417 -0.025712574
0002a0 83 c8 a6 bd da 5d d0 bd 92 35 08 be 58 4c 34 be
       -0.08143713 -0.10174151 -0.13301685 -0.17607248
0002b0 4f 20 40 be e8 15 48 be 30 2f 63 be 16 c0 56 be
       -0.18762325 -0.19539607 -0.2218597 -0.20971712
0002c0 06 40 8b be 27 9b 94 be 5c d2 98 be 96 01 90 be
       -0.27197284 -0.29024622 -0.2984799 -0.2812621
0002d0 b2 89 98 be 96 67 90 be c8 b6 97 be e3 5f b4 be
       -0.29792553 -0.2820403 -0.2963164 -0.35229406
0002e0 25 67 b2 be aa 7e c7 be 26 58 fd be 90 c2 19 bf
       -0.34844318 -0.38963825 -0.49481314 -0.60062504
0002f0 59 22 32 bf 81 3a 24 bf 97 0c 19 bf ba 35 3d bf
       -0.6958366 -0.6415177 -0.59784836 -0.73910105
000300 d1 e6 29 bc 10 86 31 bd c0 18 9b 3c 08 88 a8 3d
       -0.010369972 -0.043340743 0.0189327 0.08229071
000310 f5 62 fb 3d f8 1b fd 3d db 51 2d 3e c1 90 fb 3d
       0.12274734 0.1235885 0.16925757 0.12283469
000320 e4 a1 22 3e 46 df 0b 3e ad 0e 46 3d aa 00 83 3d
       0.15882069 0.13659391 0.04835384 0.06396611
000330 34 de af 3c 7d c4 3b 3d df c7 08 3d 31 49 ce bc
       0.02146826 0.045841683 0.033393737 -0.025181385
000340 65 cb 29 ba 54 57 03 bd 08 57 57 bd cd fb 95 bd
       -0.00064771465 -0.032065704 -0.052573234 -0.07323418
000350 c9 09 a7 bc d5 69 17 bd 1a 8d 54 bc 28 99 10 bc
       -0.020390408 -0.036966164 -0.012973094 -0.008825578
000360 55 41 36 3c 36 97 93 3c 43 76 18 bd f8 63 08 bd
       0.011123975 0.018016439 -0.03722216 -0.033298463
000370 e7 8a db 3b 65 3b d1 bc 5f d9 c6 bc c0 ae e1 bc
       0.006699908 -0.025541017 -0.024273572 -0.027549148
000380 82 16 ec 3c 1e 28 77 3d 23 73 94 3d d3 46 3c 3d
       0.028819326 0.060340993 0.07248523 0.04596598
000390 cd 21 9d 3c 14 54 1b 3c 59 e5 60 bd f4 78 cc bd
       0.019181157 0.009480495 -0.054906223 -0.099840075
0003a0 63 41 35 be 51 bd 2c be fe f7 4f be f7 a7 80 be
       -0.17700724 -0.16869093 -0.20309445 -0.25128147
0003b0 14 02 68 be 14 94 84 be 97 ed 8a be b1 74 9b be
       -0.22657043 -0.25894225 -0.27134392 -0.30362466
0003c0 ea 3c 9b be a5 2b a6 be 8b fe 95 be 3f ab 9d be
       -0.3031991 -0.32455173 -0.29295763 -0.30794713
0003d0 cf 74 8f be b1 2c 97 be 34 5f a0 be 59 69 84 be
       -0.28018805 -0.29526284 -0.31322634 -0.25861624
0003e0 2c 7f 86 be 42 1f 76 be f7 42 a6 be 6a 40 f4 be
       -0.262689 -0.24035361 -0.32472965 -0.47705394
0003f0 6a 82 2a bf 23 b0 29 bf 9b 6b 27 bf b2 ff 38 bf
       -0.66605246 -0.6628439 -0.6539857 -0.7226516

3.bias f4 [100]
000000 9b aa 68 3d 18 13 a1 3e ba 11 9c 3e 06 2c b9 3e
       0.056803327 0.3145988 0.30482274 0.361664
000010 83 94 98 bd 44 c7 66 bd cc d7 10 be c1 c7 b5 3e
       -0.07450201 -0.05634238 -0.1414482 0.35503963
000020 73 3a 12 3e 3a 10 a2 3e 53 ad 31 3e ca 2f 63 3e
       0.14280109 0.31653005 0.17351274 0.22186199
000030 3a be d5 3e f6 b4 c4 3e 98 f7 07 3e c1 99 3a 3e
       0.41746694 0.38419312 0.13278043 0.18222715
000040 86 d5 4c 3d fa c0 6c 3e c3 41 79 3e 3f 4e c8 3d
       0.05000832 0.2312049 0.24341492 0.09780549
000050 cf df a9 3e b0 87 d3 3d fc 7a 4e 3e 71 eb c6 3e
       0.33178565 0.10328615 0.20164102 0.38851503
000060 85 77 87 3e ee 43 79 3e 49 ba 7d 3e eb 9f 88 3e
       0.26458374 0.2434232 0.24778093 0.26684508
000070 e5 3e 8c 3e f9 3e 86 3e 16 d1 b8 3e e0 2e ab 3e
       0.27391735 0.2621992 0.3609702 0.334342
000080 d4 42 83 3e 5f b5 35 3e c3 a7 20 3e 25 4f d0 3e
       0.25636923 0.17744969 0.15688996 0.40685382
000090 4b 0d cd 3d b2 3b 5d 3e ad 27 e9 3e 87 cd ff 3d
       0.10012301 0.21604803 0.45538083 0.12490373
0000a0 fb 48 8e 3e 16 8b 94 3e 77 82 a4 3d 94 d4 b2 3e
       0.27790055 0.29012364 0.08032697 0.3492781
0000b0 f2 05 9c 3e bc 39 b6 3e dc 95 8a 3e 6b 78 d5 bc
       0.30473286 0.35590923 0.2706746 -0.026058396
0000c0 27 ff 72 3d 6b 84 5d 3e 50 b3 17 3e d5 7a ee 3d
       0.059325363 0.21632545 0.14814496 0.11644522
0000d0 e6 9b cb 3c d6 13 aa 3d 5c 5d d3 bd 6d ab ac 3e
       0.024854612 0.08304565 -0.10320541 0.33724537
0000e0 38 4d 86 3e 4b 6c 86 3e 6f 78 28 be 4a c3 92 3d
       0.26230788 0.26254496 -0.16452192 0.07166155
0000f0 1a a2 c2 3e ea 71 39 3e 00 2e 53 3d 39 02 f3 3c
       0.380143 0.18109861 0.05155754 0.029664146
000100 30 8f 28 3e 31 0b a3 3e 61 fe 92 3e 86 1e 64 3e
       0.16460872 0.31844476 0.287097 0.22277269
000110 c2 11 a8 3e 8f 51 99 3e 86 0b 8e 3e ab 3c 53 3e
       0.32826048 0.29945037 0.27743167 0.20628612
000120 13 ff e4 3e 81 e5 a5 3e 0f 26 c6 3e 0a 84 d0 3e
       0.44725856 0.3240166 0.3870091 0.40725738
000130 d9 c4 66 3e a3 09 86 3e 8c 30 68 3e 61 a3 67 3e
       0.22536029 0.26179227 0.22674769 0.22620918
000140 94 7e a4 3e df 86 ad bd 71 76 73 3e 1e 82 97 3d
       0.3212782 -0.0847299 0.2377565 0.07397865
000150 3a fb dc 3e 45 d3 a5 3d d1 05 e4 3e 85 e6 25 be
       0.4316042 0.08096937 0.44535688 -0.16201217
000160 a0 d9 f3 3e 99 e3 6f 3e f1 f6 78 3e b9 e8 88 3e
       0.47626972 0.23426665 0.2431295 0.26740053
000170 bd 66 54 3e 83 97 e9 3d 6a 9b 86 3c 0f 1f 26 3e
       0.20742317 0.11405852 0.01643153 0.16222785
000180 9a 15 1a 3e 26 dc 7d 3e 3f 34 8f 3d e7 ed 1b be
       0.15047303 0.24791011 0.06992387 -0.15227471

5.weight f4 [10, 100]
000000 ef 08 46 be a8 a3 06 bf 4e c5 0f bf d1 bf 2e bf
       -0.19339345 -0.5259347 -0.5616044 -0.6826144
000010 6d f1 89 3d d9 f4 ed bd f0 a1 0f 3d 75 23 87 bf
       0.067355014 -0.116189666 0.035066545 -1.0557696
000020 16 b6 f0 3e 27 32 09 3f 88 df ba 3e e1 4b 24 bf
       0.4701392 0.5359215 0.36498666 -0.6417828
000030 bd 62 1f bf 25 2f 6c bf 2c 72 bd 3e c6 79 a4 be
       -0.6226004 -0.92259437 0.3700117 -0.32124156
000040 4e e5 3b be c7 01 a6 3e 7d 71 0d bf 99 18 1f 3e
       -0.18349192 0.3242323 -0.55251294 0.15536727
000050 00 4d 3c bf 93 a9 3b be f8 4a 94 3e a4 1d 0e bf
       -0.7355499 -0.18326406 0.28963447 -0.5551398
000060 92 f7 17 bf 3d 2b d0 3e 2b 64 e1 3e 9b 41 d2 3e
       -0.5936214 0.40657988 0.44021735 0.41065678
000070 99 89 e2 3e fb 56 b5 3e 9d f9 14 bf 35 01 79 bf
       0.44245604 0.35417923 -0.5819338 -0.97267467
000080 19 72 fa 3e 37 72 95 3e f8 29 36 bd 47 a9 31 bf
       0.48915175 0.29188702 -0.04447362 -0.6939892
000090 95 48 db bd f6 b8 d0 3d 44 b1 38 bf b8 d4 a4 be
       -0.10707203 0.101915285 -0.72145486 -0.32193542
0000a0 24 dd 87 3e c0 66 55 bf 8c 24 f0 bd 03 9d 5c bf
       0.26535904 -0.8335991 -0.11725721 -0.8617708
0000b0 c5 ca fd 3e ff 52 00 bf 3b 43 68 bf d3 3d dc bd
       0.49568763 -0.5012664 -0.90727586 -0.107539795
0000c0 13 8b b8 bd 46 41 c4 3e 48 1e 7b be b0 40 94 bd
       -0.09010901 0.3833105 -0.2452327 -0.07238901
0000d0 db c8 2d be 45 83 1b be e5 9e 8e bd a9 53 08 bf
       -0.16971152 -0.15186794 -0.069639005 -0.53252655
0000e0 cf 06 d4 3e 13 86 6f be bf 4b 6a bd a4 ab 44 be
       0.41411445 -0.23390989 -0.057201143 -0.192061
0000f0 4b 4a 63 bf 72 8a 17 3f 95 9b 7e be 61 e1 26 be
       -0.8878524 0.59195626 -0.24864037 -0.16296913
000100 e3 c3 f1 3e 1e e6 a3 3e d2 a7 12 3f ea 6b bf 3e
       0.47219762 0.32011503 0.57287323 0.3738702
000110 fc be 11 bf e9 b3 b8 be 64 3c 5c 3e 88 3d 77 3c
       -0.56932044 -0.3607476 0.21507412 0.015090354
000120 98 03 4c bf 61 ad da be c7 31 03 bf f5 a4 4e bf
       -0.79692984 -0.42710403 -0.5124783 -0.80720454
000130 c7 71 9e 3e f4 26 f5 be 6b e0 06 3f 70 54 ac 3e
       0.3094618 -0.4788128 0.52686185 0.3365817
000140 01 93 0a bf 30 fb a3 bc 53 4b 70 be d3 10 87 be
       -0.5413056 -0.020017236 -0.23466234 -0.26380023
000150 e9 b9 48 bf f1 d0 0c 3d aa 4b 11 bf 9e cb 6b 3c
       -0.78408676 0.03437895 -0.5675608 0.014391808
000160 5b 09 f2 be ce a8 03 3f b2 32 24 bf eb 55 b2 3e
       -0.47272763 0.5142945 -0.64139855 0.34831175
000170 b2 47 9a 3e b4 24 4f 3e 06 1a b9 bd e1 9f 04 3f
       0.30132824 0.20228845 -0.09038167 0.51806456
000180 6e f9 e4 3e 16 49 67 bf 30 23 03 be a0 92 a7 bd
       0.4472155 -0.90345895 -0.12806392 -0.081822634
000190 c6 0d b3 bc e3 a7 2b 3d 39 e0 f8 bd 54 9c 91 3d
       -0.021857154 0.041908156 -0.12152142 0.07109895
0001a0 ec 37 4c 3c 59 4f 5a bc 2c 53 0e 3d 40 a3 f1 bd
       0.012464505 -0.013324582 0.034747288 -0.117987156
0001b0 7f 15 2f 3e 5f be 17 bd 2d f8 11 3d 19 19 fb bd
       0.17098044 -0.037046786 0.03563707 -0.122606464
0001c0 47 9d 15 bc 8b 34 48 bd 56 fa 28 be d5 17 31 bd
       -0.009131736 -0.048878234 -0.16501746 -0.04323562
0001d0 ba 39 99 bc bb 16 dc bd ff 3b 76 bc 0e f0 0a 3c
       -0.018704284 -0.10746523 -0.015028953 0.008480085
0001e0 1f 36 45 3d 3d b6 93 bd 28 47 e5 3d 47 0e 0d 3d
       0.048147317 -0.072124936 0.111952126 0.034437444
0001f0 bb c5 e9 bd c9 7c 72 3d da eb 16 bd 17 e3 e5 3c
       -0.11414667 0.059201036 -0.03684602 0.028062386
000200 97 09 6e 3d 8c 06 79 3d c6 99 5c 3c 84 ee d1 bd
       0.058114614 0.06079726 0.013464397 -0.10250571
000210 7f fa a7 3d 16 a4 5b 3d 04 1a 22 3c 4d 6c 84 bd
       0.08202075 0.05362328 0.009893898 -0.06465969
000220 ef 25 80 bd f5 29 b6 bd d3 2b ba bb 11 30 90 bb
       -0.06257235 -0.088947214 -0.005681494 -0.004400261
000230 ca ee 23 be bc f2 05 be 74 29 5d 3c e8 cf d9 bd
       -0.1600906 -0.13080877 0.013498653 -0.10635358
000240 c9 4c e6 bd dc d5 0e bd 80 80 d6 bd 95 00 bd 3c
       -0.11245114 -0.03487192 -0.10473728 0.023071567
000250 bc f6 8b bc aa dd d8 3d 0d 9b 93 bd f5 f0 30 3b
       -0.017085426 0.10589154 -0.07207308 0.002699909
000260 75 1f 89 bd 73 92 9d bd 38 5f b9 3d c6 f3 cd 3d
       -0.06695453 -0.076939486 0.09051365 0.10056262
000270 72 e0 9d bb e1 81 c7 3d 4e 3f a3 3d 0f fd b3 3b
       -0.0048180157 0.09741569 0.07971059 0.0054928134
000280 6d 6f f9 3d f0 47 cb 3d 61 a7 b0 bd c2 19 3a 3d
       0.12179456 0.0992583 -0.08625675 0.04543472
000290 8e 71 d9 3d d3 5c 6d 3b 1c 8e 04 be 34 c1 8e bd
       0.10617362 0.0036218658 -0.12944835 -0.06970444
0002a0 63 5c 72 bc b9 bb ac 3d d9 4f e7 bd 71 26 ed bd
       -0.0147925345 0.08434243 -0.112945266 -0.11579598
0002b0 66 f8 e1 bc 88 c3 c4 bd 53 55 97 bd 17 95 01 be
       -0.027584266 -0.09607607 -0.07389321 -0.1265453
0002c0 1a c1 b6 3d 61 16 06 3e 44 fc 2c 3e be e9 65 3d
       0.0892355 0.13094474 0.16893107 0.056131117
0002d0 1c 37 69 bd 5d b1 c4 bc aa bb aa 3c 17 56 b0 bd
       -0.056937322 -0.024010355 0.020841438 -0.0861017
0002e0 d2 01 99 3d 85 f6 5f bd 7d 6a 59 3e ae 7d 53 bd
       0.0747105 -0.05467846 0.21232028 -0.05163353
0002f0 56 ac 97 3d 5f b0 bf 3d 54 24 3f be 0c 31 7e 3d
       0.07405917 0.09359812 -0.18666202 0.062058493
000300 3b 22 b8 3c 02 97 d1 3c 6a f9 1d bd 29 f9 1b 3e
       0.02247726 0.025584701 -0.038567938 0.15231766
000310 1f d1 13 3e a2 36 27 be 17 82 7e 3c 1c 90 6f bd
       0.14435242 -0.16329435 0.0155339455 -0.058487043
000320 22 cf 0a bd f8 05 8c 3d 7e 76 1e be c5 0e a9 3d
       -0.033888943 0.06837076 -0.15474889 0.0825477
000330 7b a3 2a bd 94 41 13 3d 62 89 eb bd 2c 00 9f be
       -0.041659813 0.035951212 -0.11500813 -0.3105482
000340 3b e5 62 3e 94 d6 f8 bd f2 65 a2 bc 80 9a cc be
       0.22157757 -0.121503025 -0.019824002 -0.39961624
000350 03 0b 17 3d ae a9 58 be 68 54 13 be 74 21 ff bd
       0.036875736 -0.21158478 -0.14387667 -0.124575526
000360 98 9f 00 bd a0 e0 85 3d ac 10 39 3e ed 9d 9d bd
       -0.0314022 0.065369844 0.18072766 -0.076961376
000370 91 37 81 3d 1c 28 98 bd cc a4 f3 bc fd 5c e2 3d
       0.063094266 -0.07429525 -0.029741667 0.11052892
000380 d4 cc b1 bc 7d 07 0d bc ee 70 54 bc da 36 cc bd
       -0.021704115 -0.008607742 -0.012966378 -0.099713996
000390 6f 8d 12 3d ce 6d d9 bd 12 bc 39 3e 73 f4 99 be
       0.035779413 -0.10616647 0.1813815 -0.30069312
0003a0 06 99 4a bd c5 c3 1e bc 3e e7 b0 bd c3 85 6c bd
       -0.04946234 -0.00969023 -0.08637856 -0.057744753
0003b0 8f 6e d6 bd f0 7a 8a be 4c 56 84 3d 9c 3e 05 3e
       -0.10470306 -0.2704692 0.06461772 0.13012165
0003c0 98 e6 37 be 85 cb cc be c1 d1 c9 bd d1 ad 40 be
       -0.17959058 -0.39999023 -0.098544605 -0.18816306
0003d0 7d bd 65 be 49 b2 9f bd 96 e9 9f be 54 03 ec bc
       -0.22435565 -0.07797677 -0.312329 -0.02881018
0003e0 87 31 95 bd 68 35 30 bd 51 fd 19 bd 3f 6f 07 3e
       -0.07284837 -0.043019682 -0.037595097 0.13226031
0003f0 04 60 ab bd b4 ce be bd d5 80 7d bb 35 47 4f 3e
       -0.08367923 -0.09316769 -0.0038681526 0.20242007

5.bias f4 [10]
000000 31 f3 4c 3d 63 fd 25 be 38 d1 a1 bd f2 d3 bf bc
       0.050036613 -0.1620994 -0.079012334 -0.023416493
000010 a1 c9 a8 3d c7 04 c3 bd 3c ef d2 3d e4 e6 f8 bd
       0.08241583 -0.095223956 0.102995366 -0.12153414
000020 70 fd e1 3d 84 33 11 be
       0.110346675 -0.14179808
