tutorial/NICE2024/logs/fsdd_pt/net.pt (torch, 433856 bytes, 10 tensors)

0.w_ih.weight f4 [8, 1, 3, 3]
0	0x3ea87093	0.32898387
1	0xbe71076b	-0.23537986
2	0xbea1e340	-0.3161869
3	0x3e1ebf94	0.15502769
4	0x3c482fe5	0.01221845
5	0x3e643405	0.22285469
6	0xbceaa1d6	-0.028641623
7	0x3d95bb7b	0.0731115
8	0x3e534133	0.2063034
9	0x3dc1444b	0.09436854
10	0x3dea0260	0.11426234
11	0x3ddf3976	0.10899632
12	0xbe6a5b7f	-0.22886465
13	0x3d24de9a	0.040251352
14	0x3e6ad28f	0.22931884
15	0x3d6025a0	0.054723382
16	0xbe7d39be	-0.24729058
17	0x3dd144db	0.10218211
18	0x3e6f597b	0.23373978
19	0xbe90c660	-0.28276348
20	0x3ea1fa6f	0.31636378
21	0x3d54981d	0.05190288
22	0xbe678a4c	-0.2261135
23	0x3e66195b	0.2247061
24	0x3e87d097	0.2652633
25	0xbe41f77b	-0.18942063
26	0xbc7ffe80	-0.015624642
27	0xbe1e4353	-0.1545537
28	0xbe8f1738	-0.27947402
29	0x3e82a6c3	0.25517854
30	0xbd52703a	-0.05137656
31	0xbe58b0ad	-0.21161146
32	0xbe48359d	-0.19551702
33	0xbc9ea8ab	-0.019367537
34	0x3e0f60ae	0.14001724
35	0x3cf0fd96	0.029417794
36	0x3e982897	0.29718468
37	0xbe0c87b0	-0.13723636
38	0x3d3855d6	0.045003735
39	0xbe165ae6	-0.14683113
40	0x3be7bd1d	0.0070721046
41	0xbdbc0a34	-0.091816336
42	0x3d92d7cb	0.071700655
43	0x3e8f8fc6	0.28039378
44	0x3e8d093c	0.27546108
45	0x3e596853	0.21231203
46	0xbd92173b	-0.07133337
47	0x3e97a25a	0.29616052
48	0xbe561130	-0.20904994
49	0x3e72dd3c	0.23717207
50	0xbe874ff5	-0.2642819
51	0xbcc3936b	-0.023874005
52	0xbe98afd0	-0.29821634
53	0xbce13feb	-0.027496299
54	0x3d82db30	0.06389463
55	0x3e375876	0.17904839
56	0xbdd729b6	-0.105060026
57	0x3bf07e00	0.007339239
58	0x3d1df3a6	0.03856244
59	0xbd9ba665	-0.076000966
60	0xbe907f6c	-0.28222215
61	0x3e90c6f3	0.28276786
62	0x3e331080	0.17486763
63	0x3e1a8416	0.1508945
64	0x3e5ce176	0.21570382
65	0x3ea0195f	0.31269357
66	0x3e0e6d07	0.13908778
67	0xbea0ebcc	-0.314299
68	0x3eae06cb	0.33989558
69	0x3cbdc916	0.023167174
70	0xbd33ce80	-0.043898106
71	0xbe977586	-0.2958185

0.w_hh.weight f4 [8, 8, 3, 3]
0	0xbde66f08	-0.11251646
1	0xbdb57a62	-0.08861233
2	0xbd8e6656	-0.06953113
3	0x3e1bab5e	0.1520209
4	0x3db4beca	0.088254526
5	0x3d9a9255	0.07547442
6	0xbd41200a	-0.047149695
7	0xbcb3d4dd	-0.021952087
8	0xbcd54b33	-0.026036834
9	0xbdc778d8	-0.09739846
10	0x3ce4f897	0.027950568
11	0xbd30ec39	-0.04319403
12	0x3e27ad84	0.16374785
13	0x3c6af312	0.014340179
14	0xbd037355	-0.03209241
15	0x3d92fe11	0.071773656
16	0xbcdd8a44	-0.02704347
17	0x3d4963c6	0.049167417
18	0x3cd7bf60	0.026336372
19	0xbcc34c6d	-0.023840154
20	0x3ca36c44	0.019949086
21	0xbc885343	-0.016641265
22	0xbdad6fd6	-0.08468597
23	0x3d048aa9	0.0323588
24	0xbc23e6e4	-0.010003779
25	0xbddbba89	-0.10728938
26	0xbd9ba353	-0.07599511
27	0xbde5ae6b	-0.11214908
28	0x3d43f5e9	0.04784194
29	0x3d3e153f	0.04640698
30	0x3d9eabc1	0.07747603
31	0x3d89a9f0	0.06721866
32	0x3d658954	0.05603917
33	0xbd2bec09	-0.041973148
34	0xbdbd31cb	-0.09238013
35	0xbb19c685	-0.0023464274
36	0xbdc3643a	-0.09540601
37	0x3dc19890	0.09452927
38	0x3de83623	0.11338451
39	0xbd9a7e80	-0.07543659
40	0xbe06cc91	-0.13163973
41	0xbe269f33	-0.16271667
42	0xbddd03d4	-0.10791746
43	0xbcdb13bc	-0.026742809
44	0x3db8aea4	0.09017685
45	0x3d484c70	0.04890102
46	0xbcf7a28a	-0.030228872
47	0xbbf99f5d	-0.0076178745
48	0xbd8e9c8d	-0.069634534
49	0x3d90445b	0.07044288
50	0xbc57a363	-0.013161513
51	0xbd96278a	-0.0733176
52	0xbdb27ca3	-0.08715179
53	0xbcdb3998	-0.026760861
54	0x3cd1f814	0.025630988
55	0x3da453a7	0.08023768
56	0xbdd4fe11	-0.10400022
57	0xbda0bf8b	-0.07849034
58	0xbdf7cb34	-0.12099305
59	0xbd520495	-0.0512739
60	0x3de86e34	0.113491446
61	0x3c8d5ad6	0.017255228
62	0xbdd4a70c	-0.10383424
63	0x3cc84089	0.024444835
64	0x3dca16bf	0.0986762
65	0xbbe693a0	-0.0070366412
66	0x3e3060d1	0.17224433
67	0x3e0eee5f	0.13958119
68	0xbdd3be6d	-0.10339055
69	0x3ddf1840	0.10893297
70	0xbdc6b79b	-0.09702989
71	0x3ddd793e	0.10814141
72	0xbd9ddc77	-0.07708066
73	0x3dca6f31	0.09884489
74	0x3c77e6a8	0.015130676
75	0xbe77cd10	-0.24199319
76	0x3db0e15c	0.08636734
77	0x3e3c0a7a	0.18363371
78	0x3d4fc076	0.050720654
79	0x3da10bf7	0.0786361
80	0x3d500b05	0.05079176
81	0x3afc0211	0.001922669
82	0x3d479307	0.0487242
83	0x3c1dfdeb	0.009643058
84	0x3e85a3c1	0.26101497
85	0x3e984f44	0.29747975
86	0x3e1f4526	0.15553722
87	0xbd55eaae	-0.05222576
88	0x3c9f2f7a	0.019431818
89	0x3dcf4b66	0.10121803
90	0xbcf2effc	-0.02965545
91	0xbda53387	-0.08066469
92	0x3d7b7fd7	0.061401214
93	0x3e1f3ddc	0.15550941
94	0x3d907da3	0.07055213
95	0xbe96c657	-0.29448196
96	0xbdee3ffd	-0.116332985
97	0x3d33654e	0.043797784
98	0x3d9e8016	0.07739274
99	0x3d7682bf	0.060183283
100	0x3d15678e	0.03647571
101	0x3bf96aaf	0.0076115946
102	0xbd8acec2	-0.06777717
103	0xbda3bf20	-0.079954386
104	0xbdf49340	-0.11942148
105	0xbc802684	-0.015643366
106	0x3dccb661	0.099957235
107	0xbd509d3a	-0.050931193
108	0x3b9106c2	0.0044258544
109	0xbded0196	-0.11572568
110	0x3dce02ba	0.10059114
111	0x3d8124ad	0.063058235
112	0x3d629b59	0.055323932
113	0xbd56ada5	-0.052411694
114	0x3dea2db9	0.11434502
115	0xbc86670d	-0.01640656
116	0xbbd97ee2	-0.00663744
117	0xbdc846b3	-0.0977911
118	0x3d31ee09	0.0434399
119	0xbd78a1c3	-0.060701143
120	0xbda3d277	-0.07999127
121	0xb9af98db	-0.00033492487
122	0xbdccacbb	-0.09993883
123	0x3da6ba43	0.08140995
124	0x3dbf0095	0.09326283
125	0xbd93bc38	-0.07213634
126	0xbda8b0fa	-0.082368806
127	0xbd9d5e3b	-0.07683989
128	0x3b8af302	0.0042403946
129	0x3da952a1	0.08267713
130	0x3d9f8de8	0.07790738
131	0xbd297c82	-0.041378506
132	0x39ba8b2a	0.0003558037
133	0xbd992ab5	-0.07478849
134	0x3d2365b6	0.03989192
135	0xbcb9df65	-0.02268953
136	0xbda79bd2	-0.08184017
137	0x3d6aaa4e	0.05729132
138	0xbcd24b13	-0.025670564
139	0x3de73494	0.11289325
140	0x3dcb6465	0.09931258
141	0xbd6584f3	-0.056034993
142	0xbd9b9d5a	-0.07598372
143	0xbbe75eaf	-0.0070608477
144	0x3c5ea21a	0.013588453
145	0xbd1a3c10	-0.037654936
146	0x3d359ba3	0.04433788
147	0xbd8dca35	-0.069233336
148	0xbdfd93e9	-0.12381727
149	0x3b2a693e	0.002600267
150	0xbd89d92e	-0.06730877
151	0xbcced932	-0.025250051
152	0x3d9587c2	0.073012844
153	0xbda4e080	-0.080506325
154	0x3d22add9	0.039716575
155	0x3d8342d4	0.06409231
156	0xbe4fe8d7	-0.20303665
157	0xbdfe2d83	-0.124110244
158	0x3e3aa499	0.18226852
159	0xbdd2cc6e	-0.10292898
160	0x3dda02e8	0.106450856
161	0x3ded4ca2	0.11586882
162	0x3d8bfb66	0.0683506
163	0x3ca9f36d	0.020745957
164	0xbbe03253	-0.0068419366
165	0xbd9f5b2b	-0.07781061
166	0x3dedd045	0.1161199
167	0xbd7652c7	-0.060137536
168	0xbdc86212	-0.097843304
169	0xbbeead92	-0.007283875
170	0xbc175cfb	-0.009238477
171	0xbc6d3691	-0.014478342
172	0xbd2e0ed2	-0.042494603
173	0x3d498d7b	0.049207192
174	0xbe3ddacd	-0.18540497
175	0x3ddfe965	0.10933188
176	0x3e325d66	0.17418441
177	0x3c36de7a	0.011161441
178	0xbda09ca4	-0.07842377
179	0x3de504a2	0.11182524
180	0x3ddaebd3	0.10689511
181	0xbd01dad0	-0.031702816
182	0xbd8d4f33	-0.06899872
183	0xbd88c734	-0.0667862
184	0x3df401d5	0.11914412
185	0x3df975f5	0.12180702
186	0xbde9ddd7	-0.11419266
187	0xbc841595	-0.016123572
188	0xbdb6e595	-0.08930508
189	0x3b4defff	0.0031423566
190	0xbcbb95a0	-0.022898495
191	0xbd3cace3	-0.046063315
192	0xbc1c34ea	-0.0095341
193	0xbdafad12	-0.085779324
194	0x3e0df8c4	0.13864428
195	0xbccfbbf1	-0.025358172
196	0x3dbde07f	0.09271335
197	0x3d8e018f	0.06933891
198	0x3b39a95c	0.0028329706
199	0xbc380e1f	-0.0112338355
200	0xbdcbc63c	-0.099499196
201	0x3dc26ec9	0.09493787
202	0x3d2d2e48	0.042280465
203	0xbc3b33a1	-0.0114258835
204	0x3a91f386	0.0011135198
205	0x3ce6f2b3	0.0281919
206	0x3daf54a4	0.08561066
207	0x3d82f365	0.0639408
208	0xbdd14d88	-0.10219866
209	0x3caadf56	0.020858448
210	0xbd2e2ef8	-0.04252526
211	0xbda54e01	-0.08071519
212	0xbdaaa23d	-0.08331726
213	0x3d355299	0.044268224
214	0xbcfdf366	-0.03099985
215	0x3cf3af0d	0.029746557
216	0xbdd389f5	-0.103290476
217	0x3d63c876	0.055611096
218	0xbd2d8847	-0.042366292
219	0x3dff9a9c	0.12480661
220	0x3e09ee06	0.13469705
221	0x3e0a9742	0.13534263
222	0xbcf5ee49	-0.03002085
223	0xbda04645	-0.07825903
224	0xbd825df8	-0.06365579
225	0xbd3b52f7	-0.04573342
226	0x3d52b528	0.051442295
227	0x3dcdb47d	0.10044191
228	0xbec1b433	-0.37832794
229	0xbda4d017	-0.080475025
230	0x3da979e1	0.082752
231	0x3d8047a7	0.062636666
232	0xbdbf6246	-0.09344916
233	0xbc3514cd	-0.011052323
234	0xbdb46695	-0.088086285
235	0xbd09a566	-0.033605002
236	0x3d4d4875	0.05011793
237	0xbc50424e	-0.012711121
238	0x3d99c70a	0.07508667
239	0xbe4fc2c1	-0.20289136
240	0x3da255cd	0.079265215
241	0xbda05891	-0.07829393
242	0xb9c63053	-0.00037801507
243	0xbd8efc75	-0.06981746
244	0x3d9b6cd9	0.075891204
245	0x3d995daa	0.07488568
246	0xbca9bae2	-0.020718995
247	0xbe2f5545	-0.17122371
248	0xbe2a79bb	-0.16647999
249	0x3de437f6	0.11143486
250	0x3d24bebc	0.04022096
251	0xbd26b17f	-0.040696617
252	0x3d8736c3	0.06602242
253	0x3dcc73c4	0.09983018
254	0x3ddcbb1b	0.10777875
255	0x3d188b67	0.03724232

0.w_hh.bias f4 [8]
0	0xbe01c655	-0.12673314
1	0xbdb922f6	-0.090398714
2	0xbb6e862e	-0.0036395895
3	0xbb7e38be	-0.0038791145
4	0x3e0d8c3c	0.13823026
5	0x3c06c628	0.008225955
6	0x3d849724	0.0647414
7	0xbe1b0e86	-0.15142259

1.w_ih.weight f4 [16, 8, 3, 3]
0	0xbcf7271f	-0.030170022
1	0xbd566402	-0.05234147
2	0xbdd0455b	-0.101694785
3	0x3df2a91a	0.1184866
4	0x3db34869	0.087540455
5	0x3c0cd5b2	0.008595871
6	0x3be85ea8	0.007091362
7	0x3c08aac3	0.008341494
8	0x3b082094	0.0020771371
9	0x3dabb0f1	0.08383358
10	0xbaf9c2f4	-0.0019055293
11	0xbdc8112a	-0.09768899
12	0x3d6695a8	0.056295067
13	0x3d39bec1	0.045347933
14	0xbe544408	-0.20729077
15	0x3de4b5ee	0.11167513
16	0xbba21d83	-0.0049473657
17	0x3db69b00	0.08916283
18	0xbce2e595	-0.027697364
19	0xbdc0bdc7	-0.09411197
20	0xbb12b509	-0.0022385737
21	0xbdfda497	-0.12384909
22	0xbe48722f	-0.19574808
23	0x3d0107cf	0.031501587
24	0xbc6c628d	-0.014427793
25	0xbc48c2f0	-0.012253508
26	0xbd7f810f	-0.06237894
27	0xbdd62abc	-0.1045737
28	0x3daefeb5	0.08544675
29	0x3d8bc605	0.068248786
30	0xbdd911d6	-0.10599105
31	0x3d4f7b21	0.050654534
32	0x3d05eead	0.032698322
33	0xbdb71cce	-0.08941041
34	0x3d37c5d9	0.044866417
35	0x3d52101b	0.05128489
36	0x3daaf848	0.08348137
37	0xbc8bf74f	-0.0170857
38	0x3d7f2195	0.062287886
39	0xbe44136d	-0.19148035
40	0xbd8d677c	-0.06904504
41	0x3d7da012	0.061920233
42	0x3dc6891b	0.096941195
43	0xbd2c292f	-0.042031463
44	0xbde8a11f	-0.113588564
45	0xbdb19d0b	-0.08672532
46	0xbce3c4a5	-0.027803728
47	0xbdba1873	-0.090866946
48	0xbdc3ff0e	-0.09570132
49	0xbdaf150d	-0.08548937
50	0x3d4c0e3e	0.04981827
51	0x3d17f267	0.037096407
52	0xbdb0c473	-0.0863122
53	0xbd37e877	-0.04489943
54	0x3dc630b7	0.0967726
55	0xbdd91672	-0.10599984
56	0x3d4c795d	0.04992043
57	0xbdd09b7a	-0.10185905
58	0xbc4876ab	-0.012235324
59	0xbde710c1	-0.112824924
60	0xbbc0a128	-0.0058785863
61	0xbd1039b3	-0.035211276
62	0x3d8567f6	0.065139696
63	0xbcccc7ed	-0.024997676
64	0xbd757be5	-0.05993261
65	0xbd7b23dc	-0.061313495
66	0x3e2422cd	0.160289
67	0x3da314b7	0.079629354
68	0x3d75b2cd	0.05998497
69	0xbdb3bcde	-0.08776258
70	0xbdeae6e5	-0.11469821
71	0xbdb87e30	-0.09008443
72	0xbb5f4645	-0.0034068984
73	0x3d79b14a	0.06096009
74	0x3dbc0f25	0.09182576
75	0xbd6c0907	-0.057625797
76	0x3dc8dedf	0.09808134
77	0x3e222226	0.15833339
78	0xbca3966e	-0.019969191
79	0xbdbd923e	-0.09256409
80	0xbd8fff64	-0.07031134
81	0x3b9d88e5	0.004807579
82	0xbcbf7ba6	-0.02337439
83	0x3ced0209	0.028931635
84	0x3d74cbb5	0.059764583
85	0x3ded1e56	0.11578052
86	0x3d658344	0.056033388
87	0x3de35ee5	0.11102084
88	0xbcfcae74	-0.030844904
89	0xbdb572ca	-0.08859785
90	0xbd8fcfa2	-0.07022025
91	0xbd4b474a	-0.049628533
92	0xbde01234	-0.10940972
93	0x3df015db	0.117229186
94	0xbdbb296b	-0.09138759
95	0xbdd532cc	-0.10410079
96	0xbd48ef38	-0.04905626
97	0xbd9604a0	-0.07325101
98	0xbd2d3a5d	-0.042291988
99	0xbdd62f45	-0.10458235
100	0xbc91b6b6	-0.017787319
101	0xbdc5d4f1	-0.09659756
102	0x3e42aeea	0.19012037
103	0x3e68136f	0.22663663
104	0x3d9fe40e	0.0780717
105	0xbc871049	-0.016487258
106	0x3d82d30d	0.06387911
107	0x3dd36e0c	0.10323724
108	0xbdb96afb	-0.09053608
109	0x3da51844	0.08061269
110	0xbd05e8af	-0.032692607
111	0x3c4a018d	0.012329471
112	0xbe1f9fd6	-0.15588316
113	0xbe9dca42	-0.30818373
114	0x3cfea407	0.031084074
115	0xbcc1b87e	-0.023647543
116	0x3c403b28	0.011732854
117	0x3d5adfc6	0.053436063
118	0x3d3fca41	0.046823744
119	0x3dc7277f	0.0972433
120	0x3e2e1ed1	0.17003943
121	0x3e112346	0.14173612
122	0x3e7f5b12	0.24937084
123	0x3c9e152a	0.019297201
124	0x3d6c923d	0.05775665
125	0xbd21bbbd	-0.03948568
126	0xbc13b699	-0.009015703
127	0x3d216d1e	0.039410703
128	0xbdb37084	-0.08761695
129	0xbd8c68e0	-0.06855941
130	0xbdeaa3a0	-0.1145699
131	0xbd854a46	-0.06508307
132	0xbdc729a0	-0.09724736
133	0x3dd2d6cb	0.10294875
134	0xbd822456	-0.06354587
135	0xbdf102c6	-0.11768107
136	0xbdca8d3b	-0.09890219
137	0x3d819af6	0.063283846
138	0xbd960b04	-0.0732632
139	0x3e4c8283	0.19971661
140	0x3e5a0f71	0.21294953
141	0x3876c7c0	5.8837002e-05
142	0x3b80afdf	0.0039272155
143	0xbd4cd900	-0.050011635
144	0xbda678a4	-0.08128479
145	0xbd754f73	-0.05989022
146	0x3cab2da6	0.02089579
147	0x3df6e45e	0.12055276
148	0x3d7dc19e	0.061952226
149	0xbe0cdcab	-0.13756053
150	0xbdd2f84d	-0.10301266
151	0xbcf5e903	-0.030018335
152	0xbcf2a3cc	-0.02961912
153	0xbcb9f3c9	-0.022699254
154	0xbddb45c6	-0.107066676
155	0x3b283125	0.0025664058
156	0x3e159902	0.14609149
157	0xbe4d740b	-0.20063798
158	0xbea12e54	-0.31480658
159	0xbdaca4b7	-0.08429854
160	0xbd2c0d05	-0.042004604
161	0xbc60fae9	-0.013731697
162	0x3de156e4	0.11002901
163	0x3ca99e6d	0.020705426
164	0xbddf6330	-0.109075904
165	0xbdcd0256	-0.10010211
166	0x3c8b0873	0.016971802
167	0x3d5e05b2	0.05420465
168	0x3ac9f2ef	0.0015407483
169	0x3decb48c	0.11557874
170	0xbd86a8aa	-0.06575139
171	0x3cbca799	0.023029136
172	0xbc4f810b	-0.012665044
173	0xbc9f0807	-0.019413007
174	0xbc2dd598	-0.010610007
175	0xbdabf8b0	-0.08397043
176	0x3c051db8	0.008124761
177	0x3d4ff908	0.050774604
178	0x3de2c147	0.11072021
179	0x3dbfd000	0.09365845
180	0xbd0540f8	-0.032532662
181	0x3dcae2ce	0.09906541
182	0xbd451c99	-0.048122976
183	0xbd9575fe	-0.07297896
184	0x3d55518c	0.052079722
185	0x3dfc986d	0.123337604
186	0xbd5baa60	-0.05362928
187	0x3d4f6baf	0.050639804
188	0x3d40af5f	0.047042247
189	0xbda2b1ae	-0.07944046
190	0xbd4c3aa3	-0.049860608
191	0x3d7fc3ce	0.062442593
192	0xbaa3e4a2	-0.0012504051
193	0x3d4419ee	0.04787629
194	0x3cc77ece	0.024352457
195	0x3d4936a3	0.04912437
196	0xbc98cae8	-0.01865144
197	0xbcca7027	-0.024711682
198	0x3d35e369	0.04440633
199	0x3d8c6af7	0.068563394
200	0x3c6972b9	0.014248543
201	0xbc046b5c	-0.008082237
202	0xbd0605e4	-0.03272046
203	0xbd5835d3	-0.052785706
204	0xbd98a09d	-0.074525096
205	0x3d25e391	0.040500227
206	0xbdda1db8	-0.106502
207	0xbc602dca	-0.013682792
208	0x3c43b61c	0.011945274
209	0xbd9c5cbf	-0.076348774
210	0x3e59345a	0.21211377
211	0x3d85a0e5	0.06524829
212	0xbd3ea84d	-0.046547223
213	0x3db249f0	0.08705509
214	0xbcf8e13d	-0.03038084
215	0x3d863a30	0.06554067
216	0xbdc813f1	-0.097694285
217	0x3d957f63	0.07299688
218	0xbd01d586	-0.031697772
219	0xbe71567f	-0.23568152
220	0xbe43bfc1	-0.19116117
221	0xbd1b0305	-0.037844677
222	0xbccfce8f	-0.02536705
223	0x3dea13c4	0.11429551
224	0xbd86ed12	-0.06588186
225	0xbd9cca0c	-0.07655725
226	0xbcf6628b	-0.030076286
227	0x3dd7453e	0.10511254
228	0xbe555334	-0.2083252
229	0x3df8dfe9	0.121520825
230	0x3ec36794	0.3816496
231	0xbc25b9b3	-0.010115075
232	0xbd0f283d	-0.034950484
233	0x3df00a37	0.11720698
234	0xbd84e9c9	-0.064899035
235	0xbd32a24a	-0.043611802
236	0x3cdd1f3a	0.026992429
237	0x3e904435	0.28177038
238	0x3e595674	0.21224385
239	0x3c4c51d6	0.012470683
240	0x3ca03c81	0.0195601
241	0xbbcb7f63	-0.006210254
242	0xbdb55bda	-0.0885541
243	0x3d026db7	0.031842913
244	0xbd8e456c	-0.06946835
245	0x3dcc8c81	0.099877365
246	0xbdae8594	-0.08521572
247	0xbd484630	-0.04889506
248	0xbacb4658	-0.0015508635
249	0x3cd7da5d	0.02634924
250	0xbbc03516	-0.0058657033
251	0xbd99fc28	-0.07518798
252	0x3d8514b1	0.06498087
253	0xbd639203	-0.05555917
254	0xbdf02b0c	-0.117269605
255	0x3dff4f97	0.124663524

1.w_hh.weight f4 [16, 16, 3, 3]
0	0x3cee3b5b	0.029081037
1	0x3d987a0a	0.07445152
2	0x3c1ddf80	0.009635806
3	0xbc7e5fb6	-0.015525749
4	0x3d77494d	0.06037264
5	0xbdaf8e7f	-0.08572101
6	0xbcb3d746	-0.021953236
7	0xbd8fc0f6	-0.07019226
8	0xbda45e27	-0.08025771
9	0xbd603dce	-0.05474644
10	0xbcf402d0	-0.029786497
11	0xbd95645f	-0.07294535
12	0xbd9a2d44	-0.07528165
13	0x3d1b6b4f	0.037944134
14	0xbd29e723	-0.041480195
15	0x3b515300	0.003194034
16	0xbcb86bbb	-0.022512307
17	0x3d3bb8fb	0.045830708
18	0x3d01ecab	0.031719845
19	0x3d1823c3	0.03714348
20	0x3c7fa66b	0.015603642
21	0xbdbe1b19	-0.09282512
22	0xbaf1291a	-0.001839909
23	0xbd9d17d1	-0.07670558
24	0x3cef0896	0.029178899
25	0xbd9755dc	-0.07389423
26	0xbb9c33d6	-0.0047669215
27	0xbd9b5cc3	-0.07586052
28	0x3d73775b	0.059439998
29	0x3cc254cb	0.023722073
30	0x3cd3e777	0.025867207
31	0xbdb33c08	-0.087516844
32	0x3d28f78f	0.041251715
33	0x3c646860	0.013940901
34	0x3c2e0df6	0.010623446
35	0x3bae85d6	0.005326013
36	0xbd398d98	-0.04530105
37	0xbc35a3c0	-0.011086404
38	0xbcd961f0	-0.026535958
39	0x3d5ce6ec	0.05393116
40	0x3d433107	0.047654178
41	0x3ddc11ba	0.107455686
42	0x3d92e61c	0.07172796
43	0x3d739d8e	0.059476428
44	0x3b866240	0.004101068
45	0x3ce844ab	0.028353056
46	0x3d67a4be	0.056553595
47	0x3d4500c0	0.04809642
48	0xbd771e69	-0.060331736
49	0x3c584c03	0.013201716
50	0x3d97226a	0.07379611
51	0x3d9e54f7	0.077310495
52	0xbd8db0c4	-0.06918481
53	0xbd0c8f86	-0.034316562
54	0xbd12e7a0	-0.035865426
55	0x3c941960	0.018078506
56	0x3d93acf0	0.072107196
57	0x3d0f4b0c	0.03498368
58	0xbd127da0	-0.035764337
59	0x3b895446	0.0041909544
60	0x3d240cee	0.040051393
61	0x3d733898	0.059380144
62	0xbc8bc1db	-0.01706021
63	0x3d8adc4e	0.06780301
64	0x3c8071f6	0.01567934
65	0xbd5c78c3	-0.053826105
66	0xbd13176b	-0.035911005
67	0xbc0009d5	-0.007814844
68	0xbd4b3354	-0.049609497
69	0xbd8dfc5c	-0.06932899
70	0x3b536380	0.0032255352
71	0xbd7c3d6b	-0.06158201
72	0xbb861780	-0.004092157
73	0xbc6cfaeb	-0.01446412
74	0xbd79b84b	-0.06096677
75	0x3dc51e6f	0.09624945
76	0x3d6ca48d	0.057774115
77	0xbd266778	-0.04062602
78	0xbbe5beab	-0.007011255
79	0x3d9f3a1c	0.07774755
80	0xbc1cfe36	-0.009582093
81	0x3d001c88	0.03127721
82	0x3d8da55a	0.06916304
83	0xbd6d8f30	-0.057997882
84	0x3cd20793	0.025638377
85	0xbd90a432	-0.07062568
86	0xbab5a55e	-0.0013858487
87	0x3d6d828b	0.057985824
88	0xbd157dab	-0.0364968
89	0xbd7de1fb	-0.06198309
90	0x3d4859c0	0.048913717
91	0xbda82eea	-0.08212073
92	0xbd99e317	-0.07514017
93	0x3ddd0040	0.10791063
94	0x3db4208c	0.0879527
95	0xbd377006	-0.04478457
96	0x3cea1736	0.028575521
97	0xbd181cc0	-0.037136793
98	0x3d972cec	0.07381615
99	0xbd88d72c	-0.06681666
100	0xbcba022b	-0.022706112
101	0x3d099aee	0.033595018
102	0x3d6cb847	0.057792928
103	0xbdbffe4c	-0.09374675
104	0x3c15d1a2	0.009144219
105	0x3d067480	0.032825947
106	0xbd5eec90	-0.054424822
107	0xbca3e026	-0.020004343
108	0xbcad9246	-0.021187913
109	0xbc13afc0	-0.00901407
110	0x3d7a18ae	0.061058693
111	0xbc9c9ce1	-0.019117774
112	0xbca30b0a	-0.019902725
113	0x3de728d1	0.11287082
114	0x3d2e1ddb	0.04250894
115	0xbd88c2a6	-0.06677751
116	0x3d97a0f6	0.07403748
117	0xbb9c4d56	-0.0047699613
118	0x3d71f6a0	0.05907309
119	0xbcda17bb	-0.026622644
120	0xbd287ef3	-0.041136693
121	0xbd36fef0	-0.04467672
122	0x3cff5bf0	0.031171769
123	0xbb7fb680	-0.003901869
124	0xbb95aec0	-0.004567951
125	0x3da8f57e	0.08249949
126	0x3d2363a3	0.039889943
127	0xbd4b0ade	-0.04957091
128	0xbd0a235e	-0.033725135
129	0x3b57a3f7	0.0032904127
130	0x3c5becd6	0.013423165
131	0x3d2ed5dc	0.04268442
132	0x3cd63600	0.026148796
133	0x3d89817b	0.067141496
134	0x3d17ce96	0.03706225
135	0xbd3905b6	-0.045171462
136	0xbc3e32e0	-0.011608809
137	0xbd3903ab	-0.045169514
138	0x3d487da2	0.048947938
139	0xbdd672c1	-0.10471106
140	0xbbf120b1	-0.0073586334
141	0x3d4e5973	0.050378274
142	0x399782ab	0.0002889832
143	0xbba7926b	-0.00511389
144	0x3d0238bb	0.031792384
145	0x3d9cf743	0.07664349
146	0x3c6a22c0	0.014290512
147	0xbcaa8440	-0.020815015
148	0x3d136270	0.03598255
149	0xbd5d773e	-0.054068796
150	0x3d44a800	0.04801178
151	0x3d72e153	0.059296917
152	0x3d14a93b	0.036294203
153	0x3d63dd23	0.055630814
154	0xbda70236	-0.081547186
155	0xbd16d97b	-0.0368285
156	0x3e36f9e0	0.17868757
157	0x3e8e7f1a	0.27831346
158	0x3dd8daf4	0.10588637
159	0xbc9fab10	-0.019490749
160	0x3d35fe8e	0.044432215
161	0x3d71d0d3	0.05903704
162	0x3d2e5f20	0.042571187
163	0x3ce5c34b	0.028047225
164	0xbc4b6f60	-0.012416691
165	0xbe3792b6	-0.1792706
166	0x3bfa611f	0.0076409723
167	0x3c256194	0.010094065
168	0xbd9605ff	-0.073253624
169	0x3d96abbb	0.07356974
170	0xbd2ecd43	-0.04267622
171	0x3d966572	0.07343568
172	0x3da42a57	0.08015888
173	0x3d57552e	0.052571468
174	0x3e120bdc	0.14262336
175	0x3d607e59	0.054807995
176	0xbdee569e	-0.11637615
177	0xbd4104b0	-0.04712361
178	0x3d7f7258	0.062364906
179	0xbcc43960	-0.02395314
180	0x3cbc28eb	0.02296873
181	0xbc606be0	-0.013697594
182	0x3d15a480	0.036533833
183	0xbdfd389d	-0.12364314
184	0xbe942b21	-0.28939155
185	0xbc4d328b	-0.012524257
186	0xbd80f97b	-0.062975846
187	0xbc9201f6	-0.0178232
188	0xbc2c1ceb	-0.010504941
189	0x3da9894a	0.08278139
190	0xbc579c4b	-0.013159822
191	0x3d10be3b	0.035337668
192	0x3de85e69	0.11346132
193	0x3b30c2b1	0.0026971514
194	0x3c8334d4	0.016016401
195	0x3d95ae2e	0.07308613
196	0x3d98ed07	0.074670844
197	0x3cf268c6	0.029590975
198	0xbb1e8d56	-0.002419313
199	0x3d99cc82	0.0750971
200	0x3d91cd88	0.0711928
201	0xbe176028	-0.14782774
202	0xbd7e459f	-0.062078115
203	0x3bbe69dd	0.0058109597
204	0xbd421610	-0.04738432
205	0xbd7d7878	-0.061882466
206	0xbd9232fa	-0.07138629
207	0x3d8e3c62	0.06945111
208	0xbd4d7bc0	-0.050166845
209	0x3c5cc94b	0.013475726
210	0xbe2a12e4	-0.16608769
211	0xbc8da1bd	-0.017289037
212	0x3d646178	0.055757016
213	0x3c938556	0.018007915
214	0x3d7e6f5e	0.062117927
215	0xbd84da8a	-0.064869955
216	0xbd80a76b	-0.062819324
217	0xbd84048a	-0.06446178
218	0x3c92940b	0.017892858
219	0x3da46649	0.08027322
220	0xbd963f7f	-0.0733633
221	0xbd81e66c	-0.063427776
222	0xbd35d50b	-0.044392627
223	0xbca7965b	-0.020457437
224	0xbd7de5f0	-0.061986864
225	0x3d807282	0.06271841
226	0xbda4ad62	-0.08040883
227	0x3d5a1898	0.05324611
228	0x3c44fc20	0.012023002
229	0xbcefbf69	-0.029266076
230	0xbe0fe72f	-0.14053033
231	0xbcc7fa80	-0.02441144
232	0x3c7ecf80	0.015552402
233	0x3cf66010	0.030075103
234	0xbd813b43	-0.063101314
235	0x3d2e013e	0.042481653
236	0x3be151d6	0.0068762107
237	0xbe45495a	-0.19266263
238	0xbda1f94c	-0.07908878
239	0x3dd541be	0.1041293
240	0xbcaa3bab	-0.020780405
241	0xbbebf4c0	-0.0072008073
242	0x3d18181e	0.037132375
243	0xbb33e756	-0.002745112
244	0x3da787c4	0.08180192
245	0x3c941440	0.018076062
246	0x3df9952f	0.12186658
247	0x3cab39a9	0.020901518
248	0xbdd60d75	-0.104517855
249	0x3cdad9c0	0.02671516
250	0xbd294560	-0.041325927
251	0x3d0f8478	0.03503844
252	0x3d40d2fe	0.047076218
253	0xbd4d8f6e	-0.050185613
254	0xbc0d6796	-0.008630654
255	0xbda18847	-0.07887321

1.w_hh.bias f4 [16]
0	0xbd299d78	-0.04140994
1	0xbe190740	-0.14944172
2	0xbd03b443	-0.032154333
3	0x3a01ddae	0.00049539923
4	0x3c3ec9cd	0.011644793
5	0x3db4495c	0.08803055
6	0xbdac5694	-0.08414951
7	0x3d66d02d	0.056350876
8	0xbc0b332b	-0.008496086
9	0x3d1d4a0e	0.038400702
10	0x3dbd1ad6	0.09233634
11	0x3d8b3c3d	0.06798599
12	0xbcfe155e	-0.031016048
13	0x3c932259	0.017960714
14	0x3ce22200	0.027604103
15	0x3d0d840b	0.034549754

3.weight f4 [100, 1024]
0	0xbca35cae	-0.019941654
1	0xbd5adcdc	-0.053433284
2	0xbd772684	-0.060339466
3	0xbc8cb3db	-0.017175606
4	0xbaf0cfcf	-0.0018372479
5	0xbcbd01dd	-0.023072178
6	0xbd9d0bb0	-0.07668245
7	0xbd1496ef	-0.036276754
8	0xbc57cfe0	-0.01317212
9	0xbca9f629	-0.020747261
10	0x3d421ead	0.047392536
11	0x3d13aff2	0.036056466
12	0x3c3dbda3	0.011580857
13	0xbd09cc54	-0.033642128
14	0xbdcba661	-0.09943844
15	0xbd2be64d	-0.04196768
16	0xbddefee3	-0.108884595
17	0xbd9e367d	-0.077252366
18	0xbd597ac1	-0.053095583
19	0xbd054d33	-0.032544326
20	0x3c3d51bb	0.011555131
21	0xbca28183	-0.019837147
22	0xbc931f13	-0.017959153
23	0xbcbde2ae	-0.023179378
24	0x3c8de193	0.017319476
25	0x3d87ea15	0.066364445
26	0x3aa56fa6	0.0012621775
27	0x3d77cb8c	0.06049685
28	0x3d4d64d3	0.05014498
29	0x3c4d3471	0.01252471
30	0xbc99a4a7	-0.01875527
31	0x3d5360c3	0.05160595
32	0x3d922f12	0.07137884
33	0x3d5b3838	0.05352041
34	0x3cb902a2	0.022584263
35	0x3cb2b2ce	0.021813776
36	0x3d3cdac6	0.046107076
37	0x3d8d2181	0.06891156
38	0x3da0a8c3	0.07844689
39	0x3db87f00	0.09008598
40	0x3de35206	0.11099629
41	0x3d63c46e	0.05560725
42	0x3dc3c2ee	0.09558664
43	0x3dd82f68	0.10555917
44	0x3dc27ade	0.09496091
45	0x3d55d5d2	0.052205868
46	0x3d09a918	0.033608526
47	0xbc42a1b8	-0.011879377
48	0x3d67d8d2	0.05660326
49	0x3d71ed3a	0.059064128
50	0xbc6d7b1f	-0.014494686
51	0xbbf11cf5	-0.0073581883
52	0xbc8c62b2	-0.017136905
53	0xbde7fa22	-0.11327006
54	0xbdca519a	-0.098788455
55	0xbdfec62a	-0.124401405
56	0xbe4454a5	-0.19172914
57	0xbdcfa8cd	-0.10139618
58	0xbd6f8115	-0.05847271
59	0xba2fabc0	-0.0006701313
60	0x3d3adba4	0.045619622
61	0x3d693b67	0.056941416
62	0x3c5ec3be	0.013596473
63	0xbc87d8e2	-0.01658291
64	0xbdbefa68	-0.09325105
65	0x3d59d315	0.05317982
66	0x3c314bad	0.010821265
67	0xbceb8678	-0.028750643
68	0x3ca4ba37	0.020108325
69	0xbd2874d6	-0.04112705
70	0xbac49b81	-0.0014999957
71	0xbd46ad42	-0.048505075
72	0x3c6cfd9f	0.014464765
73	0x3b89eb32	0.0042089457
74	0xbd9a027b	-0.07520004
75	0xbdd41fd6	-0.10357635
76	0xbdbe2577	-0.092844896
77	0xbd8f244d	-0.06989346
78	0xbc0e114a	-0.008671114
79	0x3dc00277	0.0937547
80	0x3d9eece4	0.07760027
81	0x3db98ed1	0.09060443
82	0x3d6f3890	0.05840355
83	0x3db0ef53	0.086393975
84	0x3d2db478	0.042408437
85	0xbd895e80	-0.067074776
86	0xbd2300e4	-0.03979577
87	0x3d3e2dcc	0.046430394
88	0xbcdb4df3	-0.026770568
89	0xbe1f1a10	-0.15537286
90	0xbdf534a7	-0.11972933
91	0xbda001f2	-0.07812871
92	0xbe1a5a1a	-0.15073434
93	0xbd4eaf45	-0.05046012
94	0x3c302a3a	0.010752255
95	0x3b044f4a	0.0020188862
96	0xbd842650	-0.0645262
97	0xbcfb5e8a	-0.030684728
98	0x3c8a86f2	0.01691005
99	0xbd76e5f0	-0.06027788
100	0xbced4036	-0.028961282
101	0xbd9badd9	-0.07601518
102	0xbdc34de4	-0.09536341
103	0xbca6de3e	-0.020369645
104	0x3d2483ef	0.040164884
105	0x3c0698d9	0.008215153
106	0xbd20ea73	-0.03928609
107	0xbd8fdf6f	-0.070250385
108	0xbda43830	-0.080185294
109	0xbe126f27	-0.14300214
110	0xbe0840af	-0.13305925
111	0xbdae3b65	-0.08507422
112	0xbdd56815	-0.10420243
113	0xbdbe810a	-0.09301956
114	0xbde6c6f7	-0.11268418
115	0xbd01abdb	-0.031658035
116	0xbced0a96	-0.028935712
117	0xbd5ed66c	-0.054403707
118	0xbcc53573	-0.024073338
119	0x3deaf63f	0.11472749
120	0x3e0eb879	0.13937558
121	0x3e5ee926	0.21768627
122	0x3e91f72e	0.28508896
123	0x3d9e593a	0.07731862
124	0x3d73e137	0.059540953
125	0xbc64ba45	-0.013960426
126	0xbde5a65f	-0.112133734
127	0xbcb0d7c7	-0.021587266
128	0x3ba55c02	0.0050463686
129	0xbda4a3e3	-0.080390714
130	0x3bcc30e5	0.0062314146
131	0x3c2d8792	0.0105914045
132	0xbc0c20d4	-0.008552749
133	0xbd38236e	-0.044955663
134	0xbd5bfbd3	-0.053706955
135	0x3c904792	0.017612252
136	0xbbb337d8	-0.0054693036
137	0xbd85e190	-0.06537163
138	0x3d01aa11	0.03165633
139	0xbd2b4d1d	-0.041821588
140	0xbdd39f96	-0.10333173
141	0xbe046326	-0.12928447
142	0xbe31b4cd	-0.17354126
143	0xbe0fd14c	-0.14044684
144	0xbdd585f0	-0.10425937
145	0xbd982734	-0.074293524
146	0xbcdabb28	-0.026700571
147	0x3bb0956d	0.0053889067
148	0x3cb46217	0.02201943
149	0xbc71876e	-0.014741762
150	0xbc88b735	-0.016688922
151	0x3cb5762d	0.022151077
152	0x3d96c258	0.07361287
153	0x3cec0b04	0.028813846
154	0xbd4142d3	-0.04718287
155	0x3c9a0e49	0.01880564
156	0xbc084dc6	-0.008319324
157	0xb9df8fa9	-0.0004264091
158	0xbcdc6921	-0.026905598
159	0x3d248956	0.040170036
160	0x3d6ae6a5	0.057348866
161	0x3d57f084	0.052719608
162	0xbd0f7aa0	-0.035029054
163	0xbd6bf61c	-0.057607755
164	0x3c4cc6db	0.012498583
165	0x3d3a35da	0.045461513
166	0x3d3c37e2	0.04595173
167	0xbbe0525b	-0.006845755
168	0x3d74c06c	0.05975382
169	0x3da70852	0.08155884
170	0x3e2e6e1c	0.17034191
171	0x3e2f1d56	0.17101035
172	0x3e590318	0.21192586
173	0x3e0b81c4	0.1362372
174	0x3d46e452	0.048557587
175	0x3ce2e25e	0.02769583
176	0x3d44cbec	0.048046038
177	0xba45e425	-0.000754895
178	0xbceffdbf	-0.0292958
179	0xbc87fc35	-0.016599754
180	0x3d03369c	0.0320345
181	0xbd5e1dde	-0.054227702
182	0xbe0548bc	-0.13016027
183	0xbe91dcb1	-0.28488687
184	0xbe96795c	-0.29389465
185	0xbe4f22d0	-0.20228124
186	0xbd52c284	-0.051455036
187	0x3c442ac6	0.011973089
188	0x3dccf4d5	0.100076355
189	0x3dfbe4bd	0.12299488
190	0x3a370461	0.00069815485
191	0xbdcb1845	-0.099167384
192	0xbb8c5472	-0.0042825276
193	0x3d9e8a6d	0.07741246
194	0x3d136c17	0.035991754
195	0xbbf4423c	-0.007454185
196	0xbc7bde8b	-0.015372883
197	0x3d89cc28	0.06728393
198	0x3df55adc	0.11980221
199	0x3d94c037	0.072632246
200	0x3d94beb3	0.072629355
201	0x3d77e350	0.060519516
202	0xbc8036c2	-0.01565111
203	0x3d343fca	0.044006146
204	0x3d5c9d2f	0.05386084
205	0x3db6a9ab	0.0891908
206	0x3e0f1bf5	0.13975509
207	0x3d77f703	0.060538303
208	0x3d809ef3	0.06280317
209	0x3d7e9f8a	0.062163867
210	0x3d379091	0.044815604
211	0x3cae9478	0.02131103
212	0xbc3db7fc	-0.01157951
213	0x3c854c4b	0.01627173
214	0x3ce25af9	0.02763127
215	0x3c9f050f	0.019411592
216	0x3bb3afe0	0.0054836124
217	0x3d0c3c92	0.03423745
218	0x3d81e4c5	0.063424625
219	0xbcb36fc4	-0.02190388
220	0xbd0a649c	-0.033787355
221	0xbb352ee3	-0.0027646355
222	0x3d8765b4	0.06611195
223	0xbbcea16d	-0.0063058645
224	0xbd6173d1	-0.05504209
225	0xbd32b7f2	-0.043632455
226	0xbbee0e0e	-0.007264859
227	0x3d9220b5	0.071351446
228	0xbd454848	-0.048164636
229	0xbddacc44	-0.10683492
230	0xbdd5c8b4	-0.10438672
231	0xbcfd164d	-0.030894423
232	0xbda7fd85	-0.08202652
233	0xbe0dee41	-0.13860418
234	0xbdffa5e3	-0.12482812
235	0xbde7db65	-0.11321143
236	0xbdd7a901	-0.10530282
237	0xbd7bcdd5	-0.061475594
238	0xbd1cbb94	-0.038264826
239	0x3d71a945	0.05899932
240	0x3ca85e7e	0.02055287
241	0x3bb3a5b8	0.0054824017
242	0x3c09dee1	0.008414955
243	0x3d0eeafd	0.03489207
244	0x3d89ca8c	0.06728086
245	0x3e0fdae1	0.1404834
246	0x3e5eb567	0.21748887
247	0x3e9427b9	0.28936556
248	0x3e8b8a0b	0.27253756
249	0x3e01f301	0.12690355
250	0xbd279e55	-0.04092248
251	0xbe009158	-0.12555444
252	0xbe045c3a	-0.12925807
253	0xbe4c1fcb	-0.19934003
254	0xbd4c9db0	-0.04995507
255	0x3b2c22b8	0.0026265811

3.bias f4 [100]
0	0xbd40f616	-0.047109686
1	0xbe185106	-0.14874658
2	0xbdaf8c6d	-0.08571706
3	0xbd6861c2	-0.056733854
4	0xbce180ec	-0.027527295
5	0xbd5c96e7	-0.05385485
6	0xbcad76c6	-0.0211748
7	0xbd273024	-0.040817395
8	0xbc734701	-0.014848472
9	0x3bbc8a6b	0.0057538054
10	0xbcd9efb7	-0.026603563
11	0x3d627caa	0.05529467
12	0xbd060405	-0.032718677
13	0xbc7bf389	-0.0153778875
14	0x3dc918c1	0.098191746
15	0x3c277c5f	0.0102225235
16	0xbc97fdb0	-0.018553585
17	0x3dacaa62	0.084309354
18	0x3c5d8648	0.013520785
19	0xbcd10fcb	-0.025520226
20	0xbd0dd78b	-0.034629386
21	0xbd528c5c	-0.05140339
22	0x3c5666a8	0.013085999
23	0xbe40aa6b	-0.1881501
24	0xbb41fd91	-0.00296006
25	0xbcb8045a	-0.022463012
26	0xbc65e543	-0.014031711
27	0x3b2760d3	0.002553989
28	0x3d8226b4	0.06355038
29	0xbd960427	-0.07325011
30	0xbca150d7	-0.019691868
31	0xbc424560	-0.011857361
32	0xbc7396cc	-0.014867496
33	0x3c86f1de	0.016472753
34	0xbaf9ebb8	-0.0019067442
35	0xbd82a9a2	-0.06380011
36	0x3c1f3570	0.00971733
37	0x3d13141a	0.035907842
38	0x3d22762a	0.03966347
39	0xbccbc195	-0.02487258
40	0xbc0ad436	-0.008473447
41	0xbd32874e	-0.043586068
42	0xbde582f8	-0.11206621
43	0x3c20d5f9	0.00981664
44	0xbd07e0e5	-0.03317346
45	0x3c128a97	0.008944175
46	0x3b95f3dd	0.00457619
47	0xbcc0b548	-0.023523942
48	0xbd3ff03d	-0.04685997
49	0xbc640f4d	-0.013919664
50	0xbdb3a5bd	-0.087718464
51	0xbe15793b	-0.14597027
52	0x3d31531a	0.043292142
53	0xbd3fa68b	-0.046789687
54	0xbd83e76e	-0.06440626
55	0xbd7da1ce	-0.061921887
56	0x3d1dbafe	0.038508408
57	0xbda1d5b0	-0.07902086
58	0x3b2efed5	0.0026702185
59	0xbe6b239b	-0.22962801
60	0xbd9d495e	-0.07680009
61	0xbda20bfa	-0.079124406
62	0xbc91d62c	-0.01780232
63	0x3cae8358	0.021302864
64	0x3c7a9daf	0.015296384
65	0xbd98bd5c	-0.074579924
66	0x3ccd1726	0.025035452
67	0xbc6d37cc	-0.014478635
68	0xbcaf3d8a	-0.021391649
69	0x3d928363	0.07153966
70	0x3c115b0b	0.008871804
71	0xbc91f437	-0.017816646
72	0xbd00eabf	-0.03147387
73	0xbc75c4ed	-0.015000564
74	0x3de0a264	0.109684736
75	0x3a44a80c	0.00075018476
76	0x3d0ae61b	0.033910852
77	0xbd622609	-0.055212054
78	0xbdedc479	-0.1160974
79	0x3d7c443d	0.061588515
80	0x3d45fb5a	0.04833541
81	0xbc812bd8	-0.015767977
82	0x3c8c5a15	0.017132798
83	0xbbe5e08f	-0.007015295
84	0xbd9ff477	-0.078103
85	0xbdefd119	-0.11709804
86	0xbbdcad73	-0.006734544
87	0x3dc08cc8	0.09401852
88	0xbd1d8ac7	-0.038462427
89	0xbcf21cfb	-0.029554835
90	0x3ba17d70	0.0049282834
91	0x3d99aa56	0.07503192
92	0x3d18efc4	0.037338033
93	0xbd059b62	-0.032618888
94	0x3d1ef0d1	0.03880388
95	0x3d39794c	0.045281693
96	0x3d332fab	0.04374663
97	0x3d6252dd	0.055254806
98	0x3d71852a	0.058964886
99	0x3c918854	0.017765202

5.weight f4 [10, 100]
0	0x3dfa3580	0.122172356
1	0xbe900272	-0.28126866
2	0xbe963678	-0.2933843
3	0xbe3ccaa0	-0.1843667
4	0x3e0287eb	0.12747161
5	0xbbec4c85	-0.0072112703
6	0xbdc468f6	-0.09590332
7	0x3cb00ecd	0.021491433
8	0x3dfba5e2	0.12287499
9	0xbdf5e0e0	-0.12005782
10	0xbe1ef431	-0.15522839
11	0x3d268704	0.040656105
12	0x3cad3e8f	0.021147994
13	0xbe70eed6	-0.23528609
14	0x3e1c9f2c	0.15295094
15	0xbeac002d	-0.33593884
16	0xbdbef5d8	-0.09324235
17	0x3e0c279f	0.13686989
18	0x3e36b2b5	0.17841609
19	0x3b3eced4	0.0029114978
20	0xbe104ada	-0.14091054
21	0x3cd1a2fd	0.025590414
22	0xbe46b6cc	-0.19405669
23	0xbc8ac7a8	-0.016940907
24	0xbe5ed30d	-0.21760197
25	0xbe8ae18f	-0.27125213
26	0x3e116896	0.14200053
27	0x3d878413	0.06616988
28	0xbd9676f9	-0.07346911
29	0x3dac239f	0.08405232
30	0xbce831fb	-0.028344145
31	0x3e106504	0.14101034
32	0x3d7d3f46	0.06182792
33	0x3e07ed20	0.1327405
34	0x3d33002c	0.043701336
35	0x3b22f7b7	0.0024866888
36	0x3e20f104	0.1571694
37	0xbdc93575	-0.09824649
38	0xbe239aea	-0.15977064
39	0xbc8efc2b	-0.017454227
40	0xbcd6cc0c	-0.026220344
41	0xbde88494	-0.11353412
42	0xbeb6a208	-0.35670495
43	0xbcfd8d06	-0.030951034
44	0x3d7fb1ee	0.062425546
45	0xbe1cd191	-0.15314318
46	0xbd0f9b9b	-0.035060506
47	0xbdc6b777	-0.09702962
48	0xbd58fb90	-0.052974284
49	0x3ed118ed	0.4083933
50	0x3e599669	0.21248783
51	0x3e26ef85	0.16302307
52	0xbe0ae674	-0.13564473
53	0x3d65cfb8	0.0561063
54	0xbd5874de	-0.05284583
55	0x3dc33dac	0.09533247
56	0x3e03004b	0.1279308
57	0x3c8e9b3d	0.017408008
58	0xbdef9449	-0.11698205
59	0xbe09c657	-0.13454567
60	0xbe422ed8	-0.18963182
61	0xbdb5fcc8	-0.08886105
62	0x3e1121ec	0.14173096
63	0x3dfc4a4f	0.12318861
64	0x3c3efcc8	0.011656947
65	0xbdf1b5b8	-0.11802238
66	0xbdb7813e	-0.08960198
67	0x3d12c0ec	0.035828516
68	0x3e50e882	0.20401195
69	0xbe2bca59	-0.16776408
70	0xbe92a4a8	-0.28641248
71	0x3dff174e	0.12455617
72	0xbc209504	-0.009801153
73	0xbe8ec342	-0.27883345
74	0xbe5f5edd	-0.21813531
75	0xbe1a3630	-0.15059733
76	0xbdf2fe96	-0.11864965
77	0x3d1ec9d0	0.038766682
78	0xbe2f9538	-0.17146766
79	0xbd9e89ec	-0.0774115
80	0xbe5a1181	-0.2129574
81	0xbe176b53	-0.14787035
82	0xbe44b86d	-0.19210978
83	0xbcb3a7a0	-0.021930516
84	0x3e2559ce	0.16147539
85	0xbde7b91d	-0.113146044
86	0xbdc92a68	-0.098225415
87	0xbd3dc21c	-0.046327695
88	0xbd6334cc	-0.055470273
89	0xbdb5b943	-0.088732265
90	0x3d649fd5	0.05581649
91	0xbe1b81e1	-0.15186264
92	0xbe82b24c	-0.25526655
93	0x3df4f79c	0.1196129
94	0x3d6686db	0.056280952
95	0x3e0c1fec	0.13684052
96	0x3c56a57c	0.013100978
97	0x3dbda99e	0.092608675
98	0xbd2b73e7	-0.04185858
99	0x3e8b1f55	0.27172342
100	0xbeb45239	-0.3521898
101	0xbe5afa2c	-0.21384495
102	0xbc597cae	-0.013274355
103	0xbe010490	-0.12599397
104	0x3d094644	0.033514276
105	0xbe038c53	-0.12846498
106	0xbc3653ea	-0.011128405
107	0xbc391edb	-0.01129886
108	0xbdd77711	-0.10520757
109	0xbed4e833	-0.41583404
110	0xbe37a37d	-0.1793346
111	0xbe98587c	-0.29755008
112	0xbe0c3e46	-0.1369563
113	0x3d565916	0.052331053
114	0x3d8c0f07	0.06838804
115	0xbcbebdc4	-0.023283847
116	0xbe933ac7	-0.2875578
117	0x3e29dda5	0.16588457
118	0x3d0b2f4f	0.033980664
119	0xbdc632f7	-0.096776895
120	0xbc4e9609	-0.012609013
121	0x3e0044d2	0.12526253
122	0xbe7c1a12	-0.2461932
123	0xbde5aeed	-0.11215005
124	0xbd9f5a31	-0.077808745
125	0xbe5fa884	-0.21841627
126	0x3e886f08	0.2664721
127	0xbb8900e1	-0.004181013
128	0xbe681ef7	-0.22668062
129	0xbe47c3ef	-0.19508336
130	0x3ddb1229	0.10696823
131	0xbdbbec88	-0.09175974
132	0x3d4a8462	0.049442656
133	0xbe8c6915	-0.2742392
134	0xbeebc260	-0.46046734
135	0x3bf19614	0.007372627
136	0xbc90d965	-0.017681787
137	0x3ea90393	0.3301054
138	0xbb1a0ef7	-0.0023507455
139	0x3d8fef6a	0.070280865
140	0x3e37dfb5	0.17956431
141	0xbe2383fb	-0.15968315
142	0xbe843342	-0.25820357
143	0x3d66711c	0.056260213
144	0xbe29263c	-0.16518492
145	0xbc95ae13	-0.018271482
146	0x3e36e538	0.17860878
147	0xbe854adb	-0.26033673
148	0x3d7ec016	0.062194906
149	0xbc64d1b4	-0.013966013
150	0xbaf9f057	-0.0019068819
151	0x3e5eccbb	0.21757786
152	0xbcc0ea20	-0.02354914
153	0xbc8c1216	-0.017098468
154	0x3e3281e0	0.17432356
155	0x3e04d6c1	0.12972547
156	0x3dd949d5	0.106097855
157	0xbe375169	-0.1790215
158	0x3daaa7aa	0.08332761
159	0xbcedae7e	-0.029013868
160	0xbd943c02	-0.07238008
161	0x3e831b8d	0.25606957
162	0xbd209d83	-0.039212715
163	0xbe147f4b	-0.14501683
164	0x3c7f90a8	0.015598454
165	0xbea2df5c	-0.31811035
166	0xbe1bc361	-0.1521125
167	0xbe53cd17	-0.20683704
168	0xbe838c0b	-0.25692782
169	0xbd957d25	-0.0729926
170	0xbdce0f8c	-0.10061559
171	0x3d1f8523	0.03894533
172	0xbda9976c	-0.082808346
173	0x3da50331	0.08057249
174	0x3da1d6b4	0.079022795
175	0x3e83bede	0.25731558
176	0x3d489c56	0.04897722
177	0xbd5d1ae1	-0.05398071
178	0x3e23e545	0.16005428
179	0x3dd1547e	0.10221194
180	0xbda00a86	-0.07814507
181	0x3d838e59	0.06423635
182	0x3e32eaaf	0.17472337
183	0xbe6b4c4d	-0.22978325
184	0x3c9407e9	0.018070178
185	0x3e49d16a	0.19708791
186	0xbcfa6bbe	-0.030568954
187	0x3ba40609	0.0050056023
188	0xbc411e15	-0.011786957
189	0x3e5ccf1f	0.21563385
190	0x3d511509	0.05104545
191	0xbd52cdcb	-0.05146579
192	0x3de523c3	0.11188462
193	0x3e13c3e5	0.14430197
194	0xbe8e0a11	-0.27742055
195	0xbe75e30f	-0.24012397
196	0xbc92797c	-0.017880194
197	0x3de7ba1f	0.11314797
198	0x3d8d90ae	0.06912361
199	0xbe484c52	-0.19560364
200	0xbe437de1	-0.19090988
201	0x3eb0c593	0.34525737
202	0xbe5ed28c	-0.21760005
203	0xbd104a24	-0.035226956
204	0x3d90a2a9	0.07062275
205	0x3d69096f	0.056893762
206	0x3e809434	0.2511307
207	0x3c1527ee	0.009103758
208	0x3e41a931	0.18912198
209	0x3bae5f8b	0.005321448
210	0x3cdfd59c	0.027323537
211	0xbe539d43	-0.2066546
212	0x3b326cf6	0.002722559
213	0xbe2af0ce	-0.16693422
214	0x3bd27e1f	0.006423726
215	0xbe681438	-0.22663963
216	0xbe505255	-0.20343907
217	0x3cf797c3	0.030223733
218	0xbe66e0b2	-0.22546652
219	0xbe8f3d50	-0.27976465
220	0x3d5475d2	0.051870175
221	0xbe0b757b	-0.13619034
222	0x3cfd357d	0.030909294
223	0xbcc87503	-0.024469858
224	0xbe3e0dfc	-0.18560022
225	0xbe85e1d1	-0.26148847
226	0xbd0806d8	-0.03320965
227	0xbd55e98d	-0.052224685
228	0xbc641284	-0.01392043
229	0x3d962173	0.07330599
230	0x3cb7ba38	0.022427663
231	0xbc718b3d	-0.01474267
232	0x3d9cbc06	0.0765305
233	0xbd870cd1	-0.065942414
234	0x3ddba593	0.1072494
235	0x3e39197a	0.18076125
236	0x3dc552ba	0.096349195
237	0xbe0730c8	-0.13202202
238	0x3d8f8d12	0.07009329
239	0xbdecb474	-0.11557856
240	0xbe38fc61	-0.18065025
241	0xbe82b434	-0.2552811
242	0x3e8b2736	0.27178353
243	0xbd8da35e	-0.069159254
244	0x3e0328d9	0.12808551
245	0x3e104bc6	0.14091405
246	0xba919fdc	-0.0011110264
247	0xbe50b2bc	-0.20380682
248	0xbde950b5	-0.11392347
249	0x3e3dd30c	0.18537539
250	0xbe9be36c	-0.30446947
251	0x3df221b6	0.11822836
252	0x3e741ee8	0.23839915
253	0xbce08b3b	-0.02741014
254	0xbceb5072	-0.028724883
255	0xbea1e5f3	-0.3162075

5.bias f4 [10]
0	0xbdb74f46	-0.08950667
1	0xbd4011c5	-0.046891946
2	0x3d42b284	0.047533527
3	0x3d6d670d	0.057959605
4	0xbd89d68a	-0.06730373
5	0x3c7d94b9	0.015477353
6	0xbc17100c	-0.0092201345
7	0x3d473bd0	0.048641026
8	0x3d920515	0.071298756
9	0x3e091f4d	0.13390847
