applications/dnn/inference/adc/adc_limits/examples/ADClimits_1152rows_1slices_BALANCED_bias.npy (npy, 992 bytes, 1 tensors)

array f8 [54, 2]
-7.576056480407715 12.130999326705933 -6.674459934234619 10.548151969909668 -4.883332252502441 8.304092764854431 -10.625984249665635 10.293917417526245
-17.269214472325984 11.26890754699707 -3.7984771728515625 10.097054362297058 -4.816028594970703 9.463127493858337 -11.234273150534136 7.256220102310181
-2.4677863121032715 8.756311893463135 -1.508101224899292 7.8675800412893295 -7.937048807507381 6.17594051361084 -3.8798937797546387 9.070658922195435
-2.1886579990386963 9.649348303675652 -10.632530948969361 10.210080623626709 -16.878995939609013 10.46252965927124 -2.6530582904815674 7.550212144851685
-5.9393720626831055 7.971291996538639 -8.834005158903892 7.960443735122681 -1.5555567741394043 9.852071046829224 -1.7447305917739868 8.467190369963646
-10.27055186452344 7.290162682533264 -1.6774017810821533 7.566205404698849 -2.427117347717285 8.523766532540321 -8.960142700292636 6.258348822593689
-1.8842228651046753 10.115037769079208 -40.0475610600115 35.11717653274536 -11.104152425541542 9.074312686920166 -8.584503779573424 8.140721321105957
-6.734874725341797 6.511522993445396 -26.770943071169313 21.235864400863647 -10.337782141941716 6.933979332447052 -1.3367551565170288 7.461607571691275
-25.71011724373966 22.93313366174698 -6.072067200509991 5.586866140365601 -1.0291355848312378 7.389602422714233 -47.66524148208555 52.08969485759735
-6.131744746664481 5.057855546474457 -1.1932628154754639 7.038661420345306 -33.6340013587469 32.11026459932327 -6.122026962344535 5.130079388618469
-1.3608962297439575 6.377361033111811 -39.895598216709914 36.86919045448303 -7.664714935370284 4.1571168303489685 -0.756553590297699 8.108747519552708
-17.902448622968222 17.423681259155273 -11.089819061504386 17.412856221199036 -9.452628690229176 16.170905590057373 -29.4555767894999 23.323802888393402
-8.318358732612978 7.027050256729126 -7.611164019581338 9.778627395629883 -38.13950424866198 44.707109332084656 -27.528669767809333 21.737239480018616
-11.601767298430786 17.746219635009766 -4.409719589131271 12.27430962678045
00000000: 0000 00c0 e14d 1ec0 0000 0058 1243 2840
00000010: 0000 00a0 a5b2 1ac0 0000 0060 a718 2540
00000020: 0000 0040 8888 13c0 0000 000c b29b 2040
00000030: 0040 f001 8140 25c0 0000 0058 7c96 2440
00000040: 0040 5a3d eb44 31c0 0000 0040 ae89 2640
00000050: 0000 0000 4863 0ec0 0000 001c b131 2440
00000060: 0000 0000 9d43 13c0 0000 000c 1fed 2240
00000070: 00c0 7fa6 f277 26c0 0000 0090 5e06 1d40
00000080: 0000 00c0 06be 03c0 0000 0050 3b83 2140
00000090: 0000 00c0 2e21 f8bf 0000 00e7 6678 1f40
000000a0: 0000 fcb8 89bf 1fc0 0000 00c0 29b4 1840
000000b0: 0000 00c0 050a 0fc0 0000 0068 2d24 2240
000000c0: 0000 0020 5f82 01c0 0000 8061 774c 2340
000000d0: 0010 b718 db43 25c0 0000 00b0 8f6b 2440
000000e0: 00f0 bde0 05e1 30c0 0000 00b0 d0ec 2440
000000f0: 0000 00a0 7639 05c0 0000 00d0 6a33 1e40
00000100: 0000 00c0 eac1 17c0 0000 805e 9ae2 1f40
00000110: 0060 64b9 02ab 21c0 0000 0090 7ed7 1f40
00000120: 0000 0080 8fe3 f8bf 0000 00a8 42b4 2340
00000130: 0000 00a0 6aea fbbf 0000 8093 33ef 2040
00000140: 0000 24c6 858a 24c0 0000 0068 2029 1d40
00000150: 0000 0040 a3d6 fabf 0000 8059 cb43 1e40
00000160: 0000 0080 bc6a 03c0 0000 8020 2b0c 2140
00000170: 0080 f2d2 97eb 21c0 0000 0098 8c08 1940
00000180: 0000 00e0 c625 febf 0000 003b e63a 2440
00000190: 00a8 167b 1606 44c0 0000 00a4 ff8e 4140
000001a0: 0000 7b77 5335 26c0 0000 0050 0c26 2240
000001b0: 0050 5314 442b 21c0 0000 00a0 0c48 2040
000001c0: 0000 0000 83f0 1ac0 0000 00af cc0b 1a40
000001d0: 00c0 6d86 5cc5 3ac0 0000 009c 613c 3540
000001e0: 00a0 e9c7 f1ac 24c0 0000 0014 65bc 1b40
000001f0: 0000 0060 5963 f5bf 0000 c0a7 afd8 1d40
00000200: 0030 623e cab5 39c0 0000 00d9 e1ee 3640
00000210: 0038 f5fb cb49 18c0 0000 0070 f358 1640
00000220: 0000 00e0 5677 f0bf 0000 00f0 f38e 1d40
00000230: 00c0 04a2 26d5 47c0 0000 001f 7b0b 4a40
00000240: 0060 4918 e886 18c0 0000 007c 3e3b 1440
00000250: 0000 00c0 9a17 f3bf 0000 00dc 9627 1c40
00000260: 00b8 def4 26d1 40c0 0000 8026 1d0e 4040
00000270: 0000 d2a2 f47c 18c0 0000 0088 3385 1440
00000280: 0000 0020 3bc6 f5bf 0000 40ee 6a82 1940
00000290: 0090 5df6 a2f2 43c0 0000 00a2 416f 4240
000002a0: 0050 3208 aba8 1ec0 0000 003c e3a0 1040
000002b0: 0000 00e0 af35 e8bf 0000 40c1 ad37 2040
000002c0: 00f8 79df 06e7 31c0 0000 0060 766c 3140
000002d0: 0070 97c3 fc2d 26c0 0000 00f2 b069 3140
000002e0: 0088 9bf2 bee7 22c0 0000 0078 c02b 3040
000002f0: 00b8 33ae a074 3dc0 0000 00bf e452 3740
00000300: 00f0 71ea ffa2 20c0 0000 0010 b31b 1c40
00000310: 0060 12fb d471 1ec0 0000 0040 a88e 2340
00000320: 00d4 7446 db11 43c0 0000 008f 825a 4640
00000330: 0020 e3e6 5687 3bc0 0000 00ba bbbc 3540
00000340: 0020 e5d7 1a34 27c0 0000 0040 08bf 3140
00000350: c065 2f88 8da3 11c0 0000 b84f 728c 2840
