tutorial/NICE2024/logs/fsdd_sp/net.pt (torch, 433856 bytes, 10 tensors)

0.w_ih.weight f4 [8, 1, 3, 3]
0	0xbe9db624	-0.30803025
1	0x3e879768	0.264827
2	0x3e210458	0.15724313
3	0x3e63cee3	0.2224689
4	0x3eaa5be6	0.33273238
5	0x3c65a3ed	0.014016134
6	0xbe3552cb	-0.17707364
7	0x3e1125f6	0.14174637
8	0x3ce76feb	0.028251609
9	0x3e549408	0.20759594
10	0xbe684446	-0.22682294
11	0xbcc1b0eb	-0.023643931
12	0xbe8557b1	-0.26043466
13	0x3e6e4088	0.23266804
14	0xbe4176ac	-0.18892926
15	0x3e2329fe	0.15933987
16	0x3d98109b	0.07425042
17	0x3d943a36	0.07237665
18	0x3e007660	0.12545156
19	0x3d18ca8b	0.037302535
20	0xbe359ea8	-0.17736304
21	0xbe8b6326	-0.27224082
22	0x3e1b4f34	0.15166932
23	0xbd154e2e	-0.03645151
24	0xbe2abb60	-0.1667304
25	0x3e648abb	0.22318546
26	0x3df63940	0.12022638
27	0x3e2e1bfe	0.17002866
28	0xbe473666	-0.19454345
29	0xbe9b37a7	-0.30315897
30	0x3e93598e	0.28779262
31	0xbdf4f84a	-0.1196142
32	0xbe09c253	-0.13453035
33	0x3d895720	0.06706071
34	0xbe850377	-0.25979206
35	0xbe95456e	-0.29154533
36	0xbc07ced6	-0.00828906
37	0x3e3a02ce	0.18165132
38	0xbdaf6746	-0.0856462
39	0x3ea557b2	0.3229347
40	0xbdafcb77	-0.0858373
41	0xbe94a397	-0.2903106
42	0x3de52f50	0.11190665
43	0x3c16af80	0.009197116
44	0xbe40eebb	-0.18841068
45	0x3e4ca00e	0.19982931
46	0x3e1b1ef0	0.1514852
47	0xbcbdd456	-0.023172539
48	0x3e057c1b	0.13035624
49	0x3d1e65d3	0.038671326
50	0x3cdaa915	0.026691953
51	0xbe458cfb	-0.19292061
52	0xbd47e3eb	-0.048801344
53	0x3e6b197b	0.22958939
54	0xbc812d16	-0.015768569
55	0xbddae0b0	-0.10687387
56	0xbe9747a0	-0.29546833
57	0xbe52d3c9	-0.20588602
58	0x3e87d6f7	0.26531193
59	0x3b7f8822	0.0038991054
60	0xbe110298	-0.14161146
61	0xbd45c4eb	-0.0482835
62	0x3e3e2f10	0.1857264
63	0xbe024343	-0.12720971
64	0x3e07cad3	0.13260965
65	0xbe5d2f0b	-0.21599977
66	0x3e96145e	0.29312414
67	0x3db58424	0.088630944
68	0x3d97f79d	0.07420275
69	0xbd248200	-0.04016304
70	0x3ea933f3	0.33047447
71	0x3da513d0	0.080604196

0.w_hh.weight f4 [8, 8, 3, 3]
0	0x3de37a1c	0.11107275
1	0xbca756b6	-0.02042709
2	0x3da89329	0.082311936
3	0xbd16c704	-0.03681089
4	0x3c36f986	0.011167889
5	0xbd3cbdab	-0.04607932
6	0x3d8aaef3	0.0677165
7	0xbdbf743f	-0.09348344
8	0x3b0ba5ab	0.0021308463
9	0xbd9eb935	-0.07750169
10	0x3c120c55	0.008914073
11	0x3da97bb6	0.08275549
12	0x3d104876	0.035225354
13	0xbd9612b6	-0.073277876
14	0x3d935d79	0.07195563
15	0x3debe64b	0.11518534
16	0xbb2470a9	-0.0025091565
17	0xbba9364e	-0.0051639443
18	0x3cda395b	0.026638677
19	0x3dec2269	0.11530001
20	0xbdbcc694	-0.09217563
21	0x3d876d3d	0.066126324
22	0xbddc914a	-0.10769899
23	0xbdae0da6	-0.08498697
24	0xbda447ad	-0.080214836
25	0x3dd80555	0.10547892
26	0xbdeba4f0	-0.11506069
27	0xbbe80d38	-0.007081654
28	0xbd927b59	-0.07152433
29	0xbbe8ff2b	-0.0071104965
30	0xbdaaa651	-0.083325036
31	0x3d56f9c8	0.052484304
32	0x3deae844	0.114700824
33	0xbded5a19	-0.115894504
34	0xbd754cee	-0.05988782
35	0xbccab0bc	-0.024742477
36	0x3d4331bc	0.047654852
37	0xbd7eb330	-0.062182605
38	0xbdc47f86	-0.09594636
39	0xbd8e2ff5	-0.06942741
40	0xbda89d68	-0.08233148
41	0x3d6b81b1	0.05749673
42	0xbd34562d	-0.044027496
43	0x3dd49031	0.10379065
44	0x3de03ac4	0.10948709
45	0x3cda20b9	0.026626932
46	0xbce6f9d5	-0.028195301
47	0xbbad8b85	-0.005296173
48	0xbdd6df6c	-0.10491833
49	0x3cb7c8e9	0.022434669
50	0xbd93c4d6	-0.07215278
51	0x3d8cd413	0.068763874
52	0x3d467c81	0.04845858
53	0xbd18f8c4	-0.037346616
54	0x3d802001	0.06256104
55	0xbcce02d3	-0.025147831
56	0x3d87800b	0.06616219
57	0x3dc047c6	0.0938869
58	0x3dcb1be6	0.099174306
59	0xbd478f9c	-0.04872094
60	0x3aea2b19	0.0017865627
61	0xbcf1777b	-0.029475918
62	0x3d88d504	0.066812545
63	0x3db33146	0.087496325
64	0xbb958bb4	-0.004563773
65	0x3def5ff9	0.11688227
66	0xbd556957	-0.052102413
67	0x3d3cdbd6	0.04610809
68	0xbdbc0d13	-0.09182181
69	0x3d25c00d	0.040466357
70	0x3d19e64c	0.037573144
71	0xbc530c07	-0.0128812855
72	0xbdc6da4c	-0.097096056
73	0x3de3fe9d	0.11132548
74	0xbdd7c42d	-0.105354644
75	0xbda3a45f	-0.07990336
76	0xbda4596c	-0.08024868
77	0xbd1b43d0	-0.037906468
78	0x3cd3044f	0.02575889
79	0x3ca4b1c6	0.0201043
80	0x3d12b9bc	0.03582166
81	0x3d362d1c	0.044476613
82	0xbc0bdf6b	-0.008537154
83	0x3cd1f41a	0.025629092
84	0x3d262ebe	0.04057192
85	0xbd6b5446	-0.057453416
86	0xbce18444	-0.02752889
87	0x3c084fc7	0.008319802
88	0x3deec418	0.11658496
89	0x3db46852	0.0880896
90	0xbd70bdbf	-0.058774706
91	0xbd55b693	-0.05217607
92	0x3dba0e22	0.09084727
93	0x3dd0b395	0.101905026
94	0xbde0f61d	-0.109844424
95	0x3d74bedc	0.05975233
96	0x3dcd4a30	0.10023916
97	0xbcd34a31	-0.025792213
98	0xbda0d1fb	-0.078525506
99	0xbd5189ae	-0.051156692
100	0xb9ba346d	-0.00035515745
101	0x3da9709b	0.08273431
102	0xbd529ba8	-0.051417977
103	0xbdc58829	-0.09645111
104	0xbde906c7	-0.11378246
105	0xbc21c78a	-0.009874234
106	0x3bcbaa85	0.006215396
107	0xbdba06db	-0.09083339
108	0xbd1c8444	-0.038212076
109	0xbd1b7a12	-0.037958212
110	0xbdc79ec9	-0.09747083
111	0xbd90b4ba	-0.07065721
112	0xbda66fa4	-0.081267625
113	0xbd013592	-0.03154523
114	0xbc3e4f5d	-0.011615601
115	0xbcfececf	-0.031104473
116	0xbddce49e	-0.10785793
117	0xbdd81eae	-0.10552727
118	0x3de488e2	0.11158921
119	0x3d8f0135	0.06982652
120	0xbddc0550	-0.10743201
121	0xbdd49aae	-0.10381065
122	0xbd24e1cc	-0.0402544
123	0x3da3031f	0.0795958
124	0x3dbe563a	0.0929379
125	0xbd30578a	-0.043052234
126	0xbde62aa2	-0.112386
127	0xbd20c799	-0.03925285
128	0xbdb5887d	-0.08863924
129	0xbd3d164e	-0.04616385
130	0x3baf6bc3	0.0053534224
131	0x3ce5c25a	0.028046776
132	0x3d192c3d	0.037395705
133	0xbdc7fbf6	-0.097648546
134	0xbdd6c283	-0.10486319
135	0xbd680f9f	-0.056655522
136	0xba8e7cd0	-0.0010870937
137	0x3d1e4487	0.03863957
138	0x3c40d77c	0.0117701255
139	0x3d4b63f1	0.04965586
140	0xbd89c613	-0.06727233
141	0x3dae8ada	0.085225776
142	0x3c943a81	0.018094303
143	0x3d4fcb3b	0.050730925
144	0x3d9e4651	0.077282555
145	0x3d80cca6	0.062890336
146	0x3ba9d147	0.0051824185
147	0xbcb12e12	-0.021628413
148	0xbb234332	-0.0024911878
149	0x3deb57ec	0.11491379
150	0xbd5beb26	-0.053691052
151	0x3dda0098	0.106446445
152	0x3bbd9f1e	0.0057867905
153	0x3b024109	0.001987519
154	0x3cc7404c	0.024322651
155	0xbcd7e9a0	-0.026356518
156	0xbc46ead3	-0.012140947
157	0xbd315a1b	-0.043298822
158	0x3d9cea15	0.07661835
159	0x3d7f92d3	0.06239588
160	0x3c789833	0.015173006
161	0x3d0bc6e0	0.03412521
162	0x3c9436d9	0.01809256
163	0xbdd0344c	-0.10166225
164	0x3d21a017	0.039459314
165	0xbdcb6a9f	-0.09932446
166	0x3cff9828	0.031200483
167	0x3c84011b	0.016113808
168	0x3db7971b	0.08964368
169	0x3cf2b663	0.029627984
170	0xba4e25bc	-0.0007863899
171	0xbd95e0e2	-0.073182836
172	0x3d8c2ec2	0.06844856
173	0x3d9439b7	0.07237571
174	0xbde98355	-0.11402003
175	0x3da69564	0.08133963
176	0x3ce37929	0.027767735
177	0xbd343d80	-0.044003963
178	0xbdce07e2	-0.10060097
179	0xbdb29141	-0.08719111
180	0xbd24474b	-0.040107053
181	0xbc22b730	-0.009931371
182	0x3c8c9451	0.017160567
183	0x3dc3ed40	0.09566736
184	0xbd826988	-0.06367785
185	0xba831cf2	-0.0010003133
186	0x3d91f4b7	0.07126754
187	0xbd98b16a	-0.07455714
188	0x3de77020	0.11300683
189	0xbdcca432	-0.09992255
190	0x3d6a209c	0.057160005
191	0x3ddc5a25	0.10759381
192	0x3de12f51	0.10995353
193	0x3d2ba1bf	0.0419023
194	0x3c12c3d3	0.008957821
195	0xbd0f8a3c	-0.03504394
196	0xbd4f35cf	-0.050588425
197	0xbdbeacf9	-0.09310336
198	0x3da21154	0.07913461
199	0x3cc6c39c	0.024263196
200	0x3ccb36ac	0.024806343
201	0x3d96f421	0.07370783
202	0x3c04f700	0.00811553
203	0xbda3e032	-0.08001746
204	0x3d84ab42	0.06477977
205	0xbd8d1ba0	-0.06890035
206	0x3deb3c20	0.11486077
207	0xbdbfb006	-0.09359746
208	0xbdc26481	-0.09491826
209	0x3d817e69	0.06322939
210	0xbc870708	-0.016482845
211	0x3d8ca367	0.06867104
212	0xbd5bbb95	-0.05364569
213	0x3d0f029e	0.034914605
214	0xbda99049	-0.08279473
215	0x3cc8b033	0.02449808
216	0x3ce4fddd	0.027953083
217	0xbdc3c0f9	-0.09558291
218	0x3d21aee5	0.039473433
219	0x3b5cb28a	0.0033675754
220	0x3d9c1aa8	0.07622272
221	0x3df05bac	0.11736235
222	0xbd4a4265	-0.049379725
223	0xbd35d818	-0.044395536
224	0xbd6276a0	-0.05528891
225	0xbddb541a	-0.107094005
226	0xbd803d82	-0.06261732
227	0x3d89ec04	0.067344695
228	0x3db54636	0.08851282
229	0xbcf77476	-0.0302069
230	0xbc1b4903	-0.009477857
231	0x3da44145	0.08020262
232	0x3dece856	0.11567752
233	0xbbac7d86	-0.005263987
234	0x3cb5c632	0.022189233
235	0xbbb4f4b0	-0.005522333
236	0xbdac5b57	-0.08415859
237	0x3dd1696f	0.10225188
238	0xbdec6de1	-0.11544395
239	0xbddfdba0	-0.10930562
240	0x3dae31bc	0.0850558
241	0xbd8fa6d0	-0.07014239
242	0xbd0e9e40	-0.034818888
243	0x3ddb3f73	0.10705461
244	0xbd98d1d5	-0.07461897
245	0x3de27fcf	0.11059534
246	0x3cde6efc	0.02715253
247	0xbd8d29b0	-0.06892717
248	0x3d2439a0	0.040094018
249	0xbdd9ceed	-0.10635171
250	0x3db5107c	0.08841035
251	0x3d1c1cf8	0.038113564
252	0xbdcea962	-0.10090901
253	0xbd851628	-0.064983666
254	0xbc52edea	-0.012874106
255	0x3de0d7ae	0.10978638

0.w_hh.bias f4 [8]
0	0xbdaf612c	-0.08563456
1	0x3d457a1b	0.048212152
2	0x3d0961b7	0.033540454
3	0x3b60c3e7	0.0034296454
4	0xbd28d2f0	-0.04121679
5	0x3d53ecdd	0.051739562
6	0xbdb2099c	-0.08693239
7	0x3d548a02	0.051889427

1.w_ih.weight f4 [16, 8, 3, 3]
0	0xbcab3657	-0.020899935
1	0x3d63ab12	0.055583067
2	0x3d69a671	0.057043497
3	0xbde87369	-0.11350138
4	0x3d88ef0a	0.06686218
5	0xbdd1b2a6	-0.102391526
6	0x3ce83276	0.028344374
7	0x3db54c07	0.08852392
8	0x3dc1e976	0.09468357
9	0x3d76797b	0.060174447
10	0x3dd9cc52	0.10634674
11	0xbd9b56c8	-0.075849116
12	0x3dc8da0d	0.09807215
13	0x3db19e5d	0.086727835
14	0x3c9c2f00	0.01906538
15	0xbb13e736	-0.0022568232
16	0xbddc5d46	-0.10759978
17	0xbd1bcc67	-0.03803673
18	0xbd4a0537	-0.04932138
19	0x3d41459e	0.047185533
20	0x3d50c87e	0.050972454
21	0xbd9019a8	-0.070361435
22	0x3d5491ff	0.051897045
23	0x3dc9a370	0.09845626
24	0xbde56c02	-0.112022415
25	0x3dc6efee	0.09713732
26	0x3d4c322e	0.049852543
27	0xbdcf15c5	-0.10111574
28	0xbd9b7212	-0.075901166
29	0x3c36cf64	0.011157844
30	0xbd3d0289	-0.046144996
31	0xbada8959	-0.0016673013
32	0xbca8d59c	-0.02060967
33	0x3cb0bfe9	0.021575885
34	0x3d07954f	0.033101376
35	0xbb3d0ea2	-0.0028847833
36	0x3cf6c612	0.030123744
37	0x3d1b5a03	0.03792764
38	0x3d11b526	0.035573147
39	0x3c031f11	0.008003012
40	0x3ce9721a	0.02849679
41	0xbde4a108	-0.11163527
42	0xbd95dafb	-0.07317158
43	0x3dc9dc9e	0.098565325
44	0x3dd93f02	0.10607721
45	0x3d90eb20	0.070760965
46	0xbd8f4d1f	-0.069971316
47	0x3c920148	0.017822877
48	0xbda6a8d6	-0.08137672
49	0xbdb1dff8	-0.08685297
50	0x3c7b0537	0.015321068
51	0xbd6a982f	-0.05727404
52	0x3d0d11ab	0.034440678
53	0x3de731e6	0.11288814
54	0x3dd2b68a	0.10288723
55	0xbda473bd	-0.08029888
56	0x3b8e845a	0.0043492736
57	0xbcedbf46	-0.02902187
58	0xbd65aa62	-0.056070693
59	0xbda6c9ea	-0.08143981
60	0xbd9ceaf9	-0.07662005
61	0x3dd010a7	0.10159426
62	0x3cdb34c3	0.026758557
63	0x3d8ba5ea	0.06818755
64	0x3db2210b	0.08697709
65	0xbd13f4da	-0.03612218
66	0xbb54fe6b	-0.0032500278
67	0xbda5c626	-0.080944344
68	0xbd2bd3e4	-0.04195012
69	0xbd6d3887	-0.057915237
70	0xbd7caf38	-0.06169054
71	0xbb4f1262	-0.003159665
72	0xbdd3fb91	-0.10350717
73	0xbdcadfc5	-0.09905962
74	0xbb955c90	-0.0045581535
75	0x3dceafa5	0.10092095
76	0xbc0f1f72	-0.0087355245
77	0x3bf74908	0.007546548
78	0x3d3616a1	0.044455174
79	0xbd12e6aa	-0.03586451
80	0x3a8c35af	0.0010697151
81	0x3bde5e93	0.0067861765
82	0x3c70fdc5	0.014708941
83	0x3d314e99	0.043287847
84	0x3d8bd7cb	0.068282686
85	0xbde4c4f3	-0.111703776
86	0x3d315e0a	0.043302573
87	0xbd353728	-0.044242054
88	0x3d07541f	0.03303921
89	0x3b964990	0.004586406
90	0x3b0a8257	0.0021134818
91	0x3d763f6d	0.06011908
92	0xbcad3c07	-0.021146787
93	0x3c82b396	0.015954774
94	0xbd960f94	-0.0732719
95	0x3bd20355	0.0064090886
96	0x3dd19ba7	0.102347665
97	0x3dc04a54	0.09389177
98	0xbce9cd86	-0.028540384
99	0xbdbee793	-0.09321513
100	0xbd36d6e4	-0.04463853
101	0x3d78e349	0.06076363
102	0xbd3f378b	-0.04668383
103	0xbcd97850	-0.026546627
104	0x3d3d4d90	0.046216547
105	0x3c402cc7	0.011729426
106	0x3ddb73f1	0.107154734
107	0x3d6f44ab	0.058415096
108	0x3d84719f	0.06466984
109	0x3b7afe52	0.003829856
110	0xbd4fbe3d	-0.050718535
111	0xbdbfd1a6	-0.09366159
112	0x3d0db12a	0.034592785
113	0xbc95bc9d	-0.018278414
114	0x3d812f4e	0.06307851
115	0xbd3d4cea	-0.04621593
116	0xbd938545	-0.072031535
117	0x3cc013d3	0.023446953
118	0x3d3c8ff8	0.046035737
119	0xbcfad3f4	-0.030618645
120	0x3db222bd	0.08698032
121	0xbc898e11	-0.016791375
122	0xbdadf7a2	-0.08494498
123	0xbcf6bd61	-0.0301196
124	0x3d75b9b1	0.059991542
125	0xbde43cdc	-0.111444205
126	0x3dc4df46	0.096128985
127	0xbd08c23a	-0.033388354
128	0x3cde9e99	0.027175235
129	0xbdecccd3	-0.115625046
130	0xbd657db7	-0.056028094
131	0xbda38bf1	-0.07985676
132	0x3d1ecb83	0.038768303
133	0xbd410366	-0.04712238
134	0xbd262c88	-0.040569812
135	0xbaffbca9	-0.0019511181
136	0xbce991a1	-0.028511824
137	0xbd9cb587	-0.07651811
138	0x3d9a7155	0.075411476
139	0xbcdf9dbf	-0.027296899
140	0xbd42cbc0	-0.047557592
141	0xbd34e2ef	-0.044161733
142	0xbd9efea3	-0.07763412
143	0x3d4d5692	0.050131388
144	0xbc399db2	-0.011329101
145	0xbda982f2	-0.08276929
146	0xbd768933	-0.060189437
147	0xbdb1d4a0	-0.08683133
148	0xbd9db832	-0.07701148
149	0x3d368d0e	0.044568114
150	0x3d9f3c69	0.07775194
151	0x3db4fae5	0.08836917
152	0xbdaebfe4	-0.08532694
153	0xbb23e3f2	-0.0025007692
154	0x3dd5c17c	0.10437295
155	0x3b11f696	0.002227222
156	0x3c864239	0.016389
157	0xbd6ae1ae	-0.05734413
158	0x3d2efef5	0.042723615
159	0x3dc3ef06	0.095670745
160	0xbdb83a18	-0.089954555
161	0xbcb03c91	-0.021513255
162	0xbda39a70	-0.07988441
163	0x3d9b16a4	0.07572678
164	0x3dbb1ae0	0.091359854
165	0xbd1a5585	-0.037679214
166	0x3d5aa3b0	0.05337876
167	0x3c5acf69	0.0133551145
168	0x3cf2028c	0.02954223
169	0xbd82efe7	-0.06393414
170	0xbce54540	-0.027987123
171	0x3be2b662	0.0069187144
172	0x3d6def9b	0.058089834
173	0xbd5277c5	-0.051383752
174	0xbca44826	-0.020053934
175	0xbd6ba4fd	-0.057530392
176	0xbce7319b	-0.028221896
177	0xbda61ad9	-0.081105895
178	0xbd76df15	-0.06027134
179	0xbc7c27f5	-0.015390386
180	0x3dac06f9	0.083997674
181	0x3dc7f622	0.09763743
182	0x3d5bb10d	0.053635646
183	0xbde51ca7	-0.111871056
184	0xbda8be0b	-0.08239373
185	0xbdb7230f	-0.08942234
186	0xbbc92a5a	-0.006139082
187	0xbd3b5a8a	-0.04574064
188	0x3dd430c3	0.10360863
189	0xbd3286b6	-0.0435855
190	0x3db90395	0.09033886
191	0xbd6bf634	-0.057607844
192	0x3d7ad7a7	0.06124082
193	0xbd2c9147	-0.042130735
194	0x3d7a51a8	0.06111303
195	0x3caab0c1	0.020836236
196	0x3d8c362b	0.06846269
197	0x3d855586	0.06510453
198	0xbd73c915	-0.05951794
199	0x3c9bc769	0.019015985
200	0x3af1279c	0.0018398645
201	0xbd7824f1	-0.060582105
202	0xbcf73c02	-0.030179981
203	0x3dac5b71	0.084158786
204	0xbd7fda14	-0.062463835
205	0xbd21e356	-0.039523445
206	0xbbf4e672	-0.0074737603
207	0xbc8f5236	-0.017495256
208	0xbca3d3be	-0.019998427
209	0xbd61ab18	-0.05509481
210	0xbb291af7	-0.0025803426
211	0xbd7d2a2f	-0.061807808
212	0x3def40eb	0.11682304
213	0xbdb210f9	-0.086946435
214	0x3d066b31	0.03281707
215	0xbdccdc5b	-0.10002967
216	0x3b6f979f	0.003655888
217	0x3da905e0	0.08253074
218	0xbc907599	-0.0176342
219	0x3d6ac79b	0.057319265
220	0x3cd1786a	0.025570113
221	0x3dc91697	0.09818762
222	0xbdc90ccd	-0.09816895
223	0x3d80c14e	0.0628687
224	0x3c014311	0.007889525
225	0xbd1ad4b5	-0.03780051
226	0x3db9cb4f	0.09071981
227	0x3de0d83d	0.10978744
228	0xbc373482	-0.011181952
229	0x3d170288	0.03686765
230	0x3d229315	0.03969105
231	0x3dde396a	0.108507946
232	0xbdcaf785	-0.09910492
233	0xbd570e9d	-0.05250417
234	0xbd2b66c6	-0.04184606
235	0x3d96a683	0.07355978
236	0x3dd888df	0.10572981
237	0x3db89aae	0.09013878
238	0xbc02a5ea	-0.007974127
239	0xbcc6790a	-0.024227638
240	0xbda1c3c5	-0.07898668
241	0x3d1ffe87	0.039061096
242	0x3b80eaad	0.0039342255
243	0xbb9143ed	-0.004433146
244	0xbd931b98	-0.071829975
245	0xbdc6adb3	-0.09701099
246	0xbd5536b9	-0.05205414
247	0x3cb52f0d	0.022117162
248	0xbca29afe	-0.019849297
249	0xbc1c933b	-0.009556587
250	0xbbed4f6f	-0.0072421352
251	0xbd78afe7	-0.06071463
252	0x3db6baff	0.089223854
253	0xbd890342	-0.066900745
254	0x3dd0a4eb	0.101877056
255	0xbd9cb24b	-0.07651194

1.w_hh.weight f4 [16, 16, 3, 3]
0	0xbd9de9e8	-0.0771063
1	0xbcdbe996	-0.02684478
2	0x3d00fa4b	0.031488698
3	0x3d1c27a0	0.038123727
4	0xbd6166b8	-0.0550296
5	0x3d98cbd0	0.07460749
6	0x3c8623c0	0.016374469
7	0xbd1060d0	-0.035248578
8	0x3d135503	0.035969745
9	0x3cf9d806	0.030498516
10	0x3bbd8056	0.005783121
11	0x3d195d1e	0.03744232
12	0x3d94c557	0.07264202
13	0xbd343ebe	-0.044005148
14	0x3aa10456	0.0012284617
15	0xbd8a55f6	-0.06754677
16	0x3b496fab	0.0030736725
17	0x3b90ac80	0.004415095
18	0x3c9e36eb	0.019313296
19	0x3d0a5fe3	0.03378285
20	0x3d57a7ab	0.052650135
21	0x3c9fb540	0.019495606
22	0x3d44fef0	0.04809469
23	0xbce8d07b	-0.028419724
24	0xbd6b616b	-0.057465952
25	0x3d3fbd50	0.0468114
26	0x3d0fd9f8	0.03511998
27	0xbd8cd37a	-0.068762735
28	0x3d1063db	0.03525148
29	0x3beab56b	0.00716274
30	0xbbc1ceeb	-0.005914559
31	0x3c27da2b	0.010244886
32	0x3b914a80	0.00443393
33	0x3cf36fbb	0.029716363
34	0xbc83108b	-0.0159991
35	0x3d11d3a8	0.03560224
36	0xbd89a54a	-0.067209795
37	0xbd9951e2	-0.07486321
38	0x3d91a53f	0.07111596
39	0x3ce3696b	0.027760228
40	0x3d8e0eb3	0.069363974
41	0xbd24ec0e	-0.04026418
42	0x3ccbe516	0.02488951
43	0xbda13932	-0.07872237
44	0xbc89583b	-0.016765704
45	0x3d8fe673	0.070263766
46	0x3d868e57	0.06570118
47	0xbd7dcfe0	-0.061965823
48	0x3da96d34	0.08272782
49	0xbda65efb	-0.08123585
50	0xbd882dde	-0.066493735
51	0x3c2ccd80	0.010547042
52	0x3d49ec18	0.049297422
53	0xbd1df9ab	-0.03856818
54	0xbd5e1dfb	-0.05422781
55	0xbd952a64	-0.07283476
56	0x3c04b136	0.008098891
57	0xbd84871e	-0.06471084
58	0x3d668bf0	0.0562858
59	0x3d412cb0	0.047161758
60	0xbd8aa61b	-0.06769963
61	0x3d70c5b0	0.05878228
62	0x3d623490	0.05522591
63	0xbc85e906	-0.016346466
64	0xbd4acbe0	-0.049510837
65	0xbd008c38	-0.031383723
66	0xbd8bd6f0	-0.068281054
67	0x3d867ae0	0.06566405
68	0xbcba999b	-0.022778323
69	0xbd920db0	-0.07131517
70	0xbd056893	-0.032570433
71	0x3c8924e0	0.016741216
72	0x3d32806b	0.0435795
73	0xbd9aa872	-0.0755166
74	0x3c624eb6	0.013812711
75	0x3d4c8e56	0.04994043
76	0xbd1cf1b6	-0.03831645
77	0x3d85a65c	0.06525871
78	0xbd9bea52	-0.076130524
79	0x3d3c7676	0.04601141
80	0x3d6ccc66	0.057812117
81	0xbda35ab4	-0.079762846
82	0x3d46d1d0	0.048539937
83	0x3d319f80	0.043365
84	0xbda47918	-0.08030909
85	0x3d2d7f83	0.042357933
86	0x3cf01e36	0.02931128
87	0xbd726590	-0.05917889
88	0x3d4fc4b3	0.050724696
89	0xbd2b8a06	-0.041879676
90	0xbd6042db	-0.05475126
91	0xbd7cefa6	-0.061751984
92	0x3d40b0e0	0.04704368
93	0xbccc0a60	-0.024907291
94	0xbd3299ce	-0.04360371
95	0x3d38bbf3	0.045101117
96	0x3aeae856	0.0017922025
97	0x3ccb17d0	0.024791628
98	0xbd95d2c4	-0.07315591
99	0x3d7cf403	0.061756145
100	0xbda78fae	-0.081817016
101	0x3da3c368	0.07996255
102	0xbd69ee08	-0.05711177
103	0x3ca227e6	0.019794416
104	0x3d40e213	0.0470906
105	0xbd73d428	-0.0595285
106	0x3d91a678	0.071118295
107	0xbd92d76f	-0.07169997
108	0xbcf2c5b6	-0.029635292
109	0xbd75ccbe	-0.06000971
110	0x3d8fd25b	0.07022544
111	0xbca3c016	-0.019989055
112	0x3da504d7	0.08057564
113	0x3b971aeb	0.004611363
114	0x3da7a456	0.081856415
115	0x3da59006	0.08084111
116	0xbd52c7f0	-0.051460207
117	0xbd8c515c	-0.068514556
118	0xbd2420a3	-0.040070187
119	0xbd57cb68	-0.052684218
120	0x3d98073f	0.07423257
121	0xbda0d004	-0.07852176
122	0x3d7d8c63	0.06190146
123	0x3d8af3c2	0.06784774
124	0xbbd3d6c0	-0.006464809
125	0xbd594973	-0.053048562
126	0xbd0d3950	-0.034478486
127	0x3d25847e	0.040409558
128	0x3d18d446	0.037311815
129	0x3ccbef3b	0.024894347
130	0xbd89bc32	-0.067253485
131	0x3d3fddfb	0.046842556
132	0xbd5aa05b	-0.053375583
133	0xbda3438a	-0.079718664
134	0x3d2e7570	0.042592466
135	0xbbd92680	-0.006626904
136	0xbd806537	-0.06269305
137	0x3d6dee9e	0.05808889
138	0x3c97a73b	0.018512359
139	0xbd2b8433	-0.041874122
140	0xbd00bc98	-0.031429857
141	0xbd281da0	-0.041043878
142	0x3caaee4b	0.02086558
143	0xbc590c8b	-0.013247619
144	0x3bd30d40	0.0064407885
145	0xbc44e796	-0.012018105
146	0x3da445dc	0.08021137
147	0xbcd9e400	-0.026597977
148	0xba90c000	-0.0011043549
149	0xbd8389f2	-0.06422795
150	0xbcc08526	-0.02350099
151	0x3d7b20eb	0.06131069
152	0x3caaa3c6	0.020830046
153	0xbd778ae8	-0.060435206
154	0x3d72e04b	0.059295934
155	0xbc384880	-0.011247754
156	0x3c940c7b	0.018072357
157	0xbc0a3f80	-0.008437991
158	0xbcacbc30	-0.021085829
159	0x3cb0d4e6	0.021585893
160	0x3d924372	0.071417704
161	0xbbd17580	-0.006392181
162	0x3d0c5780	0.034263134
163	0xbd69ff23	-0.057128083
164	0xbcf8e440	-0.030382276
165	0x3d3f2310	0.046664298
166	0x3cf43130	0.02980861
167	0x3bc4d600	0.006006956
168	0xbd96e707	-0.07368284
169	0xbcd51466	-0.026010703
170	0xbd8e139c	-0.06937334
171	0x3d998de3	0.07497766
172	0xbd0d0978	-0.03443286
173	0x3d9e9c32	0.07744636
174	0x3cde4a40	0.027135015
175	0x3d8a9dfc	0.067684144
176	0x3d6e7626	0.058218144
177	0x3d31575e	0.04329621
178	0xbd652a73	-0.055948686
179	0x3d3dbb06	0.046320938
180	0xbce7c3b6	-0.028291564
181	0xbc3c694b	-0.011499713
182	0xbb2ba3d6	-0.0026190183
183	0x3c847c26	0.01617248
184	0xbd5d9140	-0.0540936
185	0x3d27ac83	0.040936004
186	0x3d1a829e	0.037722223
187	0xbb881256	-0.0041525764
188	0xbda17d3b	-0.07885214
189	0xbd9159dc	-0.070972174
190	0x3da62a44	0.0811353
191	0xbb6b5a2b	-0.0035911899
192	0xbd12990e	-0.035790496
193	0x3d5c5f20	0.053801656
194	0xbd24348b	-0.04008917
195	0xbca642db	-0.020295551
196	0x3c3f8f56	0.011691889
197	0x3da7099f	0.08156132
198	0x3d77e878	0.060524434
199	0xbb6d7a56	-0.0036236248
200	0x3d0a5ae6	0.033778094
201	0x3c67308b	0.014110695
202	0x3d00a183	0.03140403
203	0xbda83563	-0.08213308
204	0x3d8df284	0.06931022
205	0x3d9e4b9f	0.07729267
206	0x3ce96f8b	0.02849557
207	0xbd178616	-0.03699311
208	0x3d1fec10	0.039043486
209	0xbc2681eb	-0.010162811
210	0xbda308ec	-0.07960686
211	0x3da43f83	0.080199264
212	0xbd3ebbf6	-0.046565972
213	0x3d36923b	0.04457305
214	0x3c8f047b	0.017458191
215	0x3d4e6748	0.050391465
216	0x3d2f8b7e	0.04285764
217	0xbd30b066	-0.043136977
218	0x3d286b58	0.041117996
219	0x3d821228	0.06351119
220	0xbd475068	-0.048660666
221	0x3d3182d8	0.043337673
222	0xbd48eff6	-0.04905697
223	0x3d3b52be	0.045733206
224	0x3cb45c4b	0.022016665
225	0x3d9f59f2	0.077808276
226	0x3d345398	0.044025034
227	0x3b4196d6	0.0029539368
228	0xbc198bcb	-0.009371708
229	0xbd87cf93	-0.066313885
230	0x3da53cd4	0.08068243
231	0x3d88e9ef	0.06685244
232	0xbd5b3290	-0.053515017
233	0xbd892028	-0.066955864
234	0x3d3ef708	0.046622306
235	0x3c9df42b	0.019281467
236	0x3c3f428b	0.01167358
237	0xbd5fdb88	-0.05465272
238	0xbcd4ef7b	-0.0259931
239	0xbd098bb8	-0.03358051
240	0x3d805fc4	0.06268266
241	0x3b806bd6	0.003919105
242	0x3d1615ae	0.03664177
243	0xbdaa0da7	-0.08303385
244	0xbd3d8f96	-0.046279512
245	0xbd8afe2f	-0.06786763
246	0xbc95117b	-0.018196812
247	0x3c010016	0.007873556
248	0xbd47d306	-0.048785232
249	0xbda3d1e3	-0.07999017
250	0xbd1d8036	-0.03845235
251	0x3ca25bb0	0.01981911
252	0x3d0b79f3	0.034051847
253	0x3d4582e6	0.048220538
254	0x3d7cea03	0.06174661
255	0x3c5a14f6	0.013310662

1.w_hh.bias f4 [16]
0	0x3d95ff07	0.07324033
1	0x3d288aed	0.041148115
2	0xbaf02b86	-0.0018323518
3	0x3d4c40db	0.04986654
4	0x3d4e3556	0.050343834
5	0x3ce920c7	0.028458012
6	0x3cd12404	0.025529869
7	0x3d61d633	0.055135917
8	0xbc359b2b	-0.011084358
9	0x3ca9e2a9	0.020737963
10	0xbdc45467	-0.09586411
11	0x3d667de4	0.056272402
12	0x3ccaa6f2	0.024737809
13	0x3d068151	0.03283817
14	0xbd4a30f5	-0.049363095
15	0x3d560b04	0.0522566

3.weight f4 [100, 1024]
0	0xbbc710d8	-0.006075006
1	0xbc93a9f0	-0.018025368
2	0x3cfe203a	0.031021226
3	0xba1bd440	-0.00059444085
4	0xbc864b02	-0.016393188
5	0xbcb0764a	-0.02154078
6	0x3af83da0	0.0018939264
7	0xbcb2de9a	-0.02183466
8	0xbcee2c1c	-0.029073767
9	0x3cf8ef80	0.03038764
10	0x3b1954a0	0.0023396388
11	0x3ccd5ba2	0.025068108
12	0x3c678d54	0.014132816
13	0xbb97b0f0	-0.004629247
14	0xbca811ae	-0.020516243
15	0x3b0e8870	0.0021748804
16	0xbceb7652	-0.028742943
17	0xbc59ab20	-0.013285428
18	0xbce6bf40	-0.028167367
19	0xbcd13cb2	-0.025541637
20	0x3cf87372	0.030328486
21	0xbcdfdcf0	-0.02732703
22	0xbc9f7bb0	-0.019468158
23	0x3ce8413a	0.028351415
24	0x3c2e0994	0.010622401
25	0x3ccbb4ce	0.024866488
26	0x3c865414	0.016397513
27	0x3b7ef760	0.0038904771
28	0xb8adcc00	-8.287281e-05
29	0xbce3bc78	-0.02779983
30	0x3c112100	0.0088579655
31	0xbcf204be	-0.029543277
32	0x3ce8916a	0.028389651
33	0xbc5ab3d4	-0.013348538
34	0x3c8b55f8	0.017008767
35	0xbc50d6b4	-0.012746502
36	0x3b8feec8	0.0043924786
37	0xbc13f22c	-0.009029906
38	0x3baf0a20	0.005341783
39	0x3bc5e340	0.006039053
40	0x3cd4a2fc	0.025956623
41	0xbc5f0c2c	-0.013613742
42	0xbc1742f4	-0.009232271
43	0xbc60785c	-0.013700571
44	0x3c4d05c4	0.012513582
45	0xbc1ef1f0	-0.009701237
46	0x3b4d4c50	0.0031326003
47	0xbc7a7cec	-0.015288573
48	0x3bc01470	0.0058618113
49	0xbcb094ee	-0.02155539
50	0x3cc2ee6e	0.023795333
51	0x39f43980	0.00046582147
52	0xbb36de00	-0.0027903318
53	0x3bf1e448	0.0073819496
54	0x3ca11bba	0.019666541
55	0x3bdcdaf0	0.0067399666
56	0x3c1a4b88	0.009417422
57	0xbb2af4c0	-0.0026085824
58	0x3ce895ac	0.028391682
59	0xbc7bba28	-0.015364207
60	0xbcacc814	-0.021091498
61	0x3ce94722	0.028476302
62	0x3c18b8bc	0.009321388
63	0x3ce3184a	0.027721543
64	0xbb928090	-0.0044708923
65	0xbc3bc478	-0.011460416
66	0x3c802928	0.015644625
67	0x3cc526ea	0.024066407
68	0x3cdebf72	0.027190898
69	0x3b9d1760	0.0047940463
70	0xbc35f424	-0.011105571
71	0xbcad23b4	-0.021135189
72	0x3cd62264	0.026139446
73	0x3c4812c8	0.012211509
74	0xbc09be70	-0.00840722
75	0x3c4bfdb8	0.012450628
76	0xbcdfa92e	-0.02730235
77	0x3c86a826	0.016437601
78	0x3cf0566a	0.02933808
79	0xbc967c22	-0.018369738
80	0x3cb0aea2	0.021567646
81	0x3c96a1fa	0.018387783
82	0x3cc7e176	0.0243995
83	0xbb7f0250	-0.003891129
84	0xbcb980aa	-0.02264436
85	0x3cb0818e	0.021546151
86	0xbc6bafc0	-0.014385164
87	0x3cf13f54	0.029449143
88	0x3b215e70	0.002462294
89	0x3ca47180	0.020073652
90	0x3c993242	0.018700723
91	0x3cad73a4	0.021173306
92	0xbbf702b8	-0.007538166
93	0x3cb36784	0.021899946
94	0xbce2ede8	-0.027701333
95	0xbc336b44	-0.010950867
96	0xbc85e550	-0.016344696
97	0xba0ee6c0	-0.00054512545
98	0xbc3ed060	-0.01164636
99	0xbce098e0	-0.027416646
100	0x3c77b520	0.015118867
101	0xbc8645d6	-0.016390722
102	0xbc3b94cc	-0.01144905
103	0x3bbdd9f8	0.005793806
104	0x3c5db8fc	0.013532873
105	0x3cfe1fd2	0.031021032
106	0xbca87c16	-0.020566981
107	0x3bdd9618	0.0067622773
108	0x3ccbf79e	0.024898347
109	0xbbdd6c50	-0.0067572966
110	0xbbc77f50	-0.006088175
111	0xbc8c482c	-0.017124258
112	0x3c23a530	0.009988114
113	0xbb04e1b0	-0.0020276122
114	0xbbbd7680	-0.0057819486
115	0xbb8a9ae0	-0.0042298883
116	0x3c414510	0.011796251
117	0x3be0ad00	0.0068565607
118	0x3ca94f56	0.020667713
119	0x3b7029b0	0.0036645941
120	0x3cee5d92	0.029097352
121	0x3bcb6128	0.0062066503
122	0xbc0df488	-0.008664258
123	0x3c94b098	0.018150613
124	0xbacc1ba0	-0.0015572198
125	0xbb4b9590	-0.0031064488
126	0xbc98bb02	-0.01864386
127	0x3c716630	0.014733836
128	0x3c510cf4	0.012759436
129	0x3c88f41c	0.016717963
130	0x3cf696fc	0.030101292
131	0xbcfaae86	-0.030600797
132	0x3c2c0efc	0.010501619
133	0xbbd59d30	-0.0065189824
134	0x3caef89e	0.021358784
135	0xbcdbc0f6	-0.02682541
136	0x3c7d0b68	0.015444614
137	0xbcc3e6cc	-0.023913763
138	0xbbacde48	-0.0052755214
139	0x3c5155a0	0.012776762
140	0x3c5d3ed0	0.013503745
141	0xbcc327d2	-0.023822699
142	0x3cdcd178	0.026955351
143	0xbceb6506	-0.028734695
144	0xbacfab60	-0.001584392
145	0x3cc85664	0.024455257
146	0x3cff9cb8	0.031202659
147	0x3cd7095a	0.026249576
148	0xbb6d9010	-0.0036249198
149	0x3cc5a27e	0.024125334
150	0xbbd64898	-0.0065394156
151	0xbbe73f08	-0.0070570745
152	0x3cb1374e	0.021632817
153	0xbcde0506	-0.027102005
154	0xbcffb43a	-0.031213868
155	0x3bf8b090	0.0075894073
156	0x3cee0c7a	0.029058684
157	0x3c633a4c	0.0138688795
158	0x3c1a9c44	0.009436671
159	0xbc8699d0	-0.016430765
160	0xbc0ed184	-0.008716945
161	0xbac34ac0	-0.0014899597
162	0xbcb95640	-0.022624135
163	0xbbebfae8	-0.007201541
164	0x3cda77c0	0.02666843
165	0x3c6fb024	0.014629398
166	0x3cc6c342	0.024263028
167	0xbc33f9d8	-0.01098486
168	0x3cac45ea	0.021029431
169	0x3cb5cf58	0.022193596
170	0xbce5ff96	-0.028075974
171	0x3c379a80	0.011206269
172	0xb9101200	-0.00013739616
173	0xbce5fcc6	-0.028074633
174	0x3cbbfdd2	0.02294818
175	0x3cbd5af4	0.023114659
176	0xbca9bffc	-0.020721428
177	0x3cf66954	0.030079521
178	0xbca5fd8a	-0.020262498
179	0x3cbc3ab0	0.022977203
180	0xba94b3c0	-0.0011345074
181	0xbc8ef47c	-0.017450564
182	0xbbca0ef8	-0.006166335
183	0xbcf3e3f6	-0.029771786
184	0xbc11d8ec	-0.008901816
185	0xbbf7d360	-0.0075630397
186	0x3ce71f74	0.02821324
187	0x3ceade34	0.028670408
188	0x3cc4df54	0.024032272
189	0xbcc9c246	-0.02462877
190	0xbcacce8c	-0.021094583
191	0x3cd43bba	0.025907386
192	0x3bae64a0	0.005322054
193	0xbc80dc04	-0.015729912
194	0xbca3ba08	-0.019986168
195	0x3ca069b4	0.019581653
196	0x3bcce040	0.0062523186
197	0x3c50f064	0.012752626
198	0xbca0b2fc	-0.019616596
199	0x3bc2e150	0.0059472695
200	0x3ad07220	0.0015903153
201	0x3c5eea9c	0.01360574
202	0xbcda383e	-0.026638146
203	0xbcc8ce92	-0.024512563
204	0x3c696cfc	0.014247175
205	0xbc05279c	-0.008127119
206	0xbca83f46	-0.020537984
207	0xbc7200c4	-0.01477069
208	0xbc89aec8	-0.016806975
209	0xbb28c540	-0.0025752336
210	0xbc2b8bfc	-0.010470387
211	0x3bf749c8	0.007546637
212	0xbce27d3a	-0.027647603
213	0xbbfbf300	-0.00768888
214	0x3cd3425a	0.025788475
215	0x3c6707d4	0.014100987
216	0xbccec818	-0.025241897
217	0x3cbc6aec	0.023000203
218	0x3bf50f88	0.007478658
219	0xbca3fe20	-0.020018637
220	0xbcd26284	-0.025681742
221	0x3c44cd18	0.012011789
222	0x3c54cd54	0.012988407
223	0x3cfa97ec	0.03059002
224	0x39cf9700	0.0003959462
225	0x3b25a5e0	0.002527587
226	0x390c6100	0.00013387576
227	0xbca7bca0	-0.020475686
228	0xbc8df4fe	-0.017328735
229	0x386a6c00	5.589053e-05
230	0xbcaf4f46	-0.021400105
231	0xbcca1938	-0.024670228
232	0x3a85e0c0	0.0010214075
233	0x3c9faca2	0.019491497
234	0xbce152be	-0.027505275
235	0xbcfdcdd0	-0.030981928
236	0x3cd28d8a	0.025702257
237	0x3cbb1caa	0.022840817
238	0x3c1c52c4	0.009541217
239	0x3c6b4878	0.01436054
240	0x3c1c35a0	0.00953427
241	0x3b0a1d10	0.0021074452
242	0x3a6ece40	0.0009109713
243	0xbca33cd0	-0.019926459
244	0xbc828c62	-0.01593608
245	0xbc442bfc	-0.011973377
246	0x3c38c7d4	0.0112781115
247	0xbc207640	-0.009793818
248	0xbc51f6c8	-0.012815185
249	0xbc9f97a0	-0.01948148
250	0xbc045144	-0.008076016
251	0x3b21e7f0	0.0024704896
252	0x3cdff01a	0.027336169
253	0x3cb10de8	0.021613076
254	0x3cadeda2	0.021231476
255	0x3c95d980	0.018292189

3.bias f4 [100]
0	0xbb9a4f1b	-0.004709137
1	0x3b98a6ae	0.0046585416
2	0x3bf4d744	0.0074719507
3	0x3c1ef0b1	0.00970094
4	0x3c1cf709	0.009580382
5	0xbc34f765	-0.011045312
6	0xbbe388bb	-0.00694379
7	0xbb595a16	-0.0033165268
8	0x3ca2abdf	0.019857345
9	0xbc336b28	-0.010950841
10	0xbc912e6c	-0.017722331
11	0x3965ea45	0.00021926414
12	0xb927be65	-0.00015997289
13	0x3c24145e	0.010014622
14	0xbc02ac4f	-0.007975652
15	0xbc284ccd	-0.010272217
16	0x3c101030	0.008792922
17	0x3c1be772	0.00951563
18	0xbc342be2	-0.010996791
19	0x3c3220c3	0.010872069
20	0x3bff6d74	0.0077950303
21	0xb9b7f2b6	-0.00035085314
22	0x3bb7c7d1	0.005608537
23	0xbbb01505	-0.0053735995
24	0x3a5de218	0.00084641716
25	0xbbea4703	-0.0071495785
26	0x3c31e806	0.010858541
27	0x3bc2c4ae	0.005943856
28	0x3c243593	0.010022539
29	0x3bc6dfd6	0.006069164
30	0xbaf5845f	-0.0018731466
31	0xbc0f2857	-0.008737645
32	0x3bd41b6a	0.0064729946
33	0x3c20e682	0.009820582
34	0x3c124642	0.008927884
35	0xbb00a16f	-0.0019627472
36	0x3c75fd41	0.015013994
37	0xbb8a51e9	-0.00422119
38	0x3a2f9f41	0.0006699451
39	0xbb5197ce	-0.0031981352
40	0xbafd1cda	-0.0019310967
41	0xbc0812ca	-0.008305261
42	0x3bcc5261	0.0062354063
43	0xbc2dcd67	-0.010608054
44	0x3c24feaf	0.010070487
45	0x3c2e535f	0.010639994
46	0xbc13e75e	-0.00902733
47	0x3c2638e8	0.010145403
48	0xbbfe2e02	-0.0077569494
49	0xbc359ea2	-0.011085184
50	0xbb332226	-0.0027333586
51	0x3bdb2c85	0.0066886568
52	0xbb45fdae	-0.003021102
53	0xbc083cfb	-0.00831532
54	0xbc46cede	-0.012134282
55	0x3b1a72a0	0.0023566857
56	0xba3fba07	-0.0007313792
57	0x3a5cb9cb	0.00084200193
58	0x3c113e19	0.008864903
59	0xbc1a2ff0	-0.009410843
60	0xbc096df2	-0.008388029
61	0xbc212906	-0.009836441
62	0x3c189245	0.009312217
63	0x3c29e68d	0.010369909
64	0xbc04ed36	-0.008113196
65	0xbbb086fe	-0.005387186
66	0xbc26c486	-0.010178691
67	0x3b3754a6	0.0027974038
68	0xbb7a1311	-0.0038158337
69	0xbc34c880	-0.011034131
70	0x3bf4278d	0.007451004
71	0xbc212ca7	-0.009837306
72	0x3a27a3dd	0.0006394962
73	0x3bd5391a	0.006507051
74	0xbc346d15	-0.011012335
75	0xbbbf771e	-0.0058430573
76	0xbc046067	-0.008079625
77	0x3b8488f2	0.0040446455
78	0xbc2cfae8	-0.010557868
79	0xbc1967d6	-0.009363135
80	0x3ca1d155	0.019753138
81	0x3c2fbf26	0.010726726
82	0xbc12ce96	-0.008960387
83	0xba56ec3c	-0.0008198654
84	0x36f213e0	7.2144758e-06
85	0x3bb92c57	0.0056510377
86	0xbba81cf3	-0.005130404
87	0xbc4aab6e	-0.012369974
88	0xbbb6f4cd	-0.0055833817
89	0xbb3122ca	-0.0027028793
90	0xbc295fac	-0.010337751
91	0x3c0cbfdd	0.008590666
92	0xbc02dc10	-0.007987037
93	0x3bed68c3	0.0072451546
94	0xbc1465d0	-0.009057477
95	0x3a7bb2d8	0.000960154
96	0x3c1126a4	0.00885931
97	0x3c1ddf82	0.009635808
98	0xbaa26af6	-0.0012391496
99	0x3c25c345	0.010117357

5.weight f4 [10, 100]
0	0xbc50ec9a	-0.012751723
1	0xbbce350a	-0.006292944
2	0x3c0c30f0	0.0085565895
3	0xbc3ccd14	-0.011523504
4	0x3ca0f6ff	0.019649027
5	0xbbfc2cdc	-0.0076957773
6	0x3cb53952	0.022122059
7	0x3d1d464b	0.038397115
8	0xbd29f766	-0.041495703
9	0x3d376123	0.04477037
10	0xbcbabf08	-0.022796169
11	0x3c407bbe	0.011748252
12	0x3d079a7c	0.033106312
13	0xbce2a646	-0.027667176
14	0x3c3ce2d6	0.011528691
15	0x3c028874	0.007967103
16	0xbc460b91	-0.012087719
17	0x3c8111fe	0.01575565
18	0x3c70c7e9	0.0146961
19	0xbc33d778	-0.010976665
20	0xbc128542	-0.008942904
21	0xbc461cd1	-0.012091831
22	0x3ca4e564	0.020128913
23	0xbcc804a1	-0.02441627
24	0xbb52f6b5	-0.0032190506
25	0x3cbc9a6f	0.023022858
26	0x3c5a4531	0.013322161
27	0xbcd8f889	-0.026485698
28	0xbc92e3f8	-0.01793097
29	0x3bdab238	0.0066740774
30	0xbca36da5	-0.019949744
31	0x3ba29b6f	0.004962377
32	0xbbc5411c	-0.0060197245
33	0xbc146d74	-0.009059299
34	0x3bab6b6a	0.0052313106
35	0x3d182ed8	0.03715405
36	0xbd609768	-0.054831892
37	0xbc3b4385	-0.011429672
38	0xbd056c87	-0.032574203
39	0x3c565f11	0.013084189
40	0xbcb77fcc	-0.022399805
41	0xbc4feb77	-0.012690417
42	0xbc85ac69	-0.016317563
43	0xbbda2347	-0.0066570374
44	0xbc85ba0d	-0.016324067
45	0xbd3bd47e	-0.045856945
46	0xbd39f7b8	-0.04540226
47	0xbd2f186e	-0.042747907
48	0x3bc50773	0.006012851
49	0x3bb71143	0.0055867746
50	0xbcf31259	-0.029671835
51	0x3c3b3265	0.011425589
52	0x3bab5f31	0.0052298536
53	0xbba379cb	-0.004988884
54	0x3d4402b7	0.04785415
55	0x3c9d4fb7	0.01920305
56	0xbc9ab23b	-0.018883815
57	0x3b0067a6	0.001959303
58	0x3c5be65c	0.013421621
59	0x3c90ea8f	0.017689971
60	0x3c82b432	0.015955064
61	0xbc44ead6	-0.01201888
62	0x3bbf89c2	0.0058452794
63	0x3caabcef	0.020842044
64	0x3cac2594	0.021014012
65	0x3d0409f1	0.032236043
66	0xbcc43a55	-0.023953596
67	0xbc9e99ae	-0.01936039
68	0x39ae5db4	0.0003325768
69	0xbbb52093	-0.005527565
70	0x3d4d8dad	0.05018394
71	0xbc290260	-0.010315508
72	0x3c7ed57b	0.015553827
73	0xbc7b772b	-0.015348236
74	0x3cf5a273	0.029984688
75	0x3c1eae13	0.009685057
76	0x3c29ab57	0.010355792
77	0xbd2b94ca	-0.041889943
78	0x3c8e00fe	0.017334457
79	0xbb86355b	-0.004095716
80	0x3b81f3c8	0.0039658286
81	0xbc91a4ce	-0.01777878
82	0xbc968cb1	-0.018377634
83	0x3c12f9d1	0.008970694
84	0x3b9ff371	0.0048813154
85	0x3af1c3dc	0.0018445211
86	0xbc8621e1	-0.016373577
87	0xbc79c610	-0.015244976
88	0xbbbe2550	-0.005802788
89	0xbcb1006f	-0.021606652
90	0xbbb3e060	-0.005489394
91	0xbbae0d0b	-0.0053116134
92	0x3cf2ca2f	0.029637424
93	0xbb5b88e6	-0.0033498346
94	0xbbd2029b	-0.006409002
95	0xbd22b8f1	-0.039727155
96	0xbc035fe5	-0.0080184685
97	0x3c3bcc28	0.011462249
98	0xba5a9132	-0.0008337676
99	0xbc6fef94	-0.014644522
100	0xbc627857	-0.013822637
101	0x3a98a908	0.0011647055
102	0x3c570980	0.013124824
103	0xbc2141d6	-0.009842357
104	0x3ca47a12	0.020077739
105	0xbc5acd58	-0.013354622
106	0x3c9743fa	0.018465031
107	0x3d054965	0.032540698
108	0xbd01667a	-0.03159187
109	0x3d0219fe	0.03176307
110	0xbcfd8131	-0.030945392
111	0x3c82a358	0.015947029
112	0x3ce7a4fb	0.028276911
113	0xbcb4f1de	-0.022087988
114	0x3c52ee8c	0.012874257
115	0x3ba66511	0.005077966
116	0xbc513a0e	-0.012770189
117	0x3ca8a795	0.020587722
118	0x3c245bcd	0.010031653
119	0xbb84312c	-0.004034182
120	0x3a4f61d8	0.0007911003
121	0xbc2e5545	-0.010640447
122	0x3ccb15b0	0.024790615
123	0xbcedb5a3	-0.029017275
124	0x3a8ec265	0.0010891674
125	0x3c9d6e88	0.019217744
126	0x3c926a58	0.017872974
127	0xbcde7666	-0.027156066
128	0xbc752be5	-0.014964079
129	0x3c00a3c4	0.007851545
130	0xbd07e466	-0.033176802
131	0x3b4745a6	0.0030406504
132	0x3b13c83e	0.0022549774
133	0xbbfff386	-0.0078110127
134	0x3b9ceaeb	0.0047887466
135	0x3cc85a54	0.024457134
136	0x3dc893e2	0.097938314
137	0xbbfb0e84	-0.0076616425
138	0xbd003983	-0.031304847
139	0x3c496b8e	0.012293709
140	0xbc9e04d4	-0.019289412
141	0xbc73ecb9	-0.014887982
142	0xbc62d3e1	-0.013844461
143	0xbc266fb3	-0.010158467
144	0xbc66972d	-0.014074129
145	0xbd2c5e2c	-0.042081997
146	0xbd581039	-0.052749846
147	0xbd272331	-0.040805046
148	0xba4449a0	-0.00074877776
149	0xba2f756c	-0.00066932174
150	0xbd08a1e6	-0.033357523
151	0x3c2c1901	0.010504008
152	0x3c17858f	0.009248151
153	0xbc036396	-0.008019349
154	0x3d23b811	0.03997046
155	0x3ccddffd	0.02513122
156	0xbc6ebebf	-0.014571845
157	0xba16c718	-0.0005751713
158	0x3c9c41c4	0.019074328
159	0x3c53b27d	0.012920973
160	0x3c7ad09a	0.015308524
161	0xbc632b9a	-0.013865376
162	0x3c757d5a	0.014983499
163	0x3ce1e181	0.027573349
164	0x3cac6e46	0.021048676
165	0x3cfb6260	0.030686557
166	0xbcd787b5	-0.026309827
167	0xbca2a894	-0.019855775
168	0x39e3bdb7	0.00043438163
169	0xbc1c3a14	-0.009535331
170	0x3d586cd6	0.05283817
171	0xbc7f7f90	-0.015594378
172	0x3c94e40b	0.018175146
173	0xbc64064b	-0.013917516
174	0x3cb9ddcb	0.022688767
175	0x3add8c8f	0.0016902852
176	0xb92d50c8	-0.00016528659
177	0xbd2aaf84	-0.04167129
178	0x3c3e20f6	0.011604538
179	0xbbc7a214	-0.0060923193
180	0x3daf183a	0.08549543
181	0xbc58a660	-0.013223261
182	0xbc95c25d	-0.018281156
183	0x3b959943	0.0045653894
184	0xb9c3425c	-0.0003724274
185	0x3bcde1d8	0.006283026
186	0xbcfbd24e	-0.03073993
187	0xbcab5a7c	-0.02091717
188	0xbc1abdc6	-0.00944466
189	0xbcb435ff	-0.021998404
190	0xbbfabfee	-0.0076522743
191	0xbb70eaaa	-0.0036760964
192	0x3cf6207f	0.030044792
193	0xbbd19bd3	-0.0063967495
194	0xbbed3bf5	-0.0072398135
195	0xbc38b845	-0.011274402
196	0xba915247	-0.0011087143
197	0x3c4cdfca	0.012504527
198	0x3b7189ec	0.003685589
199	0x3d4a5604	0.049398437
200	0xbc4b7cf3	-0.012419927
201	0xbbecd538	-0.007227566
202	0x3af25bc7	0.0018490487
203	0xbc889e00	-0.016676903
204	0x3c51745c	0.01278409
205	0xbb7555bf	-0.0037435142
206	0x3cc29dc4	0.02375687
207	0x3d249feb	0.040191572
208	0xbd406f98	-0.046981424
209	0x3d0f4150	0.034974396
210	0xbc8a41e9	-0.016877132
211	0x3c389ddd	0.011268106
212	0x3d04faaa	0.032465614
213	0xbd0377c0	-0.032096624
214	0x3c9d0082	0.019165281
215	0x3c0f3f2d	0.00874309
216	0xbc9c54df	-0.019083438
217	0x3c5e2d97	0.013560674
218	0x3ca200a2	0.019775692
219	0xbc714fb5	-0.014728476
220	0xbc937957	-0.018002195
221	0xbb92a43d	-0.004475145
222	0x3c79a614	0.01523735
223	0xbc86d437	-0.016458614
224	0xbb2010f4	-0.0024424167
225	0x3cd0c7bf	0.025485871
226	0x3bd83f93	0.0065993755
227	0xbcf1afc7	-0.029502762
228	0xbcaaf89e	-0.020870503
229	0x3b7e09ee	0.0038763243
230	0xbd20259e	-0.039098375
231	0x3c4e37ca	0.012586543
232	0xbc1ce9ed	-0.009577257
233	0xbc621661	-0.013799281
234	0xbb14edba	-0.0022724704
235	0x3ca9cc18	0.020727202
236	0x3dc3d70f	0.095625035
237	0xbc474598	-0.012162589
238	0xbcdf1ea3	-0.027236288
239	0x3c1662d6	0.009178838
240	0xbcc412f4	-0.023934819
241	0xbb9adc10	-0.0047259405
242	0xbc8bb293	-0.017052924
243	0xbbc964b3	-0.0061460375
244	0xbcb51383	-0.02210403
245	0xbd527b8f	-0.051387366
246	0xbd19cd3a	-0.037549235
247	0xbd46bfa3	-0.048522603
248	0x3c7ce1d2	0.015434699
249	0x3bf75a56	0.0075486107
250	0xbcb89177	-0.0225303
251	0x3c0a2e4a	0.008433888
252	0x3bf210b6	0.007387246
253	0xbb650761	-0.0034947025
254	0x3d675516	0.05647763
255	0x3c908d2d	0.017645443

5.bias f4 [10]
0	0xbce79cef	-0.028273074
1	0xbb86a09c	-0.0041085016
2	0xbc86f1a1	-0.01647264
3	0xbc94acdd	-0.018148834
4	0xbc2b977b	-0.0104731275
5	0xbbdcdc63	-0.0067401393
6	0xbd470a13	-0.048593592
7	0xbd4b3f20	-0.049620748
8	0xbc36cd7c	-0.01115739
9	0xbd1c9e17	-0.038236704
